Models/NBA/Spread_10_avg_past_games_model.pth (torch, 723215 bytes, 7 tensors)

fc1.weight f4 [256, 542]
00000000: bafb ae3c c47f a1bd 2f36 29bd 4134 f23c
00000010: 3da9 833d 6af2 aabd e220 a3bd ed4f 91bd
00000020: 3b0d 18bd 8b57 1cbd 5f56 ad3d 69b1 293c
00000030: 6ef2 b43a 79b4 1cbd cc28 633b 7772 41bc
00000040: ba08 97bd f9f0 42bc 8b13 55bc 5d78 4b3d
00000050: fa6c 033c aa69 a5bc 14cf 0ebc c392 cb3c
00000060: 46b5 483c 2f81 c2bd 06a0 38bd 2747 11bd
00000070: be2a 0abc 09cc f93c 2e9d c7bd 3ae4 00bb
00000080: 3ed5 b73c b47f a43d 6cc5 a3bd 9b40 fabd
00000090: d89b a6bd 22cd 18bd 673b 6dbd f2ff 06bb
000000a0: 2a24 92bd 5199 82bd fa01 b4bd 150d ab3d
000000b0: 9be5 a5bd dd91 7cbd 502e 72bd 57d2 d6bd
000000c0: 0625 22bd 58a8 04bd a2b7 fbbc 790c 2d3d
000000d0: 86fe 393d 626d 88bd bc37 edbd 356f 8fbc
000000e0: 07be 403e 300f a93c 31b7 babd 7e6c 523c
000000f0: bbf7 b2bc 5467 5dbb 815e a03c 52c4 d1bc
00000100: 6af2 9a3d 0d47 f1bd 0a32 ad3c 605d eb3c
00000110: d633 01bc 5a9b fc3d ee52 babd 0b5d ccbc
00000120: 0d2f 063d 204f 8c3d a376 193d 94ed 9a3d
00000130: 58ad 7dbd da0f 233e 7c1d 883d e587 073e
00000140: 2368 99bd fe65 e8bd ae98 553c cd41 fbbc
00000150: ec28 143d a41c 643d 56d7 85bc a309 79bd
00000160: 7276 01be 9130 45bc 0665 153c a192 d4bb
00000170: dae9 363d 1cbe a1bc f536 103d 08e3 813d
00000180: 95c5 ee3d 5900 06bd 78ab a2bb d77f 98bd
00000190: a795 483d 90c8 243c afd6 ff3c 9a71 a5bd
000001a0: 3601 fbbd 1f07 753d 056e c6bc 3bb0 3fbb
000001b0: 28ba eb3c db76 05bc 9d88 85bd 5f29 e4bd
000001c0: ad32 083d aeae ff3d 3b75 383c e0a2 5a3c
000001d0: 911d 25bd 2b30 c73b 7bf0 083d 1a47 d63c
000001e0: 2f58 5d3d 856a 103d 5fb7 93bd 97d1 753c
000001f0: 4511 44bd b273 e03c 75f1 9abc ebd6 19bd
00000200: f7a4 d83c ac84 e1bc dc03 993c 06da eebb
00000210: 0b1a 17bd 2409 dabc efa3 42bc c0cb 54bd
00000220: 8edc 97bc dc81 ac3c 08ee 6dbc 6b5a 14bd
00000230: 706b ecbd f8b1 453d dfd3 953d e8e5 99bc
00000240: b7b9 eb3c 7bfd 8d3d 6a21 283d b3e1 903d
00000250: 654b 1fbd b86a 26bd ad21 383c ab05 1f3d
00000260: 3d29 843c 0c51 23bd a9b0 493b d440 053d
00000270: de31 76bb 416c 11bd 6929 9b3c 2cca 983d
00000280: 562a 8a3d 11cc 92bd 0914 ac3c be0a 3d3d
00000290: 7490 a3bd b0ba 41bd e812 3dbd 2287 0e3c
000002a0: bfa3 2f3d acdf 48bc a68e 70bd 449d 123c
000002b0: 8e37 e2bc ab63 42bd 2eed 07be cb71 dfbd
000002c0: be4a 53bd e2c3 9dbd 1375 e4bd fd18 3dbd
000002d0: 8283 8cbd 94e2 f1bc a031 143d 1e3c 3b3d
000002e0: 829e fcbd 0ec6 e7bd a846 81bd 30d7 a1bb
000002f0: 703f ecbd ddd1 09bd 0e09 da3c c49b 49bb
00000300: 489c 78bc d7cb 01be 47b2 81bd fae1 563c
00000310: de55 46bd 6fc9 98bd 7365 32ba bc5b 47bd
00000320: 2a63 03bc 2f44 89bc 97b7 11bd d5eb b8bd
00000330: 217f 76bd 9e60 ca3c 7fb6 bebd ef42 53bd
00000340: 9ccf 57bd 9dcb 37bd 5755 d7bc d765 303d
00000350: 211c a93c 9a87 a0bd b201 aabd f362 c9bd
00000360: 12ba b43c 4371 dfbd 4582 cfbd a65e 303c
00000370: 6433 e63b dd14 65bd ead3 d1bc 4d02 333c
00000380: edea d73d c97a 08bd 62d1 63bd 0c26 c3bd
00000390: d23f 06bd 0567 47bd 8add 243d a5e9 54bc
000003a0: cb82 babc de6b c5bc 1f40 21bd 151e a3bb
000003b0: b122 08bd 6940 99bd 38d2 9fbd 0e8b 02bd
000003c0: b1ac 6fbd cfe6 7ebd f2ad 003d a309 86bd
000003d0: 0431 4a3b 74ec 833d 68b9 6d3d 883b 1ebd
000003e0: f277 2fbd 7ea7 6abc 14fa 113b ce42 3b3d
000003f0: 8af1 b33b 69a9 763c 7318 b33b 8a8f 97bc
0.021360267 -0.078856975 -0.04131144 0.029565932 0.06428764 -0.08347018 -0.07965256 -0.07095323
-0.037121993 -0.038169425 0.084637396 0.010357239 0.001380516 -0.03825805 0.0034661768 -0.011807076
-0.07374711 -0.011898273 -0.013005148 0.049675334 0.0080215875 -0.020191986 -0.008716363 0.024850255
0.01225025 -0.09497296 -0.045074485 -0.035468247 -0.008433042 0.0304928 -0.097467765 -0.0019667284
0.022440549 0.0803217 -0.079966396 -0.12219354 -0.081351936 -0.037305005 -0.05791798 -0.0020599333
-0.07135804 -0.06376899 -0.087894395 0.083521046 -0.081004344 -0.061662544 -0.0591262 -0.10489338
-0.03958609 -0.032387108 -0.030727211 0.042248223 0.045408748 -0.06661488 -0.11582896 -0.017509082
0.1882249 0.020637125 -0.09116972 0.012843249 -0.021846643 -0.0033783512 0.019576313 -0.025606308
0.07565768 -0.1178113 0.021142025 0.028731048 -0.007885894 0.123343185 -0.09097849 -0.02494671
0.032759715 0.068510294 0.037466656 0.07564846 -0.06193289 0.15924016 0.06646249 0.13235433
-0.07490566 -0.113475785 0.01303689 -0.030671025 0.03617184 0.055691376 -0.016338032 -0.060800206
-0.1264284 -0.012035505 0.009118324 -0.006487206 0.044656612 -0.019743972 0.03520866 0.06342131
0.116587795 -0.032715175 -0.0049642883 -0.074462585 0.048970845 0.010057583 0.031230299 -0.080783084
-0.1225609 0.059821244 -0.024222383 -0.0029249329 0.02877529 -0.008146013 -0.065201975 -0.111407034
0.033251453 0.124844894 0.011258419 0.0133444965 -0.0403114 0.00607874 0.033432465 0.02615695
0.054039177 0.035257835 -0.0721271 0.015003583 -0.047868032 0.027398918 -0.018913964 -0.037558477
0.026445849 -0.027529083 0.018678598 -0.007289174 -0.03689007 -0.026615687 -0.011879905 -0.051952124
-0.018537786 0.021058016 -0.014522083 -0.03621904 -0.115439296 0.048265427 0.07315802 -0.018786386
0.02877508 0.06933113 0.04104749 0.07074299 -0.03889026 -0.04062912 0.011238498 0.038823765
0.016132945 -0.039872214 0.0030775464 0.032532528 -0.0037566344 -0.03550363 0.018940644 0.07460436
0.06746356 -0.07167829 0.021005647 0.046152823 -0.079865366 -0.04729718 -0.04616061 0.00869921
0.04288077 -0.012260359 -0.05872979 0.008948628 -0.027614381 -0.047458332 -0.1327407 -0.10910376
-0.05158495 -0.07703377 -0.11155143 -0.04616641 -0.068610206 -0.029526986 0.03618014 0.04571163
-0.123349205 -0.11317073 -0.06312305 -0.0049389824 -0.11535537 -0.033647407 0.026615646 -0.003076301
-0.015173979 -0.12675415 -0.06332832 0.0131154 -0.048421733 -0.074602954 -0.0006805278 -0.04867147
-0.008019248 -0.016756145 -0.035575476 -0.090293564 -0.060179833 0.024704274 -0.09312152 -0.051577505
-0.052688226 -0.044871915 -0.02628581 0.043065872 0.020643296 -0.07838364 -0.083011046 -0.09833326
0.022061381 -0.10910275 -0.10132269 0.010764753 0.007025169 -0.0559281 -0.025613744 0.0109258415
0.105428554 -0.033320222 -0.055619605 -0.09528741 -0.032775708 -0.04868223 0.04025034 -0.012995158
-0.022767445 -0.024099287 -0.03936779 -0.0049779513 -0.03323621 -0.074829884 -0.07803768 -0.031870894
-0.0585143 -0.062231835 0.031415887 -0.06544807 0.003085197 0.06441584 0.058038145 -0.038630992
-0.042839 -0.01432216 0.0022274302 0.045718007 0.00549144 0.015055039 0.005465561 -0.018501062

fc1.bias f4 [256]
00000000: afd9 43be 93d5 61bd 5966 2ebe a295 f1bd
00000010: c93d b8bc 37cb 00be 9aa8 9fbd 14a7 1ebd
00000020: 8607 27be 6ecc 59bd 5521 89be b2c3 cbbd
00000030: 732c 9c3d cf79 b3bd 9e1c 15be a157 88bd
00000040: a084 8bbd 0f20 eabd 137d a9bc 7e70 85bd
00000050: c9af 02be f3fa b7bd dd2e f9bd 8139 d7bd
00000060: d200 50bd c343 b8bd 9e6a 33bd d923 9abd
00000070: 1fd6 483d ca94 6dbd 8bdb 91bd 8bed adbc
00000080: 6143 bbbd 0ef2 67bd 2fb1 e8bc 769e 8a3c
00000090: 59d7 a43d fe6f 06bd aa71 8abd 7c24 88bd
000000a0: 0aa5 1d3d d45b 93bd aade dbbd ca6a 61bd
000000b0: 9c32 14be 154f cdbd 5ab2 993b 48fd a5bd
000000c0: d84a 19be 19af 90bc 69bb 51be 9a1e 7abd
000000d0: 00bc b83c 9d49 59bd 30ef e2bd 816d 29be
000000e0: 2956 cdbd 3854 23be 7a1a ae3c 7fdf 2cbe
000000f0: 6ec9 f9bd ab47 c9bd bd35 9cbc 3082 a3bd
00000100: d060 1d3d 1efe 2bbe a175 debd 5e46 f2bd
00000110: 5fc7 72bd f829 943c 3daf 9fbd a11c 35be
00000120: 7922 debd 1377 b0bd 3b1a 3dbd c1c6 d7bd
00000130: 2ef2 96bd c317 91bd c4ba 34bd da45 babc
00000140: 311d 2dbd 31b2 8e3c 3fa4 50be 0fbd 87bd
00000150: ae1f 11be df28 d8bc 69e3 0e3d 6349 46be
00000160: a825 51be 204f fdbd c3bd babd 77f8 c8bd
00000170: 32ca 083d 40c3 84be 602b 2cbd 28c3 cdbd
00000180: 2f82 06bd 66b9 29be 1a2d 03be 52c0 53bd
00000190: a643 e9bd 64cb 41bc 171e aebd 0084 2dbe
000001a0: 68ec 05bd b80c 53bd 6d5d 1bbe 9299 12be
000001b0: e292 47bd 36e1 c7bd 0096 05be 7e20 41be
000001c0: d89b 75bd 050c dcbd 7716 11bd f326 52be
000001d0: b276 92bd 2910 25be 9753 63be f4b9 37be
000001e0: b62c 4ebd 3bdc 7cbd 312c 35bd 55d0 bbbd
000001f0: 799b 29be 4653 1bbe b239 90bd 687a cebc
00000200: 6439 a93b 27a3 f9bd 74cf 52be 8e7d 34be
00000210: 0c65 11be 4ef0 3e3c 0c6e e7bd 2626 f7bd
00000220: 595b 62bc 544b 1fbe e17f 55be 82db 69bd
00000230: 6034 00be dd6d 00be a39d 2cbd 4fb0 b5bd
00000240: 30c5 89bd 33eb b9bd 5dcd 11be 2e8c 86bd
00000250: c3d5 6dbc d344 6cbc 3365 5ebc 9526 4cbe
00000260: ee3b c5bc b8b0 6bbc 374a 2ebe 4fbd 2fbe
00000270: 84de abbd b438 46bd 4fc2 c3bd 76ab 38bd
00000280: 77b0 47bd c125 14be 2f92 36be b4ae 7bbd
00000290: 239c 97bd 6763 15be 216d d6bd a3f0 93bd
000002a0: 8ce3 4dbd cc53 e0bd b367 dabd 6fbb 97bd
000002b0: 3b5e 7ebe 4795 2dbe 074b a6bd b204 c0bd
000002c0: e315 a3bd 1849 93bd 54af 4cbd 4cda b93b
000002d0: 4099 eabb 4776 e3bd 2f55 29be 00ac a1bd
000002e0: 6ddc 4cbd d176 303d 9170 fbbd 9938 86bd
000002f0: 626b e4bc a9ff ecbd fb07 aabd dd30 83bd
00000300: c8fa a5bc 9baa 24bd e02d b8bc bdb7 cbbd
00000310: 0cb8 733d d594 97bd 67a7 b3bd 54f6 4cbd
00000320: a647 a3bd 05f2 c4bd 27fb c5bd f567 03bd
00000330: be9e 09be ed26 28be c0e2 f1bd 7a05 c7bd
00000340: 6f4f cdbd 5c4a 513d d4de 45bd 5fc3 5bbd
00000350: 3a3a 14be 8d08 4ebd e9ee 21be ccd2 e1bc
00000360: 3e9e 0bbe abf1 ddbd fc8e 98bd 6b46 a1bd
00000370: 06cd 3bbd ca61 ba3d 205d b2bd d22d 26be
00000380: 2bc9 41be 6c50 ecbd c2b8 38be d2b7 aebd
00000390: 9983 2ebe 6879 17bd 2c8f 0ebe 53b0 b2ba
000003a0: 6d4d 61bd 83c1 45be dd4e a3bd ef44 67bd
000003b0: 328c b9bc bd1d 28be b7b3 893c 329c 473a
000003c0: e4d6 32bd d52f 94bd be99 a0bc 35a0 0e3a
000003d0: 804d 20be 8205 11be ba1c 7cbc 8987 acbd
000003e0: 79b2 29bc babf 0abe 8d77 0dbe 25dc d4bc
000003f0: faa1 03bd da31 3cbe c3f9 35be e771 713c
-0.19126008 -0.05513532 -0.1703123 -0.11796118 -0.022490399 -0.1257752 -0.0779583 -0.038733557
-0.16311464 -0.053173475 -0.26783243 -0.09949435 0.076256655 -0.087634675 -0.14561698 -0.06657339
-0.068124056 -0.11431896 -0.020689523 -0.06515597 -0.12762369 -0.08983412 -0.121671416 -0.10509015
-0.050782032 -0.089972995 -0.04380285 -0.07526369 0.049032327 -0.058003224 -0.071219526 -0.021231433
-0.09143711 -0.056627326 -0.0284048 0.016921263 0.08048887 -0.032821648 -0.06759961 -0.06647584
0.03848747 -0.07195249 -0.10735829 -0.055033483 -0.14472431 -0.10024849 0.0046904506 -0.0810495
-0.14969957 -0.017661618 -0.20481648 -0.06106434 0.022550583 -0.05304872 -0.11080778 -0.16545679
-0.10026199 -0.15950096 0.02125286 -0.16882132 -0.12196623 -0.09828123 -0.019068593 -0.07983816
0.038422406 -0.16796157 -0.1086228 -0.11829828 -0.059272166 0.018086419 -0.07797096 -0.17686702
-0.10846419 -0.086164616 -0.046167593 -0.10535956 -0.07370411 -0.0708461 -0.044123426 -0.022738386
-0.042264167 0.017418953 -0.20375155 -0.06627857 -0.14172241 -0.026386676 0.034884844 -0.19363932
-0.20424521 -0.123686075 -0.091182254 -0.09813016 0.033395953 -0.25930214 -0.042033553 -0.10046989
-0.032838996 -0.1657463 -0.12810174 -0.051697083 -0.11389856 -0.011828277 -0.08501833 -0.16944885
-0.032696158 -0.0515258 -0.15172358 -0.14316395 -0.048724063 -0.097597525 -0.13045502 -0.18860051
-0.059963077 -0.1074448 -0.035421815 -0.2052267 -0.071515456 -0.16119446 -0.22199856 -0.17942029
-0.05033561 -0.061733466 -0.044231597 -0.091705956 -0.16563214 -0.15168485 -0.070422545 -0.025204852
0.005164312 -0.12189322 -0.2058695 -0.1762602 -0.14198703 0.011653973 -0.11300287 -0.12067823
-0.013815724 -0.15556079 -0.20849563 -0.057094105 -0.1251998 -0.1254191 -0.04214252 -0.08871519
-0.06727064 -0.09078064 -0.14238496 -0.06569706 -0.014516297 -0.014420706 -0.013573932 -0.19936593
-0.024076428 -0.014385395 -0.17020498 -0.17162059 -0.08392051 -0.04839392 -0.09558546 -0.045085393
-0.048752274 -0.14467527 -0.17829202 -0.061445907 -0.074028276 -0.145887 -0.104700334 -0.07223632
-0.050265834 -0.10953483 -0.1066431 -0.07408797 -0.24840634 -0.16951476 -0.08119779 -0.093758956
-0.07963159 -0.07191676 -0.049971893 0.005671775 -0.007159382 -0.11106544 -0.16536401 -0.078941345
-0.050014902 0.043082062 -0.1227733 -0.06553764 -0.027883235 -0.11572201 -0.083023034 -0.06405804
-0.020261183 -0.040201765 -0.022482812 -0.09947155 0.059501693 -0.07401434 -0.08772164 -0.050039604
-0.0797265 -0.09616474 -0.09667044 -0.032081563 -0.13439462 -0.16421099 -0.11810827 -0.097178414
-0.100249164 0.051096305 -0.04830821 -0.053653117 -0.14475337 -0.050301123 -0.15813793 -0.027566336
-0.13634583 -0.1083711 -0.07449147 -0.07874759 -0.045849822 0.09100683 -0.087091684 -0.16228417
-0.18924396 -0.11538777 -0.1803923 -0.08531155 -0.17042388 -0.036981016 -0.13921803 -0.0013632871
-0.05500548 -0.193121 -0.07974026 -0.056462225 -0.022649858 -0.16417594 0.016809328 0.00076145225
-0.043661967 -0.07235686 -0.01960456 0.0005440743 -0.15654564 -0.14162257 -0.015387708 -0.08424289
-0.010357493 -0.135497 -0.13815136 -0.02598388 -0.032136895 -0.18378392 -0.17771058 0.014736629

fc2.weight f4 [128, 256]
00000000: f8ec 8bbd 077b 133b dfc9 e3bb cfcf 5f3c
00000010: 3b38 8ebd ea0f 69bc 7a89 8c3b 1123 f3bc
00000020: f69f 28bd b3a2 1b3d e364 a03c 16a0 f2bd
00000030: d6dd fc3c 9d09 7cbd 92f3 5c3d 5e85 da3c
00000040: 0fe9 493c 242b 1abd 93fc 4b3c 7d35 d6bd
00000050: aae0 dfbc d446 983c 6bc9 65bd 2dac a1bd
00000060: 9798 a13b eac1 77bc 7845 df3d 4c89 c83b
00000070: fbe7 dfbd c532 0d3d 745b 83bd 80c5 483d
00000080: 6227 173e 639a 80bd 7673 91bd 1127 8dbd
00000090: 8249 d53c ee82 c4bd 6c8b 213d 47f2 7fbb
000000a0: 42c1 26bd ea5b 55bd ce70 52bd f5aa 9a3c
000000b0: e5ac 34bd ed0a a8bd 7fc4 a7bd cfbf e3bd
000000c0: e730 b03c f0ca 7bbd 7bcd eb3c 8b77 00bd
000000d0: e44e 193d 5563 22bd 6b03 84bd aeb6 b93c
000000e0: 7cd0 b1bc 249c 94bd 475b 84bd 3dc5 023c
000000f0: 7a41 9f3d e64d 25bc 0391 bb3a de5f d43c
00000100: 835b 09be bb4a 47bd c527 5e3d e951 8a3c
00000110: 4d84 81bd 8d3b 07bd d5c9 21bc 39d1 debd
00000120: ff05 e8bc 4c6e 883a 2cbd 50bb c3f6 283b
00000130: 75e9 69bd 4e40 acbc 8008 0abd dfd7 9b3d
00000140: 8690 413d 0f69 85bd e6f3 6a3b dad4 75bd
00000150: b5df 3f3b f0f5 633c 772c 50bd 2a01 2ebd
00000160: 9c36 a7bd ffcc 33bd f14f b5bd f6ac 34bd
00000170: 5cba db3c 224a 04be 14ea e9bb 4983 823d
00000180: 4821 34bd ef03 b6bd 8a0c 8b3c 65c5 973d
00000190: 498a eabc ed48 793c 205f ff3d 024a a63d
000001a0: a9be b9bd a4d3 423d 31d4 41bd 2218 e43b
000001b0: c50e 9abd a90e de3d cd7e 6f3d c2b7 11bc
000001c0: 44a8 84bb d231 d83c cd9a 663d 26ef d13d
000001d0: d953 a6bd 6ca0 813d 50df b4bd 96e8 673d
000001e0: 08ff d23c f2f9 85bd d2b4 cf3d 81c2 c73b
000001f0: db79 0a3d 42d2 023d 6e54 8f3c c9ea 40bd
00000200: 14dc 40bc 894e cbbd 9556 9fbd 220d 1f3d
00000210: 10ab 8dba 6982 9d3d a7f9 1ebd f491 72bb
00000220: 6184 76bd b683 cfbc cd73 91bd 8f3f 10bd
00000230: 334d 07bd 4ec8 003d e8da cfbd 4d76 dbbc
00000240: 725e 2e3d 1603 12bc aff9 0c3c fb88 46bc
00000250: d16c 8439 f396 39bd 905c 3dbd 0670 87bd
00000260: 4134 e7bd cbb8 21bd c040 2a3b 97a1 833d
00000270: faa9 2bbd 8b4f 063c 2517 99bd 8246 073d
00000280: b38f 753c 1047 8cbd 22b9 4a3d f646 093d
00000290: 8385 64bc d91a 83bc 8be1 8abc 3a70 05bd
000002a0: 36fa b0bd 0737 dc3c fca6 79bd 24fa 85bb
000002b0: a4b7 8abb fc7f ce3c bced 7d3d fd10 913d
000002c0: d7fe e0bc 62f2 c4bd e946 6abd c4cc 1dbd
000002d0: c5b5 4bbc 6852 1e3d 6f33 05bd 1991 a3bd
000002e0: 1644 053d 0fb1 c3bd 24dc 10bd b31b cebc
000002f0: f2fe 1bbd 3559 fdba b98b 9b3d 4fb2 5d3d
00000300: 24db ac3d 4479 1cbd ad54 843d a1ea 84bc
00000310: d73b 133c 53d5 92bd 416b 18bc 5d9a 103d
00000320: 0dbb cd3c 0a86 0f3b 762e a23d f8f3 4abd
00000330: 6f34 473d 25ca bdbb 1e12 99bd c285 4dbc
00000340: d6e0 7ebc b04a 1e3d 203f 393c ca55 f03c
00000350: 2b2f 24bc 8266 0fbd 4adc d5bd 2b4b 8cbd
00000360: 7477 d13c f3fc b03d b7f0 95bd 5a42 9c3d
00000370: 7bfa 86bd 381a 4e3c b84b efbd be0f e8bc
00000380: 7c48 92bd 10b9 82bd f0d6 a33b 79e2 f2bb
00000390: 64f2 d73c 6e1d c3bc bd9a 27bd cb5c 123d
000003a0: 56bc 753d 82cd 0fbc 88dd 78bd f588 babd
000003b0: afb4 883c 6b23 983d c707 c4bc 435c b7bb
000003c0: dccb bebb 4e8a 87bd 328a 9e3c b48b cd3b
000003d0: a46d 7cbd e57f 1e3d 7851 72bd b05b 5b3c
000003e0: 6ad5 e6bc 8c27 16bd f223 9fbc 1f77 93bd
000003f0: 710e ebbb bf14 92bd 3d7a 873c 87c5 103d
-0.068323076 0.002250375 -0.006951555 0.013660385 -0.06944319 -0.014224986 0.0042888494 -0.029679807
-0.041168176 0.03799696 0.019579357 -0.1184694 0.030867498 -0.061532605 0.053943224 0.026674923
0.012323632 -0.0376388 0.012450355 -0.10459421 -0.027328808 0.018588461 -0.05610029 -0.07894168
0.00493152 -0.015121916 0.10901922 0.0061198827 -0.10932919 0.034472246 -0.06413928 0.049016476
0.14761117 -0.06279447 -0.071021006 -0.06892217 0.026036028 -0.09595285 0.039439604 -0.003905432
-0.04071165 -0.05208961 -0.05137711 0.018880347 -0.044110198 -0.08205209 -0.081917755 -0.11120569
0.021507693 -0.061472833 0.028784504 -0.031364005 0.03742875 -0.03964551 -0.064459644 0.022670116
-0.021705858 -0.07256344 -0.06462722 0.007981596 0.077761605 -0.010089373 0.0014310185 0.02592462
-0.13413815 -0.048655253 0.054237146 0.01688476 -0.063240625 -0.033015776 -0.009874781 -0.1087975
-0.028323172 0.0010408848 -0.0031851036 0.0025781847 -0.057107408 -0.021026757 -0.033699512 0.076095335
0.04725697 -0.06514179 0.0035850941 -0.060017444 0.0029277627 0.013913617 -0.050823655 -0.04248158
-0.08164713 -0.04389667 -0.08853138 -0.04411026 0.026822262 -0.12918904 -0.0071385 0.06372697
-0.043977052 -0.08887469 0.016973753 0.07410697 -0.028630393 0.015215141 0.124693155 0.081195846
-0.09069569 0.047565117 -0.047321502 0.0069608847 -0.07522348 0.1084264 0.058470536 -0.008893909
-0.004048379 0.026390944 0.056299973 0.10250692 -0.081214614 0.06329426 -0.08831656 0.056618296
0.025756374 -0.06541814 0.101419106 0.0060961847 0.033807617 0.0319388 0.017496314 -0.04709891
-0.011771221 -0.09927089 -0.07780186 0.038830884 -0.0010808427 0.076908894 -0.038812306 -0.0037013264
-0.06018484 -0.02533136 -0.07102165 -0.035216864 -0.033032607 0.031441025 -0.10149175 -0.026789809
0.04257054 -0.008911869 0.008604451 -0.01211762 0.00025258076 -0.045309972 -0.046230853 -0.06613164
-0.112892635 -0.039482873 0.0025978535 0.06427305 -0.04191015 0.008197675 -0.074751176 0.033026226
0.014987874 -0.068494916 0.049492963 0.03351494 -0.013947847 -0.016004013 -0.01695325 -0.03257773
-0.08641474 0.026881708 -0.060950264 -0.004088657 -0.0042333174 0.025207512 0.0619943 0.070833184
-0.027465267 -0.09616543 -0.05719653 -0.038525358 -0.012433474 0.038652807 -0.032519754 -0.079866596
0.032535635 -0.095552556 -0.035366192 -0.025159692 -0.03808493 -0.0019328954 0.07595009 0.054125126
0.08440235 -0.038201585 0.06461463 -0.016225161 0.008986435 -0.071695946 -0.009302915 0.035303462
0.025113607 0.0021899962 0.07919018 -0.049549073 0.04863399 -0.00579192 -0.07474159 -0.012544097
-0.015556535 0.038645446 0.011306554 0.029337782 -0.010021011 -0.03500987 -0.104424074 -0.06850275
0.025569655 0.08641996 -0.07321303 0.07629843 -0.06590744 0.012579493 -0.11684364 -0.028327819
-0.071427315 -0.06382954 0.004999988 -0.0074122516 0.026360698 -0.023817744 -0.040919054 0.035733026
0.059994064 -0.008777024 -0.060758144 -0.09108154 0.01668772 0.074286304 -0.02392949 -0.0055957153
-0.005822642 -0.066181764 0.019353006 0.0062727574 -0.061628 0.03869619 -0.059159726 0.013388559
-0.028177936 -0.03665881 -0.01942632 -0.07200455 -0.0071733524 -0.07132863 0.01653778 0.035344627

fc2.bias f4 [128]
00000000: a4b0 7cbc d22c e13b ddbc f8bc 96b9 ab3c
00000010: bcc6 123d c16e 13bd 5477 bf3c 4625 663d
00000020: fd74 ac3a 7197 3c3c 6fc4 6d3c 2097 7fbd
00000030: 5aa5 b13c a312 a3bd 2c32 11bd 3e89 94bc
00000040: 2a4b cdba 2583 7f3c a52e 863c 4cd9 a1bd
00000050: 2cb3 803d ff82 b03c 52a5 48bd 1fd3 153d
00000060: b1ac f23b 9fe5 a5bc ff3c 163d 748a bfbc
00000070: 9e9b 18bb d6ad 69bd edb0 35bd d3a3 a4bb
00000080: a133 36bd b789 41bd 8064 4dbc cfca acbd
00000090: 308d dabc d4bd 05bc 0300 fabc 7879 853d
000000a0: f5b8 2dbd 5c33 a8bd 5e20 94bd ab79 943b
000000b0: f379 03bd 6939 90bc 1d18 34bc 1b13 793c
000000c0: e5a5 1d3d 2ad9 46bd 5dda 11bd 38c4 2dbd
000000d0: 3d75 4a3c 2e0e 4d3d da21 103d 2074 503d
000000e0: e95a 8abd 1929 66bd e9c5 e7ba 5dc5 8d3d
000000f0: 6aba 48bb 79fb 11bd 1f0d 4bbd 8dea 553d
00000100: 7931 ae3d 4fd9 54bd bf3e 1dbd 4a54 41bd
00000110: 1fd6 8cbc 547d c93c c074 d03c 68d4 c2bc
00000120: eca1 5dbd aa0e 0bbd 8a3d b1bc 48d1 54bd
00000130: 5291 0ebd 16ac 8ebc e493 653d 894b 51bc
00000140: c8a9 583d 3069 0f3d 246d 913d d3d1 3abc
00000150: 2fd5 8fbd 4d73 e13c e034 283c e50e 8e3d
00000160: 5fc4 9a3c e702 943b 40bd 3bba 0e94 48bc
00000170: 90f0 31bd ec19 d33c 8651 06bd 2275 023d
00000180: 1145 313d aee6 9dbd 731d 68bd be8e f53c
00000190: cfc4 8b3d 0a57 34bc c113 7d3d 5cb9 13bd
000001a0: efb7 3fbd 5027 d1bb e9d1 9cbd b59a 1dbd
000001b0: 9035 e03b 6e66 02bd 3fb0 aebd 29c8 64bb
000001c0: ab7c 223d 4e06 8e3d 05df e73c 1bed 303d
000001d0: 6574 bf3d 2206 52bd 6fe3 14bd 99ad 06bd
000001e0: 6f2e 0bbd 5ecd 213d f697 dc3c 3fb2 843c
000001f0: c79d 8c3d 7824 19bc b132 97bd 8fff 2cbd
-0.015422974 0.006871798 -0.030363495 0.020962518 0.03583406 -0.035994295 0.02337233 0.05618789
0.0013157424 0.011510716 0.014512165 -0.062399983 0.021685291 -0.07962539 -0.03544824 -0.018131848
-0.001566266 0.015595232 0.016379664 -0.07902774 0.06284174 0.021546839 -0.048985787 0.036578294
0.0074058403 -0.020251093 0.036679264 -0.02338145 -0.0023286114 -0.05705055 -0.044358183 -0.005024412
-0.04448283 -0.047250476 -0.012536168 -0.0843712 -0.026678652 -0.008162934 -0.030517584 0.06517309
-0.042412717 -0.08212921 -0.07232736 0.0045311055 -0.03209872 -0.0176055 -0.010992077 0.015202309
0.038488287 -0.048546948 -0.035608638 -0.042423457 0.012357053 0.05006235 0.035188533 0.050891995
-0.06755621 -0.056191538 -0.0017682883 0.0692241 -0.003062869 -0.035640214 -0.04957306 0.05222564
0.0850553 -0.051965054 -0.038389917 -0.047199525 -0.017191945 0.024595894 0.025446296 -0.023782924
-0.0541095 -0.03394953 -0.02163579 -0.0519574 -0.034806557 -0.017416041 0.056049243 -0.012774357
0.05289629 0.035012424 0.07100895 -0.011402565 -0.070230834 0.0275208 0.010266513 0.06936435
0.018892465 0.0045169475 -0.00071616843 -0.01224233 -0.04344231 0.025769196 -0.03279259 0.031849988
0.043278757 -0.07710014 -0.05666871 0.029975291 0.06824648 -0.01100708 0.061786417 -0.036065444
-0.046806272 -0.0063828602 -0.07657225 -0.03847762 0.0068423226 -0.031835966 -0.0852971 -0.0034909344
0.039669674 0.06934796 0.028304586 0.04319487 0.09348372 -0.05127538 -0.03634971 -0.0328804
-0.03397983 0.039502494 0.02692793 0.016198276 0.06866031 -0.009347074 -0.073827155 -0.042235907

fc3.weight f4 [64, 128]
00000000: 57e0 8ebc 2925 f5bd 9ee8 c03c e6e4 8a3c
00000010: d164 0d3d c869 14bd 9f89 043c 3f0a 2abd
00000020: c2a8 c1bc 3378 2b3d 3c98 953c 70ef 8e3d
00000030: 9150 a1bd b4c8 26bd 193f 40ba 3024 d4bb
00000040: 2b43 89bb 5e09 513d f138 a2bd 9ebb 2bbd
00000050: 8a7a 60bc 1a01 6dbd 636d 85bd 3ea5 4cbd
00000060: fb22 98bd d459 a8bd 98a4 983d cffb 0c3c
00000070: 1029 623d e4b1 8fbd 8fdd 6abd ae2b 62bc
00000080: 2428 41bc 510c b6ba 5087 7bbd bd0e d13c
00000090: 38cf b23b 5c5d 8abd f2a8 903c e6f2 02bd
000000a0: 3c0a cd3c ec9f 713d b0cf 3b3d 939b 8fbb
000000b0: da97 383d f117 4e3d 894c e239 fa53 903d
000000c0: 2656 b8bd 583c 6fbd e55d d9bc 5636 7d3d
000000d0: 4179 78bd 1a86 2abd e4a2 cabb 3335 223d
000000e0: de59 5e3d ec82 89bd 4e92 ef3c b728 0ebd
000000f0: 41bc 223c ecfc 27bc 56b3 383c 8e07 0e3c
00000100: 05e6 9fbd 38a4 703d e119 c33b de87 803d
00000110: ef61 62bc 74fd 0dbd 5a79 b03d 7b7d 31bd
00000120: cb1c 5abd 2390 aebc 6be6 3ebd 26a2 57bd
00000130: 84c6 80bc 6ce1 9d3c f359 82bd f93d 8fbd
00000140: 9ad2 c9bc 4463 edbc 7dd4 933d e88b e4bd
00000150: b910 bf3c c973 8c3d 191f a1bd b5a2 f0bd
00000160: 0d05 acbd a779 2c3d a82d b5bd 6849 c3bc
00000170: 1549 a3bc f673 72bd 9b6c e7bd 5a56 d5bc
00000180: 2e6a 8abd 7ce4 bfbd 57b5 11bd acad fa3c
00000190: 1d71 313d 0228 ff3c fe8a 8abd 765d 06bd
000001a0: c3ca afbd 4071 b7bc c8fa a2bd dfa8 c63c
000001b0: f3d8 9d3d 4a6c e2bd b4fa 8bbb 63e7 a4bd
000001c0: 4afc 95bc 2795 a03c 0e50 dabd fbb0 0bbd
000001d0: b475 21bc 9262 b53c c90a a93d 377c b73d
000001e0: 779c d2bd 59bc 9cbd bc34 5bbd d07c 8bbd
000001f0: e255 acbd 1246 f63c 91fb c4bb adc1 023d
00000200: e947 a2bc 4a7a 903d f965 0dbd 815d d8bc
00000210: 637b 173d 79a8 afbd d1e8 0c3d 727f 903c
00000220: bb0e e9bc 6b5c 563d 9e80 0ebd 102b 88bc
00000230: 1961 093d f626 643d 26e2 983d 4e5e 353d
00000240: 7333 95bc 6a4e 0bbd 2cad 12bd 03c3 0f3d
00000250: 9b40 a9bc 152a 0d3d bcff 2fbd f46b babc
00000260: 4969 b43c 9dcd 14bd 2271 1c3d e438 10bd
00000270: bbc6 aabc c8f9 72bd 5027 06bd de8a 4bbc
00000280: 0ff6 223c cd15 1fbd 1f17 f43c 4298 8c3c
00000290: 5939 bc3c 7bcd bb3c 584b aabd 3603 80bd
000002a0: 05b2 bcbd 1ed3 9b3c 1857 e43c d64f 4f3d
000002b0: a655 203d ea60 8f3d 3b06 843d 45ff 6b3d
000002c0: 4df2 8bbd 466d 96bc e8e6 a7bc fcc0 a83d
000002d0: f00f 653d 5fe7 373d 6637 9b3d ede8 863d
000002e0: 87a7 34bd 8cd1 4fbc 2aa1 7cbd d488 743d
000002f0: 729b 0b3c 0c3e 833d 9381 21bd cd9b a8bb
00000300: ec89 bb3c 528d 82bc c0f0 59bd 7b23 53bb
00000310: 0348 b93c 731b 6dbd 2826 f5bb 8956 7dbd
00000320: 7bbf a8bd bb76 5c3d e3fc 9fbd 1f0c 83bd
00000330: d0bd 293c 9e0e 133d c169 463c 9b84 84bc
00000340: 8340 c1bd 4341 953d 5d84 3bbd 880a 723d
00000350: 25ab 143d 4041 4b3d 05ed fbbc 8063 86bd
00000360: 070a 403c 079a 763d 6d72 f9ba 398f b0bd
00000370: b4f5 a13c d875 11bc a9a4 dbbc d89e 01bd
00000380: df22 74bd 83c7 ee3b c468 d53c 9409 94bc
00000390: f9b6 93bd 6c21 2f3b d6ec 32bc 82a3 913d
000003a0: bdff 053c 9a5f 1d3d 0133 6f3a 2893 7abd
000003b0: c3a0 b9bc c270 dbbd a358 ea3b dd98 4ebd
000003c0: b632 343d dff1 9bbd e9e7 fbbc 4cc0 37bd
000003d0: efaa 2a3d 8618 0a3a f69f 373c d242 01bc
000003e0: 815a 4b3d 1f80 c5bc 1921 52bd 3aec 143d
000003f0: e5ad 9cbd d055 68bd 6e6a d7bc 2512 f9ba
-0.017440958 -0.11969978 0.02354842 0.01695485 0.034519974 -0.036233693 0.008089452 -0.041513678
-0.02364004 0.041862678 0.018261068 0.06979263 -0.07876695 -0.04071875 -0.0007333621 -0.0064740404
-0.0041889152 0.051034324 -0.07921017 -0.041926973 -0.013701091 -0.05786238 -0.065150045 -0.049962275
-0.07428547 -0.08220258 0.07453269 0.008604958 0.05521494 -0.07016352 -0.0573402 -0.013804359
-0.011789355 -0.0013889169 -0.06140834 0.025519723 0.0054568313 -0.06756088 0.017658684 -0.031969927
0.025029294 0.058990404 0.045852363 -0.0043825596 0.045066692 0.0503158 0.00043163102 0.07047267
-0.090008065 -0.058407158 -0.02653403 0.061819397 -0.06066251 -0.041631795 -0.006183969 0.039601516
0.054284923 -0.067144245 0.029244568 -0.034706797 0.009932579 -0.010253172 0.011273226 0.008668793
-0.078075446 0.05875036 0.0059540127 0.062759146 -0.0138172945 -0.03466554 0.08616896 -0.043332558
-0.053250115 -0.021308964 -0.046606462 -0.05264487 -0.01571966 0.019272529 -0.06364813 -0.06994242
-0.024636555 -0.028977998 0.07218263 -0.111594975 0.023323404 0.06858022 -0.078672595 -0.11749784
-0.08399401 0.042108204 -0.08846599 -0.023838714 -0.01993231 -0.05919262 -0.11300012 -0.026042152
-0.067585334 -0.09369752 -0.03557333 0.030600391 0.043320764 0.031147007 -0.06764792 -0.032803975
-0.085835956 -0.022392869 -0.07957989 0.024250446 0.077073954 -0.11055811 -0.0042718295 -0.08051946
-0.018308777 0.019602371 -0.106598005 -0.03410433 -0.009854723 0.022141729 0.0825401 0.08959239
-0.102837496 -0.07653112 -0.05351709 -0.068109155 -0.08414818 0.030062709 -0.0060114344 0.031922985
-0.01980968 0.07054575 -0.034521077 -0.026411774 0.036982905 -0.085770555 0.03440172 0.017638896
-0.028449407 0.05233423 -0.034790628 -0.016622096 0.033539865 0.05570122 0.074650094 0.04427939
-0.01821301 -0.03401033 -0.03580968 0.035098087 -0.02066069 0.03446396 -0.042968497 -0.022756554
0.02202286 -0.0363289 0.03819383 -0.035210505 -0.020846715 -0.05932024 -0.032752335 -0.012423245
0.00994636 -0.03883915 0.029796181 0.017162446 0.022976564 0.02292513 -0.08315152 -0.062506124
-0.09213642 0.019021567 0.02787356 0.050613247 0.03914418 0.07000907 0.06446501 0.05761649
-0.068333246 -0.018362653 -0.020495847 0.08239934 0.055923402 0.044898387 0.07578926 0.06587396
-0.04410508 -0.012684237 -0.061677136 0.059700802 0.008520948 0.06408319 -0.039430212 -0.005145526
0.022892915 -0.015936527 -0.053208113 -0.0032217193 0.022617346 -0.057887506 -0.007481355 -0.061850104
-0.08239647 0.053824168 -0.07811906 -0.06398796 0.010360196 0.035902612 0.012110175 -0.016176512
-0.09436133 0.07287838 -0.04578053 0.059092075 0.03629603 0.049622774 -0.030752668 -0.06561947
0.011721141 0.060205486 -0.0019031294 -0.086210676 0.01977048 -0.008878194 -0.026811915 -0.031645626
-0.05960357 0.0072869672 0.026050933 -0.018070973 -0.07212634 0.0026722802 -0.010920724 0.07111265
0.008178649 0.03842125 0.00091247266 -0.061175495 -0.022659665 -0.10714866 0.0071516796 -0.05043875
0.043993674 -0.076144926 -0.030750232 -0.044861123 0.04166692 0.00052679365 0.011207571 -0.007889466
0.049646858 -0.024108944 -0.051301096 0.036358096 -0.07650355 -0.056722462 -0.026295867 -0.00190026

fc3.bias f4 [64]
00000000: 32d4 5b3c a69c 52bd e8ad fbbc 5f82 ffbc
00000010: 70f5 afbc b5e2 b73d 244c d4bd e039 50bd
00000020: 661f a2bd 7751 0d3d d2c5 ae3d 9346 463d
00000030: 983e 053c f039 43bd e2be 013d 7ad4 dcbc
00000040: 5d4e 143e f101 dcbc b810 483d 4b01 d63c
00000050: 3de5 303c c074 4c3d f0a4 743c da51 8fbd
00000060: 81d8 1dbe 7652 c9bd d292 863d b524 e3bc
00000070: 2b46 413c 0551 ecbd 1871 3b3c 42b6 bf3d
00000080: df25 54bb 7786 efbd 9db2 cebd fd70 60bd
00000090: f7bf 083c 7a36 ad3c d686 d0bd 5394 853d
000000a0: db0b 0a3d c417 333d 67c8 cf3c 13fa a63c
000000b0: 25be ccbd 9b05 e23d 9a14 a0bc cf2c d43d
000000c0: 072b 853d b65c 74bd a7f8 053e 5ad0 e6bd
000000d0: 5cdd ee3c 831a 79bd 409e 113d f219 8e3c
000000e0: fa8e 103d 5ed6 5abc 85e7 f33c 966a 1ebd
000000f0: afee 053e 03d7 7e3d 32c4 a1bd 0b07 d23d
0.0134172905 -0.051418923 -0.030722573 -0.031190095 -0.021479338 0.08978788 -0.10366085 -0.050836444
-0.07916145 0.03450152 0.08533825 0.04840715 0.008132599 -0.047662675 0.03167618 -0.026956785
0.14483018 -0.026856394 0.04884407 0.026123663 0.010796842 0.04991603 0.014931902 -0.06998034
-0.15414621 -0.09830181 0.065709725 -0.027727464 0.0117965145 -0.11538891 0.011440538 0.09360935
-0.0032371206 -0.11695569 -0.100926615 -0.054795254 0.008346549 0.02114414 -0.10181968 0.06522431
0.033702713 0.043723837 0.025364114 0.020382917 -0.09997205 0.110362254 -0.019541074 0.10360109
0.065023474 -0.05965873 0.13083135 -0.11270209 0.029158287 -0.0608163 0.03555131 0.017346356
0.035292603 -0.013356773 0.029773483 -0.038675867 0.13079332 0.06221677 -0.078987494 0.102552496

fc4.weight f4 [1, 64]
00000000: f2fa afbd 09d5 f6b8 4287 0f3b 384f 92bc
00000010: 0b48 5c3c 95fe d03d fb05 89bc 4f4a 183d
00000020: 1f9f 4cbb f15d 993d 209f 833d 8a1c f1bd
00000030: 8404 1e3c b464 5ebd 7026 89b6 290e d33c
00000040: 3733 0b3e 20a6 a0bc 1a10 1a3d 30dc 633c
00000050: 3e7e a0bd e3c2 4cbb 0cbd cf3c 2b21 f83b
00000060: d2c8 383b f6ab 623d f3ad 053b 20fa 443c
00000070: f4a2 99bd cb59 2dba bbef 19bd cbb1 193c
00000080: 370a 9a3c 888a 21bd c968 5eba b0a3 febc
00000090: cbd4 03bb a991 19bd 92c4 42bd 5809 c1bc
000000a0: 98c8 f3bd 67cd aebd 7d59 bebd 281d e93d
000000b0: 7b0b 72bc d3dc a43d 4082 e4bc 08cb 073e
000000c0: 9d6c ab3d cdec 163c 6d96 f13d 0e55 0cbe
000000d0: 9747 90ba 9d10 af3d b12b d5bb 7156 9a3c
000000e0: 8125 a5ba 2943 95bc bee1 1e3c a89d 923c
000000f0: ed7f 673d f118 94bd e4b1 80bd c1e4 46bd
-0.08592786 -0.00011769875 0.0021900688 -0.01786004 0.013444911 0.10204808 -0.016726485 0.03718024
-0.0031222773 0.07488621 0.06426835 -0.117730215 0.009644631 -0.054295257 -4.087393e-06 0.025763588
0.13593756 -0.019610465 0.037613012 0.013907477 -0.07836579 -0.0031244091 0.0253587 0.0075723133
0.002819587 0.055339776 0.0020397871 0.012022525 -0.07501784 -0.00066128065 -0.03758214 0.009380768
0.018803699 -0.039438754 -0.0008484242 -0.031083912 -0.0020115848 -0.037492428 -0.047550745 -0.023564026
-0.119034946 -0.08535271 -0.09294412 0.11382514 -0.014773245 0.080499314 -0.02789414 0.13261044
0.08370326 0.009211731 0.117962696 -0.13704321 -0.0011007664 0.085480906 -0.0065054526 0.018840047
-0.0012599678 -0.018220501 0.009697376 0.017897442 0.056518484 -0.0723132 -0.0628393 -0.048558
