Models/NBA/Spread_10_avg_past_games_model.pth (torch, 723215 bytes, 7 tensors)

fc1.weight f4 [256, 542]
0	0xbd94c73a	-0.07264562
1	0xbcea1837	-0.028576
2	0xbc394c4b	-0.011309694
3	0xbd6ae164	-0.057343856
4	0x3d9e9085	0.07742409
5	0xbd5319f9	-0.05153844
6	0x3cb1c005	0.021698007
7	0xbd08959e	-0.03334581
8	0x3d65e72d	0.05612867
9	0x3da26ebb	0.079312764
10	0xbd7076b9	-0.058706973
11	0xbc012b8e	-0.007883919
12	0xbcc7dae7	-0.024396373
13	0xbc01c948	-0.007921524
14	0xbde6118e	-0.11233817
15	0xbcaa755a	-0.02080791
16	0x3c1b80fe	0.009491203
17	0xbd33536f	-0.04378074
18	0xbd42a741	-0.047522787
19	0xbd90031a	-0.070318416
20	0xbdd01c56	-0.10161655
21	0xbb4f808e	-0.0031662318
22	0x3cab0e4f	0.020880846
23	0x3cedcdbc	0.029028766
24	0x3c51edc7	0.012813038
25	0xbd75b020	-0.05998242
26	0xbd72b77c	-0.059257016
27	0x3d217a64	0.03942336
28	0xbd66dd92	-0.05636365
29	0x3d535385	0.051593322
30	0xbb68ec43	-0.0035541214
31	0xbc4432c2	-0.011974992
32	0x3c48094a	0.012209246
33	0xbd45212d	-0.048127342
34	0x3cff67db	0.031177452
35	0xbd605262	-0.054766066
36	0xbc92adad	-0.01790508
37	0x3d46c93e	0.048531763
38	0x3cc6dc12	0.02427486
39	0xbcedf589	-0.029047744
40	0xbce31383	-0.027719265
41	0x3c5738a4	0.013136063
42	0xbd325630	-0.043539226
43	0xbc859fb4	-0.016311504
44	0xbdb667b6	-0.089065
45	0x3be12e73	0.0068719923
46	0xbd63ce09	-0.055616412
47	0x3ccbe1e3	0.024887985
48	0xbc9b7961	-0.018978776
49	0x3c288648	0.010285921
50	0x3c381b9d	0.011237052
51	0xbd45766c	-0.04820864
52	0xbd879ea1	-0.06622053
53	0x3c7003b8	0.014649324
54	0x3d51e4d9	0.051243637
55	0xbc8ba6bc	-0.017047279
56	0xbd9e1ba4	-0.07720116
57	0x3cb335d0	0.021876246
58	0x3ae898f5	0.001774578
59	0xbd245c7e	-0.04012727
60	0xbd005b7f	-0.031337257
61	0x3d0bea71	0.034159128
62	0xbaa359f9	-0.0012462727
63	0x3cb7e065	0.022445867
64	0xbd573eb5	-0.052550036
65	0xbd97d7d1	-0.074142106
66	0xbce0b089	-0.027427929
67	0x3c31f8f0	0.010862574
68	0x3d257019	0.040390108
69	0x3c972697	0.018451018
70	0xbda3eed3	-0.080045365
71	0xbd945185	-0.07242111
72	0xbd3bfb43	-0.04589392
73	0xbd283e99	-0.041075323
74	0xbcd4a42c	-0.02595719
75	0x3b0b0e6b	0.002121831
76	0x3cb1f864	0.021724887
77	0x3d80e912	0.06294455
78	0x3da7f6ff	0.08201408
79	0xbcfb6bfd	-0.030691141
80	0xbbf7595d	-0.0075484947
81	0xbd7449f7	-0.05964085
82	0x3b2a2b10	0.0025965609
83	0x3c589c29	0.013220825
84	0xbcb39c8f	-0.021925239
85	0xbd0e6972	-0.03476853
86	0x3b6a1a5f	0.0035721285
87	0xbc9b91ea	-0.018990476
88	0xbd855aeb	-0.06511482
89	0x3ca548ae	0.020176258
90	0x3d2640a5	0.040588994
91	0xbd056f60	-0.03257692
92	0x3d8045da	0.06263323
93	0xbd8a058d	-0.0673934
94	0xbd208638	-0.0391905
95	0x3d3b5468	0.045734793
96	0x3d6f8fd6	0.058486782
97	0x3ce35fc2	0.027755622
98	0xbdb7e4d5	-0.08979193
99	0x3ce3e55d	0.02781933
100	0x3da6009e	0.081055865
101	0x3cb133c9	0.021631138
102	0xbdbc5f22	-0.09197833
103	0x3d3eb607	0.046560314
104	0xbcb34d2a	-0.02188738
105	0x3bcba6bd	0.006214945
106	0x3cbf657a	0.023363817
107	0xbc9426c6	-0.018084895
108	0xbd100fe0	-0.03517139
109	0x3d1c71f0	0.038194597
110	0xbbe4b829	-0.0069799614
111	0xbd19b626	-0.037527226
112	0xbd5fcb29	-0.054637108
113	0xbd86fe39	-0.06591458
114	0xbac9bd6d	-0.0015391536
115	0x3d169f1f	0.036772843
116	0x3d04c2a8	0.0324122
117	0x3c0510dc	0.008121695
118	0xbd14db02	-0.036341675
119	0xbd85dc29	-0.06536133
120	0xbc105ce6	-0.008811211
121	0xbb1b9813	-0.0023741766
122	0xbd68f027	-0.056869652
123	0xbd34625a	-0.044039108
124	0x3c275a2b	0.010214369
125	0xbad8aeec	-0.0016531623
126	0xbb83f20b	-0.0040266565
127	0x3d85a57c	0.06525704
128	0x3d939c71	0.07207573
129	0x3d9bfb36	0.07616274
130	0xbd63c773	-0.05561013
131	0x3d0b8986	0.0340667
132	0xbda64829	-0.08119232
133	0x3c3cc954	0.01152261
134	0xbd37e904	-0.044899955
135	0xbd07394b	-0.033013623
136	0x3cf8b764	0.030360885
137	0xbbb627ff	-0.005558967
138	0xbc611328	-0.013737477
139	0x3d1217b8	0.03566715
140	0x3d29e705	0.041480083
141	0xbcf50f09	-0.029914396
142	0xbc16724f	-0.009182527
143	0xbc1e713d	-0.009670553
144	0x3d1a0b94	0.037608698
145	0xbd41fe8c	-0.047361895
146	0xbbcaad6f	-0.0061852257
147	0xbd35e37d	-0.044406403
148	0x3d981b21	0.074270494
149	0x3cb2e3ea	0.021837194
150	0x3c5e8fcb	0.013584088
151	0xbd11ceab	-0.035597485
152	0x3cb47cbe	0.022032138
153	0xbc45c644	-0.012071196
154	0xbd2a1d6b	-0.04153196
155	0x3d0c97db	0.03432451
156	0x3c1e6f88	0.009670146
157	0x3cc260c3	0.02372778
158	0x3e11c2ce	0.14234468
159	0xbb1a73f7	-0.0023567656
160	0x3d7430e4	0.05961694
161	0xbc76f375	-0.015072693
162	0xbc90318f	-0.017601756
163	0xbccc1175	-0.024910668
164	0x3d70f17e	0.058824055
165	0x3d2c04dd	0.041996825
166	0x3d6d05af	0.05786675
167	0x3d0bdec8	0.034148008
168	0x3d02ab54	0.031901672
169	0x3d0dad29	0.034588967
170	0xbc6d3e77	-0.014480225
171	0xbb17f102	-0.0023184423
172	0x3c17baaa	0.009260813
173	0xbc7e0a89	-0.015505441
174	0x3d2cadf9	0.0421581
175	0x3e3b3975	0.18283637
176	0x3d319831	0.04335803
177	0xbd0cba57	-0.034357395
178	0x3cac04fc	0.02099847
179	0x3d9514a3	0.07279327
180	0xbcb76544	-0.022387154
181	0xbcf726d4	-0.030169882
182	0x3cde9785	0.02717186
183	0x3cc55d20	0.024092257
184	0x3c7de4ff	0.015496491
185	0x3db6f3e0	0.08933234
186	0x3d187667	0.037222292
187	0x3d9dccf9	0.07705111
188	0xbb9789cf	-0.0046245824
189	0x3d60c05c	0.05487095
190	0x3cf51ab1	0.029919954
191	0x3c3539da	0.011061156
192	0xbce8d38b	-0.028421184
193	0x3d6fe21e	0.05856525
194	0x3da4eca1	0.08052946
195	0x3d146337	0.03622743
196	0x3c1fada1	0.009745986
197	0x3d85f03b	0.06539961
198	0x3d58352c	0.052785084
199	0x3c824853	0.015903627
200	0x3ce208b6	0.027592044
201	0x3d2068c4	0.039162412
202	0x3d1d9c46	0.038479112
203	0xbccf392d	-0.025295818
204	0x3cf82b3a	0.03029405
205	0x3c1359bc	0.008993562
206	0x3b8b5678	0.0042522512
207	0xbc055fec	-0.008140545
208	0x3d60bffb	0.054870587
209	0xbd81f8ff	-0.0634632
210	0xbb5fefb6	-0.0034169978
211	0x3ba7bf4e	0.005119241
212	0x3d01890e	0.031624846
213	0xbd56d398	-0.052447885
214	0x3a8c6eca	0.001071417
215	0xbcd8e16c	-0.026474677
216	0xbd323a53	-0.043512654
217	0x3dc4dbeb	0.096122585
218	0x3a6655dc	0.0008786598
219	0x3daa9a9e	0.08330272
220	0xbd4a3513	-0.04936702
221	0xba7547fe	-0.0009356736
222	0x3c98825f	0.018616853
223	0xbdaf41e0	-0.085574865
224	0xbc9a06ca	-0.018802065
225	0xbcae89a2	-0.021305863
226	0xbd17d5f0	-0.03706926
227	0x3d0e21f0	0.034700334
228	0x3cb6eb27	0.022328926
229	0x3cc47a55	0.023984114
230	0x3c793e6c	0.015212636
231	0x3cce63c8	0.025194064
232	0xbd782a6f	-0.060587343
233	0xbdbe99c7	-0.093066745
234	0x3d826aaa	0.06368001
235	0x3c4ecdc7	0.012622303
236	0xbcbfb8d3	-0.02340356
237	0xbd371341	-0.044696096
238	0xbd65c1d0	-0.056093037
239	0x3ddbfbad	0.10741363
240	0x3d3c732d	0.046008278
241	0xbc366538	-0.011132531
242	0x3d203fce	0.03912335
243	0xbcb085a9	-0.02154811
244	0x3d825099	0.06363029
245	0x3d90fa3b	0.07078978
246	0x3c82f788	0.015987173
247	0xbb19e31d	-0.0023481317
248	0xbca2cc0f	-0.019872693
249	0xbc22672b	-0.0099122925
250	0x3c982c35	0.018575767
251	0x3b863e35	0.004096771
252	0x3d441990	0.04787594
253	0xbc1d35b3	-0.009595322
254	0x3d249869	0.040184412
255	0x3b56cc91	0.003277574

fc1.bias f4 [256]
0	0xbdeed01f	-0.1166079
1	0xbe0acb3b	-0.13554089
2	0xbe075d7a	-0.13219252
3	0xbdbad2b7	-0.09122222
4	0xbe03d63f	-0.12874697
5	0xbd2b7f83	-0.04186965
6	0xbe36156f	-0.17781614
7	0xbe15ad4c	-0.14616889
8	0xbe8a6c68	-0.27035832
9	0xbda53d56	-0.080683395
10	0xbe1ff9a4	-0.15622574
11	0xbd8188bf	-0.0632491
12	0xbd8b21fb	-0.06793591
13	0xbda40654	-0.080090195
14	0xbdf7b44c	-0.12094936
15	0xbda0fb38	-0.07860416
16	0xbdc89e2e	-0.097957954
17	0xbe65fbb4	-0.22459298
18	0xbe03913d	-0.12848373
19	0xbdc2b487	-0.09507089
20	0xbdb3eaa2	-0.08784987
21	0xbd8a9a89	-0.067677565
22	0xbdc69f21	-0.0969832
23	0xbe35c4a0	-0.17750788
24	0xbc563715	-0.013074656
25	0xbdae74a9	-0.08518345
26	0x3d153c90	0.03643471
27	0xbdb5fbd3	-0.08885922
28	0xbdc83394	-0.09775463
29	0xbe384fb2	-0.17999151
30	0xbd73381c	-0.059379682
31	0xbe6ef23e	-0.23334596
32	0xbe138cb6	-0.14409146
33	0xbe58b926	-0.21164379
34	0xbe72e75b	-0.23721068
35	0xbe9075fd	-0.28215018
36	0xbe4f7145	-0.20258053
37	0xbda8fcaf	-0.082513206
38	0xbd1c4d64	-0.038159743
39	0xbdb1d078	-0.086823404
40	0xbdc82527	-0.09772711
41	0xbdfcc4d3	-0.12342229
42	0xbdf8ef86	-0.121550605
43	0xbe3346e7	-0.17507516
44	0xbccf7baf	-0.025327532
45	0xbaf83c9a	-0.0018938959
46	0xbbaa9154	-0.0052053127
47	0xbddd4aa0	-0.10805249
48	0xbd96399b	-0.07335206
49	0xbdc084c3	-0.09400322
50	0xbdd2e785	-0.10298065
51	0xbdcb80da	-0.09936686
52	0xbe0a11ad	-0.13483305
53	0xbe35ab79	-0.17741193
54	0xbdad820e	-0.084720716
55	0xbd5ebf3f	-0.054381605
56	0xbd529f7f	-0.05142164
57	0xbe5f3da1	-0.21800853
58	0xbdd5c5b7	-0.10438102
59	0xbd7ca8c5	-0.06168439
60	0xbe63c023	-0.22241263
61	0xbc7577ea	-0.014982203
62	0xbcb4e7ec	-0.022083245
63	0xbe400717	-0.18752705
64	0xbdc1c717	-0.094618015
65	0xbe589536	-0.2115067
66	0xbde290bb	-0.110627614
67	0xbe488626	-0.19582424
68	0xbe21f2c2	-0.15815261
69	0xbdb9c827	-0.09071379
70	0xbe116240	-0.14197636
71	0xbd273dbd	-0.040830363
72	0xbde5f396	-0.11228101
73	0xbd9f90b8	-0.07791275
74	0xbdc4afbf	-0.096038334
75	0xbe26165a	-0.16219464
76	0xbdeedb96	-0.116629764
77	0xbd6ad56f	-0.057332452
78	0xbe0908c7	-0.13382255
79	0xbe39d80a	-0.18148819
80	0xbe06b99b	-0.1315674
81	0xbdc60e3a	-0.09670682
82	0xbd79e7ee	-0.0610122
83	0xbd3aa985	-0.045571823
84	0xbe1c067f	-0.15236853
85	0xbca4c37b	-0.020112744
86	0xbd97771c	-0.07395765
87	0xbc67cf4b	-0.014148544
88	0xbe5eb3ef	-0.21748327
89	0xbe1820b1	-0.14856221
90	0x3bd62055	0.006534616
91	0xbdfcdc9a	-0.12346764
92	0xbe0b44e3	-0.13600497
93	0xbd80edf3	-0.06295385
94	0xbcba0bf7	-0.022710783
95	0xbe51b0e7	-0.20477639
96	0xbdf1f270	-0.118138194
97	0xbe02df68	-0.12780535
98	0xbe50b6dc	-0.20382255
99	0xbd9c3b37	-0.07628482
100	0x3c0e8e84	0.008700971
101	0xbbb324c0	-0.0054670274
102	0xbd929d40	-0.07158899
103	0xbe07bed7	-0.13256393
104	0xbdd088dd	-0.101823546
105	0xbd84e3b9	-0.06488747
106	0xbccbb971	-0.024868699
107	0xbd8bbaf0	-0.06822765
108	0xbe681284	-0.22663313
109	0xbd5ab73e	-0.05339741
110	0x3cb7fda2	0.022459809
111	0xbca3c63f	-0.019991992
112	0xbe3f5e7e	-0.1868839
113	0xbca16bd3	-0.019704735
114	0xbd397658	-0.045278877
115	0xbe19724c	-0.14985007
116	0xbdcd4828	-0.10023528
117	0xbe05ad5f	-0.13054417
118	0xbd67b54e	-0.05656939
119	0xbd1f292d	-0.038857628
120	0x3d400d94	0.04688795
121	0xbdf8d882	-0.121506706
122	0xbd8ada61	-0.06779934
123	0xbe595601	-0.21224214
124	0xbd9042d3	-0.07043996
125	0xbcd5468b	-0.026034614
126	0xbe25c359	-0.161878
127	0xbe4bb5b1	-0.19893529
128	0xbe5ddb56	-0.21665701
129	0xbc706cab	-0.014674346
130	0xbca03884	-0.019558199
131	0xbdac0b02	-0.08400537
132	0xbdad0271	-0.08447731
133	0xbe1a0129	-0.15039505
134	0xbe128768	-0.14309466
135	0xbdc0480c	-0.09388742
136	0xbdf8693f	-0.12129449
137	0xbe2d511d	-0.16925474
138	0xbd570ca3	-0.052502286
139	0xbde808be	-0.113297924
140	0xbd86ed92	-0.06588282
141	0xbd0daf1c	-0.034590825
142	0xbbbfcb47	-0.00585309
143	0xbe04a59e	-0.12953803
144	0xbcd2afde	-0.025718626
145	0xbde86ba9	-0.113486595
146	0xbe0e47a3	-0.13894515
147	0xbe271cca	-0.16319576
148	0xbd5be5e0	-0.053686023
149	0xbe27c8aa	-0.16385141
150	0xbe0e10f2	-0.13873652
151	0xbe0687c9	-0.13137735
152	0xbe29a67f	-0.1656742
153	0xbe15f5d9	-0.14644565
154	0xbe4a7290	-0.19770265
155	0xbd913ee0	-0.070920706
156	0xbe24b283	-0.16083722
157	0xbdd041e5	-0.101688184
158	0xbd2cfa18	-0.042230695
159	0xbe0ae9d3	-0.1356576
160	0xbe0f0a71	-0.13968827
161	0xbdab4a6f	-0.083638065
162	0xbe521d1e	-0.2051892
163	0xbdf9ad31	-0.12191237
164	0xbdf8fb21	-0.12157274
165	0xbdc27a35	-0.094959654
166	0xbc2f0737	-0.0106828725
167	0xbda48da3	-0.080348276
168	0xbe4082b5	-0.18799861
169	0xbdc583b1	-0.09644259
170	0xbd37ba05	-0.044855136
171	0xbd7e46f6	-0.062079392
172	0xbddef362	-0.10886265
173	0xbd939025	-0.07205228
174	0xbdefeea3	-0.11715438
175	0xbe667dee	-0.22508976
176	0xbd90266b	-0.07038578
177	0xbd7ed073	-0.06221051
178	0xbe6a88a2	-0.22903684
179	0xbd1f760c	-0.038930938
180	0xbcefcada	-0.029271532
181	0xbdd92252	-0.10602249
182	0xbe379c76	-0.17930779
183	0xbde1e564	-0.11030081
184	0xbc43d80c	-0.011953365
185	0xbdd08a61	-0.10182644
186	0xbdf2dc70	-0.11858451
187	0xbd8b4215	-0.067997135
188	0xbdafb5ac	-0.08579573
189	0xbd38a745	-0.045081396
190	0xbdfe175b	-0.124067985
191	0xbdb53d90	-0.08849633
192	0xbd887432	-0.066627875
193	0x3b805353	0.003916183
194	0xbe2872d4	-0.16450053
195	0xbdee7a68	-0.11644441
196	0xbe569262	-0.20954278
197	0xbdc48ab8	-0.09596771
198	0xbda76b1d	-0.08174727
199	0xbd85ff27	-0.06542807
200	0xbe517638	-0.20455253
201	0xbd84e749	-0.06489427
202	0xbdb45be8	-0.08806592
203	0xbe33ad16	-0.17546496
204	0xbdc6505a	-0.096832946
205	0xbe13a67c	-0.14418977
206	0xbe64b915	-0.22336228
207	0xbdf96815	-0.12178055
208	0xbd75a24f	-0.059969243
209	0xbe42bdc0	-0.19017696
210	0xbcb9d078	-0.022682413
211	0xbddcaf0f	-0.10775577
212	0xbd918175	-0.0710477
213	0xbdea67e1	-0.114455946
214	0xbdd9623f	-0.10614442
215	0xbe3748b8	-0.17898834
216	0xbe7148ba	-0.23562899
217	0xbcff5872	-0.031170104
218	0xbdefd6fe	-0.117109284
219	0xbdf3ad7e	-0.118983254
220	0xbcd7ab65	-0.026326844
221	0xbd3f1b0e	-0.04665666
222	0x3d892a12	0.066974774
223	0xbe019348	-0.1265384
224	0xbe2b9cba	-0.16759005
225	0xbd89aa02	-0.067218795
226	0xbc1b3837	-0.009473852
227	0xbe044503	-0.12916951
228	0xbd84d41c	-0.06485769
229	0xbd295b00	-0.04134655
230	0xbd9bfb4f	-0.07616293
231	0xbe3fb1bb	-0.18720143
232	0xbda6c462	-0.08142926
233	0xbd8cdb65	-0.06877784
234	0xbe2573f2	-0.16157511
235	0xbd53b95b	-0.05169044
236	0xbe09b953	-0.13449602
237	0xbdd3944f	-0.10331022
238	0xbdbebfce	-0.093139276
239	0xbe2f18f8	-0.17099369
240	0xbc4baf95	-0.012431999
241	0xbe0d95f4	-0.13826734
242	0xbe3137f5	-0.17306502
243	0xbe58e8c5	-0.21182545
244	0xbe5c4686	-0.21511278
245	0xbddc6309	-0.10761077
246	0xbd2ffd83	-0.042966377
247	0xbc430440	-0.011902869
248	0xbe06bc5e	-0.13157794
249	0xbe1fd87d	-0.15609927
250	0xbda9eb22	-0.08296801
251	0xbde4ffb7	-0.11181586
252	0xbc663535	-0.0140507715
253	0xbdcb0fbe	-0.09915112
254	0xbe9b310e	-0.30310863
255	0xbc8fcd89	-0.017554061

fc2.weight f4 [128, 256]
0	0xbd9f8645	-0.07789282
1	0xbd35385a	-0.044243194
2	0xbd93bb04	-0.07213405
3	0x3c056a2f	0.008142992
4	0xbd434e6c	-0.04768221
5	0xb90d9885	-0.00013503626
6	0xbcd892b8	-0.026437148
7	0xbdb4341d	-0.08799002
8	0xbdaff6ff	-0.08592033
9	0x3c1e7cbb	0.009673293
10	0xbd34d816	-0.044151388
11	0xbc780beb	-0.01513956
12	0x3d12a892	0.035805292
13	0xbcad2707	-0.021136774
14	0x3aced564	0.0015780148
15	0xbd110d21	-0.03541291
16	0x3d02938d	0.031878997
17	0xbd40fbde	-0.0471152
18	0x3d6dbed4	0.058043316
19	0x3d621542	0.055196054
20	0xbd4f20f8	-0.05056855
21	0xbd85ce3d	-0.065334775
22	0x3c240d82	0.010012986
23	0xbd850545	-0.06495146
24	0xbccba005	-0.024856577
25	0xbd06de96	-0.03292712
26	0x3c85ba13	0.016324079
27	0xbce654c8	-0.028116599
28	0xbc1603d0	-0.009156182
29	0x3d05cab6	0.032664023
30	0xbc0b4922	-0.008501323
31	0xbd2216ab	-0.0395724
32	0x3c89d179	0.016823517
33	0x3caab6be	0.020839091
34	0xbca1481a	-0.019687701
35	0xbca9ed51	-0.020743044
36	0xbd3c9b2f	-0.046046432
37	0xbce2cb6c	-0.02768489
38	0x3d173da1	0.03692401
39	0xbc96b9ef	-0.018399207
40	0xbc9384e8	-0.01800771
41	0xbdad5257	-0.08462971
42	0xbd391033	-0.045181464
43	0x3caeb812	0.021328006
44	0xbc94a395	-0.018144408
45	0x3d31f2a8	0.043444306
46	0xbdb9a307	-0.09064298
47	0xbd6474d3	-0.055775475
48	0xbc00b936	-0.007856658
49	0x3d38f606	0.0451565
50	0x3cfa49ec	0.030552827
51	0x3d51bd90	0.05120617
52	0xbcba1926	-0.02271707
53	0xbddbb3ae	-0.107276306
54	0xbd17e303	-0.03708173
55	0x3d5b1a25	0.05349173
56	0x3cc9552e	0.02457675
57	0xbdb5773c	-0.08860633
58	0xbd75b1da	-0.059984066
59	0xbd441be3	-0.047878157
60	0x3c50aeab	0.012736957
61	0xbbba0238	-0.005676534
62	0xbcb61191	-0.022225173
63	0xbd4c1eb2	-0.04983396
64	0xbd83bb63	-0.064322256
65	0x3d5f0887	0.05445149
66	0x3d793c08	0.060848266
67	0xbd5f8301	-0.054568294
68	0xbda037fb	-0.078231774
69	0xbda39b1b	-0.079885684
70	0xbd5c2952	-0.053750344
71	0xbd542b5b	-0.05179916
72	0xbb91c275	-0.00444823
73	0xbd086d24	-0.03330721
74	0xbd574994	-0.052560404
75	0xbd08c406	-0.033390068
76	0xbd5ef0d2	-0.054428883
77	0x3d2eb426	0.04265227
78	0xbd0c40ce	-0.03424149
79	0xbd7edc72	-0.06222195
80	0xbcb6ae95	-0.022300044
81	0x3d262d26	0.0405704
82	0xbdaa5d65	-0.08318595
83	0xbc260a51	-0.010134296
84	0xbd334dcb	-0.04377536
85	0xb9327024	-0.00017017178
86	0xbd737857	-0.059440937
87	0xbdf37c33	-0.118889235
88	0x3cbffd21	0.023436131
89	0xbb726cb9	-0.0036991073
90	0x3ab419f5	0.0013740646
91	0x3cf74f62	0.03018922
92	0xbbd9e038	-0.0066490434
93	0xbd9a594f	-0.075365655
94	0xbbac7131	-0.005262517
95	0xbd0418d1	-0.03225023
96	0xbccb9829	-0.024852829
97	0x3d84b888	0.06480509
98	0x3c903a09	0.017605798
99	0xbd548e42	-0.05189348
100	0xbb86dad3	-0.0041154413
101	0x3c8588cd	0.016300583
102	0x3c374d62	0.011187883
103	0x3d2e2b3c	0.0425217
104	0x3cc7e451	0.024400862
105	0x3b9c4585	0.0047690296
106	0xbcf610b3	-0.03003726
107	0xbd9a91f7	-0.07547372
108	0xbda3147a	-0.0796289
109	0xbd04a6b8	-0.032385558
110	0x3c11b9fc	0.00889444
111	0xbcde6605	-0.027148256
112	0x3b18b3d0	0.0023300536
113	0xbcebf9bf	-0.028805612
114	0xbd1a659a	-0.03769455
115	0x3d529c01	0.05141831
116	0x3d947806	0.07249455
117	0xbd0643b1	-0.0327794
118	0x3cb32dfd	0.021872515
119	0xbdb77393	-0.08957591
120	0xbd205a51	-0.039148632
121	0xbc3d5082	-0.011554839
122	0xbd8e1445	-0.0693746
123	0x3c6e073a	0.01452809
124	0x3bec8d30	0.0072189793
125	0x3cb4b295	0.02205781
126	0x3d112339	0.03543398
127	0xbc4fb2cd	-0.012676907
128	0x3caa2198	0.020767972
129	0x3d6ab1d6	0.057298504
130	0xbcc2084e	-0.0236856
131	0xbd83295d	-0.06404374
132	0xbca60938	-0.020268068
133	0xbcbe0469	-0.023195462
134	0xbd1db863	-0.038505923
135	0xbdabb40b	-0.0838395
136	0xbce645d9	-0.028109478
137	0xbd17415d	-0.03692757
138	0xbd750f92	-0.059829302
139	0x3d17eeeb	0.037093084
140	0x3c0ae2e4	0.0084769465
141	0xbcd12a38	-0.025532827
142	0x3d19f0c7	0.03758314
143	0xbd92bd03	-0.071649574
144	0xbd54ee95	-0.051985342
145	0xbc5f0e19	-0.013614201
146	0x3d0b69d7	0.034036484
147	0xbd8632cf	-0.0655266
148	0xbd8ad328	-0.06778556
149	0xbbe30af5	-0.0069287964
150	0xbc19de58	-0.00939139
151	0xbd98790a	-0.07444961
152	0x3d675d6b	0.056485575
153	0x3cbd8752	0.023135815
154	0x3c8fc7dd	0.017551357
155	0xbd4ab6fa	-0.049490906
156	0xbd99e1cb	-0.0751377
157	0xbca5c398	-0.020234868
158	0x3d07774a	0.033072747
159	0x3d5fcb9d	0.05463754
160	0xbd83e509	-0.06440169
161	0xbdbb94a2	-0.09159209
162	0xbd83e3a5	-0.06439904
163	0xbd6bca04	-0.057565704
164	0xba7ff4b3	-0.0009763941
165	0xbb954f06	-0.0045565395
166	0x3c668ac3	0.014071169
167	0x3c169f4b	0.009193252
168	0xbc080f47	-0.008304424
169	0xbd7c18b0	-0.06154698
170	0x3d5fd6a6	0.054648064
171	0x3c984655	0.018588224
172	0xbd61f836	-0.055168353
173	0x3d26b130	0.040696323
174	0xbc7c0b0e	-0.015383495
175	0xbc2d3248	-0.01057107
176	0xbcfaa008	-0.030593887
177	0xbd803bd0	-0.06261408
178	0xbca074d7	-0.019586964
179	0xbd226ccd	-0.03965454
180	0xbd3f9230	-0.046770275
181	0x3d24d4da	0.040242054
182	0xbd3b9286	-0.045794033
183	0xbd188286	-0.03723385
184	0xbd950332	-0.07276
185	0xbcd8a33f	-0.02644503
186	0xbd5a1b37	-0.05324861
187	0x3c9ae733	0.018909073
188	0xbdb5891c	-0.08864042
189	0xbd1ef7c5	-0.03881051
190	0xbe062715	-0.13100846
191	0xbd9d3222	-0.07675578
192	0x3bc00470	0.005859904
193	0xbcc84aa1	-0.024449648
194	0xbc76f4cf	-0.015073015
195	0xbd1c5a38	-0.038171977
196	0xbbc7792f	-0.0060874443
197	0xbd40bc8f	-0.047054823
198	0xbd0c68c9	-0.03427962
199	0xbda14762	-0.07874943
200	0xbab9793e	-0.0014150513
201	0xbd4dfd1d	-0.050290216
202	0x3d0593df	0.032611724
203	0xbd40000b	-0.04687504
204	0xbc91a104	-0.017776974
205	0xbc63414f	-0.013870551
206	0xbd3dd860	-0.04634893
207	0xbd450355	-0.04809888
208	0x3cc306b7	0.023806913
209	0xbd8399d3	-0.06425824
210	0xbd922b39	-0.0713715
211	0x3d87ded0	0.06634295
212	0xbd617687	-0.055044677
213	0x3d3743ed	0.044742513
214	0xbd3703ac	-0.044681236
215	0xbc9704a0	-0.018434823
216	0x3ca5e19c	0.02024918
217	0x3c956590	0.018236905
218	0x3d2af6d0	0.041739285
219	0x3b5be58b	0.0033553566
220	0x3d247ad5	0.040156204
221	0xbd9304d4	-0.07178655
222	0xbd858a80	-0.065205574
223	0x3d560bc1	0.052257303
224	0xbd64cf86	-0.055861972
225	0x3b8f7a78	0.004378613
226	0x3c7bb916	0.015363952
227	0xbd319648	-0.04335621
228	0xbd090fa1	-0.03346217
229	0xbdb715d1	-0.08939708
230	0xbca64628	-0.020297125
231	0xbd276b61	-0.04087389
232	0xbd990a6e	-0.074726924
233	0x3cc4fc00	0.024045944
234	0xbd10812c	-0.035279438
235	0x3d06d807	0.032920863
236	0xbd7dc9b1	-0.061959926
237	0xbd146728	-0.03623119
238	0xbd56799a	-0.052362062
239	0xbc310d9d	-0.010806468
240	0xbdb49252	-0.08816971
241	0x3be55a8f	0.006999321
242	0xbd1b982f	-0.03798693
243	0xbd482097	-0.048859205
244	0xbdaa7a77	-0.083241396
245	0xbd850482	-0.064950004
246	0x3d4ea01c	0.05044566
247	0x3bf97499	0.0076127765
248	0xbda435a0	-0.08018041
249	0x3ce55103	0.027992731
250	0xbd049c62	-0.0323757
251	0xbd0cbc90	-0.034359515
252	0xbd2783f1	-0.040897314
253	0xbcf3ba2e	-0.029751863
254	0x3ca0473d	0.019565219
255	0xbd8bd377	-0.06827443

fc2.bias f4 [128]
0	0xbd6764f0	-0.056492746
1	0xbd1218a0	-0.035668015
2	0x3c3d7991	0.011564628
3	0x3d7764b4	0.060398772
4	0x3d1c0f05	0.03810026
5	0x3d7b6187	0.061372306
6	0xbd75e4f7	-0.06003281
7	0xbd6bc951	-0.057565037
8	0x3d0b9c03	0.03408433
9	0x3d792092	0.060822077
10	0x3d1c0224	0.03808798
11	0xbd4ad00d	-0.04951482
12	0xbd9d1330	-0.07669675
13	0xbd093aca	-0.03350333
14	0x3cb25353	0.021768248
15	0x3d6b5849	0.057457242
16	0x3de80747	0.11329513
17	0xbc91e044	-0.017807133
18	0xbcaa12b7	-0.020760877
19	0xbd513bae	-0.051082306
20	0x3ba60a6f	0.0050671618
21	0xbd095b1f	-0.033534165
22	0xbd6c8045	-0.057739515
23	0x3d44de39	0.04806349
24	0xbd0214a3	-0.031757962
25	0xbd931bb9	-0.07183022
26	0x3c164a75	0.009173025
27	0xbd47ea96	-0.048807703
28	0xbbf9cce4	-0.007623302
29	0x3d966db0	0.0734514
30	0x3d76d090	0.060257494
31	0x3c855548	0.016276017
32	0x3c693c3d	0.014235553
33	0x3d6c44e0	0.05768287
34	0xbd660c99	-0.056164358
35	0x3d8b7182	0.06808759
36	0xbc531751	-0.012883977
37	0xbd877f30	-0.06616056
38	0xbd602292	-0.05472047
39	0xbaef37f7	-0.0018250932
40	0xbcfe8b78	-0.031072363
41	0xbd5b5678	-0.05354926
42	0x3da1c98a	0.07899769
43	0xbdaee926	-0.08540563
44	0xbd584a27	-0.052805092
45	0x3cec0f9c	0.028816037
46	0xbd209512	-0.039204665
47	0xbd12092b	-0.035653275
48	0x3caae6ca	0.020862002
49	0x3dabb3e3	0.0838392
50	0xbd0f7980	-0.03502798
51	0xbd38186f	-0.044945177
52	0xbce33571	-0.027735444
53	0x3dae74dc	0.08518383
54	0x3d828562	0.06373097
55	0xbc88ab34	-0.016683199
56	0xbd7db2ef	-0.061938222
57	0xbd98aecd	-0.074552156
58	0x3b7736f7	0.003772197
59	0x3d1f1a26	0.038843296
60	0xbd9f923a	-0.077915624
61	0xbd73ef65	-0.059554476
62	0x3ccab9cf	0.024746804
63	0xbd974ea8	-0.07388049
64	0xbb35d4b3	-0.0027745187
65	0x3d2442fe	0.04010295
66	0xbd48c3bc	-0.04901479
67	0xbc346d23	-0.011012348
68	0x3d7cc885	0.061714668
69	0xbd262f40	-0.040572405
70	0xbc3c3516	-0.011487266
71	0xbd8ac4b3	-0.06775799
72	0x3d9f3dff	0.07775497
73	0x3c4748d4	0.01216336
74	0x3dc9d917	0.0985586
75	0xbcb9b7ec	-0.022670709
76	0xbd354cb5	-0.044262607
77	0xbd45a0ba	-0.048248984
78	0x3d5349bf	0.051584
79	0xbd6571a5	-0.056016583
80	0x3db99364	0.09061316
81	0xbc535552	-0.01289876
82	0xbcc354ea	-0.023844201
83	0xbd78a06b	-0.06069986
84	0x3ce37c30	0.027769178
85	0x3cbd58d7	0.023113651
86	0x3c7a309a	0.015270377
87	0xbd914405	-0.07093052
88	0x3dbfc373	0.09363451
89	0xbc58ddae	-0.013236446
90	0x3c9df128	0.019280031
91	0x3d372155	0.044709522
92	0x3d894d92	0.067042485
93	0xbc8cf86b	-0.017208299
94	0x3d710025	0.05883803
95	0xbc82b179	-0.015953766
96	0xbd3921c3	-0.045198213
97	0xbd7e9e69	-0.06216279
98	0x3ce98503	0.028505808
99	0xbce43a54	-0.027859844
100	0xbd8ccdc9	-0.06875188
101	0xbdc84773	-0.09779253
102	0x3ca58f26	0.02020986
103	0xbd80d8cb	-0.0629135
104	0xbdcc5361	-0.09976841
105	0x3cf2ec83	0.029653793
106	0xbb6548c3	-0.0034985996
107	0x3b0faea1	0.0021924155
108	0xbcd584a7	-0.02606423
109	0x3ba49fc5	0.005023929
110	0x3d3fe291	0.04684693
111	0x3cb70044	0.022338994
112	0x3dab4791	0.083632596
113	0xb9d10b36	-0.0003987194
114	0xbd566721	-0.052344445
115	0x3ceced2f	0.028921692
116	0x3d01792a	0.03160969
117	0x3d9e1bf7	0.077201776
118	0xbd29ae7f	-0.041426178
119	0xbd928b18	-0.07155436
120	0xbcafac83	-0.021444565
121	0xbcdffbcd	-0.027341748
122	0xbd16103e	-0.036636584
123	0x3b86891e	0.004105701
124	0xbdb28ec0	-0.08718634
125	0x3ca676df	0.020320354
126	0x3d28d174	0.041215375
127	0x3dad8cd0	0.084741235

fc3.weight f4 [64, 128]
0	0x3d350299	0.04419193
1	0xbd65c9bc	-0.056100592
2	0xbc5355e9	-0.012898901
3	0xbb495d28	-0.0030725691
4	0x3d822740	0.063551426
5	0x3d5dc465	0.054142375
6	0x3d82e0cc	0.06390533
7	0xbdbc070b	-0.09181031
8	0xbda1146b	-0.078652225
9	0x3d480feb	0.048843306
10	0x3d73dea2	0.05953849
11	0xbc12dda8	-0.00896398
12	0x3d765e45	0.060148496
13	0x3d41cc99	0.04731426
14	0xbd3d84ff	-0.046269413
15	0x3d25b784	0.040458217
16	0xbd910e96	-0.0708286
17	0xbda5b56c	-0.08091244
18	0x3c97ea2f	0.018544285
19	0x3d705923	0.058678757
20	0x3bf4b705	0.0074681067
21	0x3da52b1a	0.080648616
22	0x3d2ae796	0.041724764
23	0xbcb57fff	-0.02215576
24	0xbc023e67	-0.007949448
25	0x3d1c0bee	0.038097315
26	0xbd7d35a3	-0.06181873
27	0xbd86109c	-0.06546137
28	0xbd58259a	-0.052770235
29	0xbc8972b7	-0.016778333
30	0xbd1eff3f	-0.03881764
31	0xbdb3a222	-0.08771159
32	0xbccd6c1a	-0.02507596
33	0xbd244cfa	-0.040112473
34	0x3da7fc57	0.08202427
35	0x3bd6cade	0.0065549454
36	0xbd496692	-0.049170084
37	0xbc6b3876	-0.014356723
38	0xbd045352	-0.032306023
39	0x3c9b8be1	0.018987598
40	0xbca361d2	-0.019944105
41	0xbd7f2d32	-0.06229896
42	0xbd954866	-0.072891995
43	0xbd7f1a03	-0.062280666
44	0xbce68fc9	-0.028144734
45	0x3d8644a5	0.06556062
46	0xbcbbf0bf	-0.022941945
47	0xbcb25719	-0.021770047
48	0xbcf8f2d8	-0.030389234
49	0x3d8e93ce	0.06961785
50	0x3cd0a056	0.02546708
51	0x3d81993d	0.06328056
52	0x3db017bf	0.08598279
53	0x3c8a7d40	0.016905427
54	0xbc0e5577	-0.008687369
55	0xbc00335b	-0.007824744
56	0xbc827fb3	-0.015930032
57	0xbc8866b9	-0.016650544
58	0x3d7f9325	0.062396187
59	0x3d70b546	0.058766626
60	0x3d2f1f3e	0.042754404
61	0x3d94c3eb	0.07263931
62	0xbc675667	-0.014119721
63	0xbd132f8e	-0.035934024
64	0x3c303fda	0.010757411
65	0x3d905cbc	0.07048938
66	0xbc487ab3	-0.012236285
67	0xbd80c585	-0.06287674
68	0xbdb2aaa7	-0.087239556
69	0x3d528af3	0.051402044
70	0xbd6dc637	-0.05805036
71	0xbd9cd4b0	-0.076577544
72	0xbca3fe22	-0.02001864
73	0x3d3c36c2	0.04595066
74	0xbd6933e4	-0.056934252
75	0x3cdb444b	0.026765963
76	0xbc07561b	-0.008260275
77	0x3cfe408f	0.031036643
78	0xbdc279f0	-0.09495914
79	0x3d8b16c5	0.06791452
80	0xbd8710af	-0.06594979
81	0xbc92d45b	-0.017923525
82	0x3d6260b1	0.055267993
83	0xbd5fc6f3	-0.054633092
84	0xbd61f010	-0.055160582
85	0xbd3381ec	-0.043825075
86	0xbca6ac9f	-0.020345984
87	0x3cc29807	0.023754133
88	0x3bc40836	0.005982424
89	0xbd8fc174	-0.0701932
90	0x3d13149d	0.03590833
91	0xbd4bc92c	-0.0497524
92	0x3cb44e8c	0.02201011
93	0xbd758e7f	-0.059950348
94	0xbb656a77	-0.0035006085
95	0xbdb1d234	-0.08682671
96	0xbb1ca5dd	-0.0023902573
97	0x3d0a54a1	0.033772115
98	0xbdaacea8	-0.08340198
99	0xbd6bdbf5	-0.057582814
100	0xbdb8848e	-0.09009658
101	0x3d7ef83d	0.062248457
102	0x3c3d4708	0.01155258
103	0xbdd081af	-0.10180985
104	0x3d6ccf5c	0.05781494
105	0x3c9097cd	0.01765051
106	0xbda306b7	-0.07960265
107	0xbd91f863	-0.07127454
108	0xbc8dabb4	-0.017293788
109	0xbda0b213	-0.07846465
110	0xbd603326	-0.05473628
111	0x3d3481ef	0.044069227
112	0x3d26b44c	0.04069929
113	0x3d982ecd	0.074308015
114	0x3ce55aca	0.027997393
115	0xbdb742f3	-0.089483164
116	0x3a510ce4	0.0007974638
117	0xbcd6bb30	-0.026212305
118	0x3d4913fd	0.049091328
119	0x3d7e9bbb	0.062160235
120	0xbcc89eca	-0.024489779
121	0x3c59e905	0.013300185
122	0x3d302d22	0.043011792
123	0x3da3a0ba	0.079896405
124	0xbd009574	-0.03139253
125	0xbd14f6e5	-0.03636827
126	0xbcbf645e	-0.023363288
127	0x3cb3fc61	0.02197093
128	0x3d152b7e	0.03641843
129	0xbd40fa8b	-0.047113936
130	0xbd20e534	-0.039281085
131	0xbc1c5b3b	-0.009543235
132	0x3c399f75	0.011329521
133	0xbd05909f	-0.032608625
134	0x3d91206f	0.07086264
135	0x3cc8a127	0.024490906
136	0xbc8fc576	-0.017550211
137	0xbd1d816b	-0.0384535
138	0x3d86c610	0.06580746
139	0x3c6b8482	0.014374854
140	0xbc82d63b	-0.015971294
141	0x3d639ec2	0.055571325
142	0xbd5f5e02	-0.054533012
143	0x3d5f79a5	0.05455937
144	0xbd5fef74	-0.05467172
145	0xbd1d28a0	-0.03836882
146	0x3dbb2ea1	0.09139753
147	0x3c51f2c7	0.01281423
148	0x3cb14dc1	0.021643521
149	0xbc701889	-0.014654287
150	0x3d52dbd1	0.051479165
151	0x3d3dd91e	0.046349637
152	0xbd5b3494	-0.05351694
153	0xbd8a652d	-0.06757579
154	0xbd280ed0	-0.04102975
155	0x3cf38a12	0.029728923
156	0xbe17ab22	-0.14811376
157	0x3d6a71d7	0.057237472
158	0xbd4e1f6f	-0.050322946
159	0xbbadc398	-0.0053028576
160	0xbcc7f6e8	-0.024409726
161	0xbd1fcedd	-0.03901564
162	0xbd5d3dd6	-0.05401405
163	0xbd783da8	-0.060605675
164	0xbb868471	-0.0041051437
165	0x3d8d5dc7	0.06902652
166	0x3c67c5bc	0.014146265
167	0xbdabc068	-0.08386308
168	0x3d80f2b2	0.062962905
169	0xbc0acd8f	-0.008471861
170	0x3d390d3f	0.045178648
171	0xbd056035	-0.032562453
172	0xbaa9aed6	-0.0012945782
173	0x3cd8e79f	0.026477633
174	0xbd63ef31	-0.055648033
175	0x3d23ef60	0.040023208
176	0x3cc75e27	0.024336888
177	0xbccf5749	-0.025310175
178	0x3d3b95b4	0.045797065
179	0xbdcd318d	-0.10019217
180	0xbcd0ab74	-0.02547238
181	0x3d126120	0.035737157
182	0xbcae98b9	-0.021313058
183	0xbd7c24a3	-0.061558377
184	0xbde25753	-0.11051812
185	0x3d09e136	0.033662044
186	0xbdbfefe8	-0.0937193
187	0x3d4b072d	0.04956739
188	0x3daf4d27	0.085596375
189	0x3d1c58e4	0.03817071
190	0x3d819e1c	0.06328985
191	0xbd59d35b	-0.05318008
192	0xbc80b825	-0.015712807
193	0xbb4d2f98	-0.0031308886
194	0xbd122ece	-0.035689168
195	0xbb143d10	-0.0022619404
196	0x3d14aa4e	0.036295228
197	0xba8fe7ae	-0.001097908
198	0xbc99a462	-0.018755142
199	0x3c793e25	0.01521257
200	0xbd1497b7	-0.0362775
201	0xbd197832	-0.037468143
202	0x3d55dfa8	0.05221525
203	0xbd5c6d25	-0.053815026
204	0xbc439e74	-0.011939634
205	0x3dac0d6d	0.08400998
206	0xbdf676cd	-0.12034378
207	0x3c815e40	0.015792012
208	0x3dbb69c4	0.091510326
209	0x3d91e537	0.071237974
210	0x3d439553	0.04774983
211	0xbd13fa49	-0.036127362
212	0x3d075c4d	0.03304701
213	0x3ddfe018	0.10931414
214	0xbcb4acb6	-0.022055011
215	0x3d675379	0.05647609
216	0x3dc4f5c2	0.09617187
217	0xbdee2e3f	-0.116299145
218	0xbc809425	-0.01569564
219	0xbd85063a	-0.06495328
220	0x3d7dd70b	0.06197266
221	0xbdcf805b	-0.10131904
222	0xbcf6e6c8	-0.030139342
223	0xbc04a2b1	-0.008095429
224	0x3ce55fd9	0.027999805
225	0x3d457ad2	0.048212834
226	0xbd54f840	-0.051994562
227	0xbd02e1bf	-0.03195357
228	0xbd8153a7	-0.063147835
229	0xbe34e837	-0.17666708
230	0x3dacbd8b	0.0843459
231	0xbdb0c412	-0.086311474
232	0xbd752953	-0.059853863
233	0xbd7dbf34	-0.061949924
234	0x3c0f2f4f	0.008739307
235	0xbd7ca359	-0.061679218
236	0xbc1d2471	-0.009591208
237	0x3cafc6ce	0.021457102
238	0x3da09615	0.07841126
239	0xbca6d6e3	-0.020366138
240	0x3db8fbe8	0.09032422
241	0xbc9d1c76	-0.01917861
242	0x3d7b3733	0.06133194
243	0xbcb5da21	-0.022198739
244	0xbd7057ff	-0.05867767
245	0xbd242147	-0.0400708
246	0x3dc74997	0.09730833
247	0xbcab5d26	-0.02091844
248	0x3c23163d	0.0099540325
249	0xbd89d2a9	-0.06729633
250	0x3d81467a	0.063122705
251	0xbd0de251	-0.03463966
252	0xbcf6d9d0	-0.030133158
253	0xbddb921d	-0.10721228
254	0x3da61601	0.08109666
255	0x3d1415b2	0.036153503

fc3.bias f4 [64]
0	0x3d51821b	0.05114947
1	0x3da5e87e	0.08100985
2	0xbe031cc0	-0.12803936
3	0x3d2c01e9	0.04199401
4	0x3d701eea	0.058623232
5	0xbd05386d	-0.032524515
6	0x3d36a541	0.044591192
7	0x3ce70e5d	0.028205091
8	0x3ddab94c	0.10679874
9	0x3dc3016a	0.09521754
10	0x3d85ae41	0.06527377
11	0xbda78bbc	-0.08180949
12	0x3dfaa84f	0.122391336
13	0x3c866892	0.016407285
14	0xbc1ff4d9	-0.009762966
15	0x3de57058	0.112030685
16	0x3d12845b	0.035770755
17	0x3d87c428	0.06629211
18	0xbd5642d8	-0.05230984
19	0xbc22549d	-0.009907869
20	0x3d836962	0.064165846
21	0x3d0de408	0.034641296
22	0xbdacaddb	-0.08431598
23	0xbca3f0e2	-0.020012323
24	0x3e11321f	0.14179276
25	0xbc27e6de	-0.010247914
26	0x3d633523	0.055470597
27	0xbdb56d03	-0.08858683
28	0xbd8dd39d	-0.06925128
29	0xbd608ef5	-0.054823834
30	0xbd8ad65d	-0.06779168
31	0x3d8c8196	0.06860654
32	0x3db84aa9	0.08998615
33	0x3d0a64ae	0.033787422
34	0xbcf941dc	-0.030426912
35	0x3c4c652d	0.012475294
36	0x3cefa885	0.029255161
37	0x3a916544	0.0011092802
38	0x3d48fe53	0.049070667
39	0xbd336f1e	-0.04380714
40	0xbdb1c6b4	-0.08680478
41	0x3de5d25e	0.11221765
42	0xbddc03bc	-0.107429
43	0xbd59ad32	-0.053143688
44	0xbdaa6027	-0.08319121
45	0x3db8be0e	0.09020625
46	0xbde7716e	-0.11300932
47	0xbcdb8a5e	-0.026799377
48	0xbdc1ef4e	-0.09469472
49	0xbc3ec3b4	-0.011643339
50	0x3d871530	0.06595838
51	0x3d594fc5	0.05305459
52	0xbde665ea	-0.11249907
53	0xbcead531	-0.02866611
54	0x3ddf4484	0.1090174
55	0xbde12043	-0.109924816
56	0xbd97527c	-0.073887795
57	0x3d6baabc	0.057535872
58	0xbcac0a9b	-0.02100115
59	0xbde94e29	-0.11391861
60	0x3dc9490e	0.09828387
61	0xbc362b81	-0.011118771
62	0x3d2ddb18	0.042445272
63	0x3d0d6973	0.034524392

fc4.weight f4 [1, 64]
0	0x3a821f98	0.0009927629
1	0xbced6047	-0.028976573
2	0xbaf8aab3	-0.0018971771
3	0x3d7c09f8	0.061532944
4	0x3d91623c	0.07098815
5	0x3b84774d	0.004042542
6	0xbe158462	-0.14601281
7	0x3d7b3af5	0.061335523
8	0xbd8e9879	-0.069626756
9	0x3cfa7482	0.030573133
10	0xbe0d7238	-0.13813102
11	0x3d218ef5	0.039442975
12	0xbd54fac9	-0.05199698
13	0xbd8761ea	-0.066104725
14	0x3e0ad030	0.1355598
15	0x3dcfbf2d	0.10143886
16	0x3d7708ba	0.060311057
17	0x3c2467cf	0.0100345155
18	0xbb213621	-0.0024598914
19	0xbd3b78d6	-0.045769535
20	0xbba64f2b	-0.0050753555
21	0xbd369327	-0.04457393
22	0x3d39640d	0.04526143
23	0xbdad29e4	-0.08455256
24	0xbd8d6d4b	-0.069056116
25	0xbc52c8f5	-0.012865295
26	0x3bb97072	0.0056591565
27	0x3c29210d	0.010322821
28	0xbd714432	-0.058902927
29	0xbd01ad24	-0.03165926
30	0x3bf22347	0.0073894593
31	0xbd4dd5e6	-0.050252818
32	0xbddff562	-0.10935475
33	0x3c8304ec	0.015993558
34	0xbdb14980	-0.08656597
35	0xbd8e8a80	-0.069600105
36	0xbd8ece7c	-0.069729775
37	0xbc50bd83	-0.012740496
38	0x3dda7a77	0.106678896
39	0x3d26a08f	0.040680464
40	0x3da1f53c	0.07908103
41	0xbdc8bb90	-0.098014
42	0xbd356fda	-0.044296123
43	0x38884a40	6.4988155e-05
44	0x3d90106b	0.070343815
45	0x3dd5bc2b	0.10436281
46	0xbd3fa3c5	-0.046787042
47	0xbd2e9ff6	-0.04263302
48	0xbb452b2a	-0.0030085542
49	0x3ce5cd0b	0.028051874
50	0x3cfa88a6	0.030582737
51	0x3ce63324	0.028100558
52	0x3c82c890	0.015964776
53	0xbd8a8853	-0.06764283
54	0x3d9dd7d3	0.07707181
55	0xbd96cda0	-0.073634386
56	0xbab3a359	-0.0013705298
57	0x3def2192	0.11676325
58	0x3db83fc4	0.08996537
59	0xbc2948b0	-0.010332271
60	0xbd538232	-0.051637836
61	0x3c597294	0.013271946
62	0x3984028a	0.00025178894
63	0xbc5cea49	-0.013483592
