Models/NBA/Spread_10_avg_past_games_model.pth (torch, 723215 bytes, 7 tensors)

fc1.weight f4 [256, 542]
00000000: bca9 62bd d7a9 febb 33b9 8b3d 6ae8 5e3d
00000010: b558 873d 5d50 563d 6913 703d 3862 953d
00000020: be61 4fbb 725b e43d af7a a63d 1c0e 933c
00000030: 470f eabc 6aa0 21bc 444a fc3c 7098 32bd
00000040: 40b6 f63c d868 203d 9e00 6fbd ba60 853d
00000050: 6542 95bd 6ff3 7c3b 8b32 143e 7f64 ce3d
00000060: 5474 b93d 750e 113e b247 c5bd 0a25 6bbd
00000070: 40ef 61bb 73e2 c53d 98ee f13c e94e ca3d
00000080: cba8 1bbc dc2a 8dbc daeb 1fbd 8f1c ee3c
00000090: fd3f f73b d8e8 383b 657e 2cbc 3e95 b6bc
000000a0: 367d 213d 1f50 65bd eb94 bcbb d620 3ebd
000000b0: e0d2 6ebd f908 e3ba 5bbb b6bd be70 793c
000000c0: aaa0 523c ec5f 473d 76a0 a3bb 395d c93a
000000d0: 790e 8e3d 2f16 a83c 929a 703d 1932 dabc
000000e0: 7051 9fbd d7c4 6bbd 5e4b 5abc 51b7 1bbd
000000f0: a9b7 89bc b3e7 7c3c 3de7 17bc b36c 753d
00000100: 856f 05be 32fa 6dbd edd7 5fbd 29da 2abd
00000110: 0acf 063c 2d00 fe3c 935b 57bc 026e edbb
00000120: 173c 003d 65a9 55bd f1a9 7a3d e073 b93d
00000130: 4cc7 f83b 139c fd3c c712 47bb ccff 013b
00000140: 628f c13d d6ba 1939 8a16 d939 8c04 2dbd
00000150: 9064 00bd 91f0 fc3c 3bc0 da3b a9f1 923d
00000160: 92a0 873b 86d8 20bd f29b b63c 7c9f 2a3d
00000170: 5032 313d 06bc 833d 6cfc ad3b 8f7c 37bd
00000180: ec20 3ebd 019d c0bc f8a2 0ebd 4850 933d
00000190: e316 3c3d 0bcc f93c 5104 1fbe adfa c9bd
000001a0: 47a1 03bd 7904 c23b 19c1 ac3d afd8 473d
000001b0: debf 3fba 5a01 8ebc fe60 ea3c cb13 363c
000001c0: 3b17 29bd d91f ef3c a360 1abc 4131 b8bd
000001d0: 7c28 0e3e 0e0b eabc 5450 233d 25cc 4a3d
000001e0: 4ead 083c fa33 a1bd 2da9 2c3d 15fd 2a3d
000001f0: 9577 7abc 51d3 61bc 9bae 65bc 2515 50bd
00000200: 78d6 a0bb 319c 913c 39da 92bb df30 a6bc
00000210: b0c5 e9ba 8731 9ebd a99f 873d a909 a4bc
00000220: 76c5 e23b 6818 253d ddfe 293d 64e5 c2bc
00000230: 592a 9c3d 3d0e 73bd cc72 23bd cad3 913c
00000240: af63 0ebb 219d 803c 64b4 c93c 41f1 6abd
00000250: ee55 8c3d a2d6 e73c 9e21 623d 7bd9 d6bc
00000260: 803e 80bc 1551 ac3c 0ab0 0cbc 9203 3a3d
00000270: 1def bdbc 6ffa 9aba 7c5f 7abd 9fd9 243c
00000280: fdb0 e23c 9943 153d d1b4 11bd c7c4 54bd
00000290: 1565 333d 2090 633d 69d6 6c3d 6683 c13c
000002a0: 3ecb d53d 853c 6abc 0bd2 d13c 96e5 b9b9
000002b0: 0ea5 653d a0a2 e3bc 5730 3fbc a5f3 1f3d
000002c0: 180c 9cbc 68d3 9a3d 6142 4e3d 6b6f f03b
000002d0: f291 613d a0ad 963d 5e39 d83d fa51 bcbd
000002e0: 4cd7 f3bb 660d b3bd adee 11bd 18e0 d8bb
000002f0: d3c2 d6bb 5c7b 8ebd c01c a0bb bfc8 503c
00000300: 11c5 2ebc 472f 4f3d 8e6e d93b 359f f8bc
00000310: a8bd a0bc f2c1 92bd 54fd 97bd 7858 143c
00000320: 5c99 823c 0428 573c ac2a a63d c471 7cbc
00000330: 3205 99bd dd73 773d 72d3 8c3c 6cff e83b
00000340: f3ff 083c f443 353b f2e6 0bbc e9cf cebc
00000350: 9379 dabb 99d1 923d 7824 43bd 3f12 253b
00000360: 6406 5a3b ff90 31bd 184d 873d 6e8f 2fbc
00000370: 2c3d d2bc 3fb3 76bd 5f51 db39 dcf1 c6bb
00000380: 2066 893b 91f6 99bd 2f4c 4fbd f4d7 bdbb
00000390: 91eb a8bd ba12 40bd 88c9 583b fb12 533d
000003a0: 63d7 1c3d 74e5 1abc e9a1 9dbd c854 5dbd
000003b0: 9cea 84bd 0236 863d e49c 503c 9756 be3c
000003c0: 4f5f 08bd dde2 97bd 63f5 61bd e2c1 56bd
000003d0: 9b95 75bd c0e8 693c 77f1 6abd e336 fbbc
000003e0: 2900 ddbd b7c6 adbd 22f5 c6bd 797c bcbd
000003f0: 5149 70bd 54a7 d93c ab7e 56bc b66a f3bb
-0.055337653 -0.0077717113 0.06822433 0.054420866 0.066087164 0.052322734 0.05861226 0.07294124
-0.0031643952 0.11150254 0.08128869 0.017951064 -0.028571738 -0.009864906 0.030797131 -0.043602407
0.0301162 0.039162487 -0.058350198 0.0651259 -0.072880544 0.0038597246 0.14472406 0.10077762
0.09055391 0.14165671 -0.096328154 -0.05740837 -0.003447488 0.096623324 0.029532716 0.09878332
-0.009500693 -0.017232351 -0.039043285 0.029066352 0.00754547 0.0028214958 -0.010528182 -0.022287961
0.03942605 -0.055984613 -0.005755057 -0.046418034 -0.058306575 -0.00173214 -0.08922454 0.015224634
0.012855688 0.048675463 -0.0049934937 0.0015362866 0.06936354 0.02051839 0.05874116 -0.026635217
-0.07779205 -0.057560768 -0.013323633 -0.03801662 -0.016811209 0.015436101 -0.00927144 0.059918117
-0.13030823 -0.058099933 -0.054649282 -0.04171196 0.008228073 0.031005943 -0.013144392 -0.00724578
0.031307306 -0.0521635 0.061197225 0.090553045 0.0075921174 0.030958211 -0.0030376182 0.0019836305
0.09451176 0.00014660819 0.00041406258 -0.042240664 -0.031345904 0.03087643 0.0066757477 0.07174999
0.0041390145 -0.039268993 0.022291157 0.041656002 0.043260872 0.06432347 0.005309632 -0.044796523
-0.046418115 -0.023512365 -0.034823388 0.07193047 0.045920264 0.030492803 -0.1552899 -0.09862266
-0.032136228 0.0059209433 0.08435268 0.04879063 -0.0007314662 -0.017334629 0.028610703 0.011113117
-0.04128192 0.02918999 -0.009422454 -0.089937694 0.13882631 -0.028569724 0.03987153 0.049511094
0.0083421 -0.07871242 0.042153526 0.041745264 -0.0152873 -0.013783292 -0.01401868 -0.050801415
-0.004908379 0.017774673 -0.0044815806 -0.020286975 -0.0017835405 -0.0772429 0.0662225 -0.020024138
0.006920512 0.04030648 0.041502822 -0.023791023 0.07625265 -0.05933975 -0.0399044 0.017801184
-0.0021726897 0.015699925 0.02462215 -0.057358984 0.06852327 0.028300587 0.05520784 -0.02622675
-0.015654802 0.021034757 -0.008586893 0.04541356 -0.023185307 -0.0011823903 -0.061126217 0.010061651
0.027672285 0.03644142 -0.03557283 -0.051945474 0.04379757 0.05555737 0.057821665 0.023622226
0.10439156 -0.014296656 0.025612852 -0.00035457005 0.05606561 -0.027787507 -0.01166924 0.039050717
-0.019048735 0.07559854 0.050356273 0.007337501 0.055070825 0.07357335 0.10557817 -0.09195323
-0.007441437 -0.0874279 -0.03562801 -0.006618511 -0.0065539866 -0.06957123 -0.0048862398 0.012743174
-0.0106671015 0.050582197 0.0066354936 -0.030349353 -0.019621685 -0.071658984 -0.074213654 0.009054296
0.015942268 0.013132099 0.08113608 -0.015407983 -0.07471694 0.06041323 0.017190669 0.007110527
0.008361804 0.0027658911 -0.008538948 -0.025245624 -0.006667325 0.07168884 -0.0476422 0.0025187877
0.003326797 -0.04335117 0.06606501 -0.010715349 -0.025663935 -0.060229536 0.0004183156 -0.0060713124
0.0041930825 -0.07517732 -0.050609764 -0.005793566 -0.08248056 -0.04689286 0.0033079106 0.051531773
0.038291346 -0.00945412 -0.076968975 -0.05403593 -0.06490061 0.0655327 0.012732718 0.023234649
-0.03329402 -0.074163176 -0.05516566 -0.052430995 -0.059957128 0.014276683 -0.057359185 -0.03066582
-0.10791046 -0.084851675 -0.09714724 -0.09203429 -0.05866367 0.026569046 -0.013091723 -0.0074284924

fc1.bias f4 [256]
00000000: 3c8e 12be 7fea c8bb 4852 01be bb1e b7bd
00000010: 45d6 673d 37db 1dbd 8144 f8bd 074d 83be
00000020: 0685 a2bd 41d4 70be 7eec f4bd 87de 4bbe
00000030: f399 0ebe 9545 31bc 75e8 d5bd 0dc1 1bbe
00000040: b252 34bd 2368 25bc 6b8f 43be 1160 b4bc
00000050: ac39 033c db15 5abd 41cf f4bd b34c b3bd
00000060: fee3 96bd 99b3 4ebb a9f7 66be c4cf 28bd
00000070: cf47 95bd 0443 0ebe a2ea d0bb 8506 713c
00000080: 67e5 35bd d2aa 20be 7dea b6bd 5fbf 8dbd
00000090: 5dc5 b33c 1ebe 18be 5726 f0bd 51b2 29be
000000a0: 3dd2 b2bd f4fe 86bd d29c 40bb a9e2 a1bd
000000b0: 552a 22be c680 d7bd cb50 01be a755 bebd
000000c0: 2878 96bd 50a7 1dbc f17d 18be a24c 53bd
000000d0: 748b 2e3d 3e30 9ebc 6fec d8bc 0054 7bbd
000000e0: 0ecb 2cbe eb8f c5bd 7e53 15be 914c 1fbd
000000f0: 0f6a bbbd 6f66 56bd 9f00 23bd 081e 4fbe
00000100: c1ec c7bd 2f15 7fbe d536 82bd 2d05 89bc
00000110: 1834 0dbe d0e4 ccbc 4e29 48bd e9f5 49bd
00000120: d8ac 92bd ce2d d0bd ffb6 12be 4026 ecbd
00000130: 73ec f0bd a6df 51bd 549f b1bd 09fb 19bd
00000140: 5e5f ffbd 263e 05be 4961 afbd b232 c7bd
00000150: 5c67 dcbd b53e bcbd a2ed 97bd d9ec 04bd
00000160: 8820 b0bd 92b5 b3ba 0215 f8bd 5cad 14be
00000170: 5014 e9bd 39fd c4bd 14e0 cebd 936c 23be
00000180: 927e 7bbd eb3c 9dbd df8b d2bd 1c45 3cbd
00000190: 4e39 13bd d0b1 49bd 385b 2abe 2551 4ebe
000001a0: 4e05 f8bb f53f b4bd 5f5e 2cbe 7b0a 2ebe
000001b0: a61b 29be dac6 0cbe 1b1f 223d 2aff d1bd
000001c0: d546 8bbd 54f6 34be 6f58 6bbc a865 5fbe
000001d0: 6c27 0abe dd14 3ebd e23f 923c 6d07 68bd
000001e0: 7151 09be db37 bbbd bb6f 01be b40a 15be
000001f0: 14ae cabd 5ce1 84bd eafe 04bd b5f6 92bc
00000200: 89d3 c5bd 17bf 23bd 4332 9bbd 2ba6 cabd
00000210: 8797 9abd b407 89bd 155f cebd 83cf edbd
00000220: eeb9 b6bd 5955 e6bd 1cd8 c73c 6f99 73bd
00000230: 51a3 03be 99bb b3bd 7a50 b5bd 53cd 4bbe
00000240: 9dd9 a2bd 1fce 3abd 6546 b8bd 8023 363b
00000250: 3b76 0dbe fe99 91bd 3cb5 c2bd fbc8 b0bc
00000260: 502c 0ebd 07b1 5bbd c268 dcbc b07c 1dbe
00000270: f424 d3bd db73 27bd 5174 04be 4343 e1bd
00000280: 5e72 06be c473 2cbe 328b 233c 19f6 63bb
00000290: b94a 47be 6083 74bd e95a 3dbd 0f5c 27bd
000002a0: d7fb 87bd 68a6 28bc b897 00bc 597a cd3b
000002b0: 850c 16bc d1e8 80bd c2dc 6abd cc4d 40bd
000002c0: a39c 89bd 5781 1b3d 9711 6ebc 970e 233d
000002d0: 7086 45bd 03a9 c3bd 62df b3bd d8bc e3bd
000002e0: 4f3d 30be fcb4 83bd 62e7 11be 668f 13bd
000002f0: d577 78bd e982 a8bd 38de eabd ad58 cdbd
00000300: 3fe9 8abd 439a 34be 7409 14bd 3a30 a9bd
00000310: fb86 92bd e11f 23bd 98aa cabd 11a4 4fbd
00000320: 9302 8bbd 6a32 133c eb07 0dbd eb67 5abd
00000330: 5598 1bbe facd 26bd 1579 7bbb 0b2d aabd
00000340: f5d6 53be ae21 aabc 7294 bebb 333b 13be
00000350: 5626 bbbd ccc7 60bc 5833 32bd 3e47 ddbd
00000360: 7269 eabd f6e6 eebd b0e8 a6bd 0293 cfbd
00000370: 68d0 09bd f437 b0bd a67b 7c3d f012 ebbd
00000380: c859 53bd 03aa 8ebd c826 75bd 2eb0 f4bd
00000390: f273 1dbe 0198 88bd 8c62 e6bd a621 a6bd
000003a0: dd09 c3bd b065 88bd 7568 1dbe c80d e0bb
000003b0: 7f6b 0dbe 0dcd 64bd d96b 9fbc 41d6 62bd
000003c0: 104a b5bd 8ae9 8abd 440c babd b754 d9bb
000003d0: e97a 3f3d 7580 b2bd 5c47 c3bd ae31 64bc
000003e0: dec9 2b3c a15f 59be 01b1 40be c129 a5bd
000003f0: 988b 20be 7d4b a9bd 54a9 0abc 419b 92bc
-0.1431207 -0.0061314697 -0.12629044 -0.08941408 0.056600828 -0.038539138 -0.12122441 -0.25644705
-0.079355285 -0.23518468 -0.1195917 -0.19909106 -0.13925914 -0.010819812 -0.10444728 -0.15210362
-0.044024177 -0.010095629 -0.19097678 -0.022018464 0.0080093555 -0.0532435 -0.11953593 -0.087548636
-0.07367705 -0.0031540154 -0.22555412 -0.041213766 -0.07289087 -0.13892752 -0.0063756267 0.014711027
-0.04440823 -0.15690163 -0.08931444 -0.06921267 0.021944696 -0.14916274 -0.11726063 -0.16571929
-0.08731506 -0.06591597 -0.0029390347 -0.0790456 -0.15836461 -0.105226085 -0.12628476 -0.09293681
-0.07347137 -0.00962241 -0.14891793 -0.051586755 0.04261346 -0.019310113 -0.026479928 -0.061359406
-0.16874334 -0.09646591 -0.14582631 -0.03889138 -0.091510884 -0.052343782 -0.039795514 -0.202263
-0.09761954 -0.24910425 -0.06358115 -0.0167261 -0.13789403 -0.02501145 -0.048867516 -0.049306784
-0.071618736 -0.101649866 -0.1432762 -0.11530733 -0.11763849 -0.05123868 -0.086729676 -0.03759292
-0.12469362 -0.13011989 -0.085634775 -0.09726466 -0.10761902 -0.09191648 -0.07418372 -0.032452438
-0.08599955 -0.0013710728 -0.12113382 -0.14519256 -0.113808274 -0.09618611 -0.10101333 -0.15959387
-0.061400004 -0.07677635 -0.102805845 -0.045964345 -0.035943322 -0.04924184 -0.1663636 -0.20148142
-0.0075689917 -0.08801261 -0.16832875 -0.16996185 -0.16514453 -0.13747731 0.039580446 -0.10253747
-0.068006195 -0.17672092 -0.014364346 -0.21816123 -0.13491601 -0.046406616 0.017852727 -0.056647707
-0.13409974 -0.09141513 -0.12640278 -0.14554864 -0.09896484 -0.064882964 -0.032469667 -0.017939905
-0.09659488 -0.03997716 -0.07577946 -0.09894975 -0.07548433 -0.066909224 -0.10076729 -0.11611845
-0.08922182 -0.112467475 0.024395041 -0.059472498 -0.12855269 -0.08776016 -0.0885324 -0.19902544
-0.07951663 -0.04560673 -0.08997802 0.0027792156 -0.13814633 -0.0710945 -0.09507224 -0.02158021
-0.03471023 -0.053635623 -0.026905421 -0.15379596 -0.103097826 -0.040881973 -0.12934996 -0.10999157
-0.13129565 -0.16841036 0.009981917 -0.0034784137 -0.19462098 -0.0596956 -0.046229277 -0.04085928
-0.066398315 -0.010293581 -0.007848673 0.0062706885 -0.009158258 -0.06294406 -0.057339437 -0.046949193
-0.06719329 0.037965145 -0.014530561 0.039808836 -0.048223913 -0.09553721 -0.08782841 -0.111200035
-0.17210887 -0.064310044 -0.14248422 -0.036025427 -0.060661156 -0.08228094 -0.11468166 -0.10026679
-0.067827694 -0.17636971 -0.036141828 -0.082611516 -0.07154652 -0.039825324 -0.098958194 -0.050693575
-0.067876 0.008984188 -0.03443138 -0.05332176 -0.15194829 -0.04072378 -0.003837173 -0.083093725
-0.20687468 -0.020768013 -0.005816036 -0.14378051 -0.091381714 -0.01371951 -0.043505996 -0.10804604
-0.11445893 -0.11665146 -0.0814985 -0.101354614 -0.033646017 -0.08604422 0.061641358 -0.114782214
-0.051599294 -0.06966021 -0.059851438 -0.11947666 -0.15376261 -0.066696174 -0.11249265 -0.08111887
-0.09523366 -0.0666002 -0.15371878 -0.0068375804 -0.13810538 -0.055859614 -0.019460605 -0.05538011
-0.08852017 -0.06782825 -0.09084371 -0.0066324132 0.046748076 -0.087159075 -0.09535095 -0.01392786
0.010485141 -0.21227886 -0.18817522 -0.080646046 -0.15678251 -0.08266351 -0.0084632225 -0.017896296

fc2.weight f4 [128, 256]
00000000: a3d9 7f3d 9db9 1f3e f21e 13bb aafe a53c
00000010: b4fd 42be a84d 253e 0c56 b3bd 6300 cbbb
00000020: c110 ea3d fa66 2bbd 07ac 3d3d 098e 0e3b
00000030: 60d2 92bd f6ad b2bc ee0c f33c 02de 713d
00000040: ea39 6ebd 56dc aebd 74ca 063c d199 843d
00000050: 3ebe ba3d f11a 59bd b732 ca3d 0860 03bb
00000060: 74e0 bebd 2501 d53d 6cde 3a3d 45a6 05be
00000070: fb94 fb3c 8e01 14bc f533 8c3d 9ba3 f03d
00000080: 3627 c63b 2752 79bc 59bd 8d3d 430a 9f3c
00000090: 97dc 42bd 00c9 2d3d aa14 9c3d 9156 403b
000000a0: 99f5 0b3c 95a6 70bd 55b5 be3d 6591 6c3d
000000b0: ed2a 1a3a 8764 50bd 2aa1 4bbd 6209 adbc
000000c0: e585 bf3c 176b 51bd e396 6bbc 710c d83c
000000d0: 3ecc acbd 83f1 05bc 1c70 cebc 7d4b 86bd
000000e0: eb4c b6bc eee7 00bc 22a9 44bd 34d1 7d3d
000000f0: 8aee aabc d661 fd3b dd32 a3bb 286d a03c
00000100: cb6c f53c 4381 43bd a721 8dbb 479f 9abd
00000110: 919f 063d 539c 0abe 1197 663b 8c4a f3bc
00000120: b32f 6e3d 4a3d 53bd ec9e 50bc 0d39 323d
00000130: c465 163e 2bf9 013e 7989 893c 33ba 693d
00000140: 1b64 ccbc 08cb d0bc 1e08 3f3d c6a2 21bc
00000150: 6666 103d f39b db3d ec99 cc3c d597 82bd
00000160: 68e9 9f3d ac67 f13c 5162 493d c099 723d
00000170: 35a1 203d fcc5 0d3d a8fc 0cbd e85c d5bc
00000180: a115 debc 04b9 6abd 9a17 ae3d c776 7dbd
00000190: 0ac3 463e 2342 353c dd2b 4cbc 24cf 71bc
000001a0: 522a 813d a985 c4bc dfdd 3bbd 0870 f1bd
000001b0: 8dbc 6fbb 645d 343d bd91 523d 0174 e4bb
000001c0: 9bd4 5e3c e33d a33c ddaa f6bd 978b 3cbe
000001d0: 187c 293c 09e1 4b3d d064 a3bd a3fd 9c3d
000001e0: c5c0 663d de32 be3d 54ca e63c 21d8 ba3a
000001f0: e05f 3b3d 65ca 503d 8fe0 dd3d 67e7 9f3d
00000200: 2715 0b3d 45a5 98bd 74cc 543d 4030 983d
00000210: 9ad8 d83d 4025 eabc d3a5 f4bc b02b 3b3d
00000220: e246 833d df0c 97bc 3f6a a1bd c99b 8a3b
00000230: 2705 6abd 66be 6f3d ae67 743d bfa2 dbbd
00000240: 84a0 e93b 47d0 833d 6ee1 913d 9f30 9dbd
00000250: 7190 9c3d b916 d33d 49b8 423b 7aa5 143e
00000260: 0a4f 53bd f293 adbd 3e1e 473d a74f 9cbb
00000270: 0d30 27bc 532b 10bd f6f0 bd3d 9f4a 583d
00000280: 816c d33c 12e0 853d 7ea5 d93d b44c d9bc
00000290: cc48 81bc 130c c3bd 6a0a abbd 5462 0a3e
000002a0: 05fa d43d 3aad 553d a9e0 af3d 2024 433c
000002b0: 11a8 e1bd 3920 663c 6449 163c 7522 be3d
000002c0: bc48 76bc b4cc edbc 84fc 953d 190b f8bd
000002d0: 16bb d5bd 792b e63c 7df5 933d 754d 13bc
000002e0: e41b a93d 4ff0 323d 3a4a aabb c978 4b3d
000002f0: c4db a53d c90d 0abd 92be 4f3d 7bf9 33bd
00000300: 652b 073d f7ac a23d fdf7 ec3a 675e fc3c
00000310: 1370 2e3c 420a e63c c518 c43d 281e dabd
00000320: 4bb7 99bb ff61 86bd eb97 25bd 29df 37bd
00000330: 8bcb ac3c 23cd 85bd 5b4a 973c f222 a6bc
00000340: 807c 043b f19e 70bd d27d c73c dd5d 59bc
00000350: 9e39 3ebd 880e 943d 0028 0ebb 0f1d 003e
00000360: c225 2e3d e1ad c83c 1ce7 af3d 551a 813d
00000370: b8b5 413d 6e01 6e3d a62c 513d ced1 863d
00000380: 5a84 e53a 741e 88bd b109 b03d e0ca a7bc
00000390: d48a 40bc fccc 0d3e 8280 233d 9379 a7bc
000003a0: c67f ec3c 6809 c33c ce6a 2b3d 189d 8b3d
000003b0: a22d 993b a6eb 9ebd 17a1 ffbd 30d4 823c
000003c0: a086 94bd 2325 edbc 2789 f13c 575c 5ebd
000003d0: 33f2 ff3d a263 1a3d 70b2 3ebb 9046 b6bd
000003e0: a109 45bd 31d0 6a3c 2507 a3bd f292 41bb
000003f0: afdc 62bd 7847 7f3d 32f2 cd3d 79fa 61bd
0.062463414 0.1559815 -0.0022448865 0.020263035 -0.19042093 0.16142905 -0.087566465 -0.0061951145
0.11428977 -0.041846253 0.046306636 0.002175214 -0.07169032 -0.021811467 0.029669251 0.059049614
-0.0581607 -0.085381195 0.0082269795 0.06474651 0.09118317 -0.05300421 0.09872954 -0.0020046253
-0.09320155 0.10400609 0.045622274 -0.13051708 0.030710688 -0.009033574 0.068458475 0.11749955
0.006047155 -0.015217341 0.06920881 0.019414073 -0.047573652 0.042428017 0.07621129 0.0029348473
0.008542442 -0.058752615 0.0931193 0.057755847 0.000588103 -0.05087712 -0.049714245 -0.021122638
0.023379276 -0.05112752 -0.014379236 0.02637312 -0.084373936 -0.008175257 -0.025199942 -0.06557367
-0.022253474 -0.007867796 -0.04801286 0.06196709 -0.020865697 0.00773261 -0.0049804286 0.0195833
0.029959103 -0.047730695 -0.00430699 -0.07549911 0.032867018 -0.13536195 0.0035185257 -0.029698633
0.05815096 -0.05157212 -0.012733202 0.04351144 0.14687258 0.12692706 0.016789185 0.05706234
-0.024950078 -0.025487438 0.0466386 -0.009865468 0.035253905 0.10723104 0.02497574 -0.06376616
0.078081906 0.02946838 0.049166027 0.05922866 0.03921624 0.03461264 -0.03442064 -0.026045278
-0.027109923 -0.05730535 0.085005954 -0.061880853 0.19410339 0.0110631315 -0.01246163 -0.014758859
0.063069 -0.023989515 -0.04586589 -0.117889464 -0.003658089 0.044034377 0.051408518 -0.0069718366
0.013600494 0.01992697 -0.12044308 -0.18412624 0.010344528 0.049775157 -0.07978213 0.07665565
0.056336183 0.09287046 0.02817265 0.0014255085 0.04574573 0.05097427 0.10833847 0.07807808
0.03395572 -0.07453398 0.051952794 0.07431078 0.105881885 -0.028582215 -0.029864227 0.04569596
0.06410004 -0.018438755 -0.07881593 0.004229997 -0.05713382 0.058531187 0.05966919 -0.10724401
0.0071297307 0.0643621 0.071230754 -0.07675289 0.076447375 0.103070684 0.0029711893 0.1451625
-0.05158905 -0.08475484 0.048612826 -0.0047702375 -0.010204327 -0.035197567 0.09274475 0.05280554
0.025808575 0.06536879 0.10627268 -0.026525833 -0.015781783 -0.09523787 -0.08351596 0.13514072
0.1039925 0.052167155 0.085877724 0.011910468 -0.11018384 0.014045768 0.009172771 0.09283916
-0.01503199 -0.029028274 0.07323554 -0.12111492 -0.104360744 0.028096901 0.072245575 -0.008990635
0.08257273 0.043686207 -0.005196837 0.049675737 0.080985576 -0.033704553 0.05071885 -0.043939095
0.03300037 0.07943147 0.0018079277 0.030806733 0.010646838 0.028081063 0.09575037 -0.10650283
-0.0046910397 -0.0656166 -0.040428083 -0.044890556 0.02109315 -0.06533267 0.018468073 -0.020280335
0.002021581 -0.05874533 0.024351988 -0.013267008 -0.046441667 0.07229334 -0.0021691322 0.12511085
0.042516477 0.024496974 0.085890025 0.063038506 0.04729244 0.058106832 0.05106797 0.06582986
0.0017510757 -0.066464335 0.085955985 -0.02048248 -0.011751849 0.13847727 0.039917476 -0.020443713
0.02886952 0.023808196 0.041849904 0.06817073 0.0046746293 -0.0775979 -0.12481897 0.01597032
-0.0725224 -0.028948372 0.029484345 -0.05428728 0.12497368 0.037692674 -0.0029098056 -0.089001775
-0.048104886 0.014331863 -0.07960347 -0.002953705 -0.05538624 0.062324017 0.10055961 -0.05517051

fc2.bias f4 [128]
00000000: be64 823d 8f3e 3b3d 42a7 d33a ad82 173c
00000010: 508e 0b3d adf7 8fbd 41be 49bc 4b07 3b3c
00000020: faf1 18bd 5711 c83c 4855 803d 5a2f 9dbd
00000030: e1b1 293d 58a6 243d c3c5 8b3c 2a59 a23c
00000040: 926c 72bb a49f 9e3d 6c75 91bd e729 853d
00000050: 664d 9abd 02a9 54bd e7c9 8bbd bd3b 69bc
00000060: 9df0 30bd b786 053b 66da 97bc 537e cdbc
00000070: 590c debc af8a 0abd 16c6 7e3d 6fc3 84bd
00000080: c1dd b03c e205 26bd c705 e8bc c294 acbc
00000090: 65a1 c23d ce19 fe3c ba75 7cbd 2b09 96bd
000000a0: 7070 95bc 4122 30bd f82c 22bd 7491 603d
000000b0: 224c c2bb 2a7f f63c f38e edbc b1a4 36bd
000000c0: ee4c 433d 8c96 dcbb cc98 49bd cf7f 023d
000000d0: eb01 733b 5d0b 503d 1f98 323c 4539 97bd
000000e0: 9617 a13c 4863 99bd a187 de3c 7b18 1fbd
000000f0: d902 efbc 3d56 68bd a383 70bd a5c9 0fbd
00000100: 0999 a9bb 4d85 b5bc af08 4abd 8940 923c
00000110: 4a8e 8a3d 1faf 9abc c2db a7bb af5b 8ebd
00000120: a969 22bd 5f66 04bc 9261 7b3c 1616 ee3c
00000130: 4c32 1cbb 78a0 a23d 99d8 c23c 6021 723d
00000140: 9350 203c fdfe cebc 381d 90bc 4742 663c
00000150: a94d 84bd 6d5b 0a3d 1db6 853c fa8c 7d3b
00000160: 5785 923c a301 4bbd da4c 223d 2476 7abd
00000170: 2b3e 3fbd bd71 35ba 066b 39bc d760 6cbd
00000180: b95a 95b9 c27e 6e3d fedc 9a3d 843d 8dbb
00000190: 6e12 31bd 49c3 443c f804 adbc f427 073c
000001a0: 472a 933c e991 34bd 7795 64bd 7ebf 87bd
000001b0: 2750 16bc 06d3 b5bc a942 9bbc 0047 fabb
000001c0: 3a74 e13b 6803 943c cfc8 3ebb 9a52 1d3d
000001d0: eb7a 21bc bbbf ad3d 0a6e f5bc e898 423d
000001e0: 5cd6 6e3b 38b3 b3bc d602 c23c ee4b 41bd
000001f0: 643e 433d 4878 6bbd 3365 413c b072 173d
0.06366871 0.045713957 0.0016147869 0.009247464 0.034071267 -0.07029662 -0.0123134265 0.011415313
-0.03734014 0.02442233 0.06266266 -0.07675047 0.041429404 0.0401977 0.017062074 0.019817907
-0.0036990982 0.07745293 -0.071024746 0.06502133 -0.07534294 -0.05191899 -0.06825619 -0.014235434
-0.043198217 0.0020374486 -0.018536758 -0.02508465 -0.027105497 -0.033823665 0.06220063 -0.064825885
0.021590116 -0.040532954 -0.028323067 -0.021067027 0.0950344 0.031018164 -0.06163571 -0.073259674
-0.018242091 -0.043001417 -0.039593667 0.054826215 -0.005929486 0.030089933 -0.028998828 -0.044590656
0.047680788 -0.006731814 -0.049217984 0.03186017 0.003708 0.050792087 0.010900526 -0.0738397
0.019664567 -0.074896395 0.027164282 -0.038841706 -0.029176163 -0.05672287 -0.05871929 -0.035104413
-0.005175714 -0.02215829 -0.049324688 0.017853038 0.06765421 -0.018882332 -0.0051226327 -0.06951081
-0.039651547 -0.008081048 0.015343087 0.029063266 -0.002383369 0.07940763 0.023784922 0.05911386
0.009784835 -0.025268072 -0.017592058 0.014053888 -0.06460125 0.033778597 0.01632219 0.0038688765
0.017885847 -0.049562108 0.039624073 -0.061147824 -0.046690147 -0.00069215504 -0.01131702 -0.05770954
-0.00028487088 0.058226354 0.07561682 -0.0043103117 -0.043230467 0.01200945 -0.021120533 0.008249272
0.017964495 -0.044084463 -0.055806603 -0.06628321 -0.009174383 -0.02219535 -0.018952684 -0.0076378584
0.0068803104 0.01806803 -0.002911139 0.038408853 -0.009855966 0.08483835 -0.029959697 0.047509104
0.0036443686 -0.021936044 0.023682993 -0.047191553 0.047666922 -0.057487756 0.011803913 0.03697461

fc3.weight f4 [64, 128]
00000000: 648d 273d 28cc 83bd 2c7a 95bc b43d 6cbc
00000010: 4fff fabc c205 ae3d c2cb 81bd a778 5a3d
00000020: 3464 133d f68a 22bd 4c06 bebd 7f1e dbbc
00000030: f413 c0bd 2ffd 223d fed6 c4bd e599 1e3a
00000040: faab efbc 5423 34bd 1b0c a0bd dda8 e0bc
00000050: e42a 25bb 409b 88bd 6db9 593d 8f4c 903d
00000060: d7a9 5fbd e34f 81bd 41d5 e53c 7cae 503d
00000070: acaf 35bd 40d9 733d ce9a f53c 842a 503d
00000080: 2dc0 9f3d 095d b0bd 12e9 e0bb c798 143c
00000090: 2684 5fbb 23a8 16ba cca7 58bd 56b6 a0bc
000000a0: c7c6 6ebd 5796 943d 9b29 bf3c 687d b93c
000000b0: 8b21 8abb 84c5 0c3d 7b5c aabd a76c 93bd
000000c0: a017 70bd 4c54 9fbd 1bbd a93d 608f b73c
000000d0: 706b 4fbd 8bb7 49bd a142 90bd 5ee4 f03c
000000e0: 35aa 00bd c12e a73d d1fc 023d 63f0 683d
000000f0: 582f 4f3c 2f9f 793d c939 aabd 746e 11bd
00000100: a97b 5c3d 9d6c 26bd 7a42 333c 53cb 663c
00000110: cc6c c0bd 266b 22bd 74c1 86bc 10f9 71bd
00000120: 2626 613d 0563 adbd 41af cf3c eb83 8fbd
00000130: fc64 d23c d674 25bc 5173 28bd cde7 c1bd
00000140: 2892 2c3d 9610 a7bb d054 99bc 884f c8bc
00000150: c1b1 8ebd 4d35 aabd e8ee 5ebd 326d 473d
00000160: f045 453d 6bea 74bc b031 09bd e54c 43bd
00000170: aff5 963c 5d01 82bd 0f51 d53c f47d d1bc
00000180: 7ddc 193d b22a fa3c e8a3 273d 9b90 a4bd
00000190: 3313 473d e027 f73c 1263 99bd 7d10 a93d
000001a0: d89d dfbd 5400 cdbd 7b7f 633d c674 de3b
000001b0: 1465 ae3b e436 b7bd 5909 33bd b946 a7bd
000001c0: 078a 233c 3889 0abd 46b4 51bd 404f 4ebd
000001d0: aa06 13bd c5a0 f4bd 52cb 3dbd d28c cbbd
000001e0: b4df a8bd 6282 fe3c b6ec 743a 3ee5 71bd
000001f0: b3f7 193d 654b c9bb ef7a 40bd e25c 91bd
00000200: 1063 fcbd f402 453c 8fab 913d a56a 5f3d
00000210: ea25 80bd 7727 54bd dd6e 53bd a7ff 1fbd
00000220: 6a06 03bd 6e37 1e3d 8b95 7a3d d7f9 103d
00000230: 7c99 ecbc bc94 e5bc ea6f f53c 4e5a 5dbc
00000240: 720a 4a3d 8b68 f83b 607d a63d ddf0 223d
00000250: b214 303d ddda 71bd a87e 4d3b a5e9 ad3d
00000260: ef4d aebd 774e 70bd 9576 5abd b40d 8c3d
00000270: 93c8 513c 02a3 39bd b362 67bd cb54 aabc
00000280: 1201 8cbd e3ad 2fbd f4c0 d2bb 260c 353d
00000290: 01a9 17bd fc71 55bd 5cf4 d0bc 9dfd b4bb
000002a0: 73a4 bdbd b708 943d a305 963c 22f6 afbc
000002b0: f460 8d3b b998 683d 8591 513b 9c3e 7bbd
000002c0: 2224 c83a 03df c53d ab1a 8c3d eaa3 5c3d
000002d0: 3737 913d 3a12 09bd fe9d a73b 0fa9 813b
000002e0: 5940 4dbd dfea ff3c 3156 583c bee2 303d
000002f0: 8507 59bd d7dd a03d 0079 9c3a adad 9a3c
00000300: 815c 98bd cff9 a33d f5cd 9a3d 803b 09bd
00000310: 06e5 82bd 62cd 183b 266a 90bd f038 013c
00000320: 3008 5c3d 2450 b4bd ba05 b7bd 9d9f 9c3d
00000330: f8b4 4e3d 9548 57bc 4276 453d 34a1 063d
00000340: e848 cbbc f0c4 44bd 55a0 3f3d aeee 743d
00000350: cb12 5e3d 328c bc3c b5ba b93d 1d12 9a3d
00000360: 71be 433d 6aa3 c43d 56d1 ab3d 74e4 84bd
00000370: 2c51 373d 998b 2b3d b158 823d 07a9 a9bb
00000380: 491f 0d3c ea34 acbd a922 31bc 6da7 04bd
00000390: dfd1 953c 05e7 b23d f1ed b13a 23e7 cdbc
000003a0: 06ed f0bc 1349 9dbc 35ab f9bc a248 863b
000003b0: 022d e4bc 9b01 8fbd 6227 773d 9352 89bd
000003c0: c8f7 3c3c ba2d df3c a470 08bd 3d68 483d
000003d0: f6e1 acbc f580 f43b 84ac cb3c 37bd 123c
000003e0: 58f4 13bd 3225 c9bd 5c08 223d 1e23 8abc
000003f0: 4c8d aabd df53 adbd 2fb0 94bd 9a27 a4bc
0.040906325 -0.06435424 -0.018246733 -0.014419008 -0.030639319 0.08497192 -0.06337692 0.05333772
0.035984233 -0.039683305 -0.09278545 -0.02674794 -0.09378806 0.039792236 -0.09611319 0.0006050154
-0.02925681 -0.043979004 -0.07814809 -0.02742427 -0.0025202567 -0.066702366 0.05315535 0.070458524
-0.05460533 -0.06314065 0.028055789 0.05094765 -0.044356987 0.059533358 0.029981043 0.050821796
0.078003265 -0.08611495 -0.0068637216 0.009069628 -0.0034105866 -0.00057471 -0.0528944 -0.019618195
-0.058295038 0.072552375 0.023335269 0.022642806 -0.0042154244 0.034368053 -0.083184205 -0.07198458
-0.05861628 -0.0777975 0.08288022 0.022407234 -0.05063957 -0.049247306 -0.070439585 0.029405769
-0.031412322 0.081632145 0.031979386 0.056869876 0.012645565 0.060942825 -0.08311803 -0.035505727
0.05382887 -0.040630925 0.010941142 0.014086562 -0.09395751 -0.039652966 -0.016449668 -0.059075415
0.05496802 -0.08466152 0.025352122 -0.07007583 0.025682919 -0.010098657 -0.0411256 -0.094680406
0.042131573 -0.0050984127 -0.0187172 -0.024451986 -0.069674976 -0.083109476 -0.054427058 0.04868812
0.0481624 -0.014948468 -0.03349465 -0.047680754 0.018427698 -0.06347916 0.026039628 -0.025572754
0.03756379 0.030537937 0.040927798 -0.08035394 0.048602294 0.030170381 -0.07489599 0.08255098
-0.10918778 -0.10009828 0.055541497 0.006788823 0.005322108 -0.089460164 -0.043710086 -0.08167786
0.009981639 -0.03382227 -0.051197313 -0.050368547 -0.035895027 -0.11944727 -0.04633648 -0.09938969
-0.08245793 0.03106803 0.0009343134 -0.059056513 0.03758974 -0.006143021 -0.04699224 -0.07097794
-0.12323582 0.01202463 0.071128 0.054545064 -0.062572315 -0.05179545 -0.0516194 -0.03906217
-0.03198854 0.03862708 0.06117777 0.035394516 -0.02888178 -0.028025024 0.029960591 -0.0135103
0.049326368 0.007580822 0.08129382 0.039780486 0.042988487 -0.059046615 0.003135601 0.0849183
-0.085109584 -0.05866858 -0.053335745 0.06838551 0.012804168 -0.045321472 -0.05649061 -0.020792386
-0.06836142 -0.04289044 -0.006431693 0.04420104 -0.03702641 -0.052110657 -0.025507145 -0.005523397
-0.09259882 0.07228225 0.018313235 -0.02147967 0.004314536 0.056786273 0.0031977606 -0.061339006
0.0015269557 0.09661677 0.06841024 0.053867258 0.070906095 -0.033464648 0.0051152697 0.003956921
-0.050110195 0.031239925 0.013204143 0.04318499 -0.052985687 0.078548126 0.0011937916 0.018881643
-0.07439519 0.080066316 0.075588144 -0.03350401 -0.06391339 0.0023315777 -0.07051496 0.00788711
0.053718746 -0.08804348 -0.08936639 0.07647631 0.050465554 -0.0131398635 0.048208483 0.03286858
-0.024815038 -0.048039377 0.046783764 0.059797935 0.05421714 0.02301607 0.09068815 0.07522986
0.04778904 0.09601481 0.08389537 -0.064888865 0.044755146 0.041881178 0.06364573 -0.0051776203
0.008613416 -0.0840853 -0.010811486 -0.032386232 0.01828855 0.0873547 0.001357494 -0.025134629
-0.029409897 -0.019199884 -0.030477146 0.004098014 -0.027853493 -0.06982728 0.060340293 -0.06705203
0.011533685 0.027243484 -0.033310547 0.048927534 -0.02110384 0.007461662 0.024862535 0.008956245
-0.036121696 -0.098215476 0.039558753 -0.016862448 -0.083277315 -0.08463263 -0.07260167 -0.020038415

fc3.bias f4 [64]
00000000: 6a22 dfbd 823b 68bd 3b5c 9ebd a261 b43d
00000010: d4ce 96bd 69d9 a7bc 1a10 003e 111c cabc
00000020: cc4c 673d fb7d 6b3d 37db 9a3c f55f 60bd
00000030: 10f1 a3bc 3ea3 41bd 9cc7 62bd 2d11 e7bd
00000040: d239 9c3c 0bf6 873d 9d7a 173d bb37 e3bd
00000050: 5648 5ebd f953 d13d de52 d33c 36b6 de3d
00000060: 90cf aabd 4604 563d fcdf 98bd 1c0c adbb
00000070: 3e9a 02bd 6878 7ebd 9056 e83c ca06 423b
00000080: 2f6f b2bd 4b21 a3bd 4b26 8d3c 57fd 8f3d
00000090: 3449 5d3c 46d9 82bc cd73 f6bb 739d c03c
000000a0: 551a fc3c 0ffb e9bd f4b4 bf3b daab 8f3b
000000b0: 4a3e 493d 988a 8fbd 85a6 213d 3e04 033d
000000c0: ffe3 aebc 6335 c33d 8407 3cbc a4e4 003c
000000d0: 27cb 283d 9554 d7bc a227 f1bc d68b d0bd
000000e0: 1f0d 4b3c 09c3 783b b109 6f3d ba94 9d3c
000000f0: 5ed2 253d 2b9a 12bc 1d96 04bd f2ca a5bc
-0.10895236 -0.056697376 -0.07732435 0.088076845 -0.07363668 -0.020489411 0.12506142 -0.024671586
0.056469724 0.05749319 0.018903358 -0.05477901 -0.020012408 -0.04727482 -0.055366144 -0.11282573
0.01907054 0.06638726 0.036982168 -0.11094614 -0.054268204 0.10221095 0.02579635 0.10874598
-0.08340371 0.05225017 -0.07464597 -0.0052809846 -0.031885378 -0.062126547 0.028361589 0.0029606097
-0.08712613 -0.079653345 0.017230174 0.070307426 0.0135062225 -0.015972745 -0.0075211287 0.023512578
0.030774275 -0.11424839 0.0058504287 0.0043845 0.04913167 -0.070088565 0.039465446 0.031986468
-0.021348951 0.09531667 -0.011476401 0.007867012 0.041209366 -0.026285449 -0.029437844 -0.101829216
0.012393265 0.0037958047 0.05835885 0.019235957 0.040483825 -0.008947889 -0.03236972 -0.020238373

fc4.weight f4 [1, 64]
00000000: 7aab 86bd c029 b73b d9c2 273d 3ccb d23d
00000010: c34c c0bd 483f d8b9 5049 b53d 7b81 c7bb
00000020: 45bd 733d 74fa 103c ba20 2fbd dbb8 9bbc
00000030: 78c1 efbd ad9f d73b 55bb 943c 6add abbd
00000040: bfe2 94bc a3fe 7a3d fdf4 80bd ddde 1d3b
00000050: 5f56 babb d2d7 f93d ca3d 26b7 08b4 0c3d
00000060: b7bf 25bb 7e4f 98bd f216 803a afa8 883d
00000070: 4c7d 88bd 14f2 3fbc 39f6 df3c 4134 85bd
00000080: 3a66 82bb 5978 933d cfbf 903d 6659 d93d
00000090: a15e ac3d f3dc fb3a 9aa1 06bc 51cb 96bc
000000a0: 9807 ae3d 5440 393d 223d fdbd 03ca 03bd
000000b0: 026e 9a3c dab5 aaba cc2a 10bd 8a0f 9cba
000000c0: 715a 863d e030 00be 957a 233a 9226 a83b
000000d0: 728e 813c 0ee7 95bd e751 57bc 702c 1d3d
000000e0: 5253 bfbb b4ee 84bd 6251 1ebd a6fb 903d
000000f0: b6ad fc3d f0c7 113e d225 5ebb 331e b1bd
-0.06575675 0.005589694 0.040957306 0.1029267 -0.09389641 -0.0004124588 0.08851874 -0.0060884333
0.059506673 0.008848775 -0.04275582 -0.019009044 -0.11706823 0.006580314 0.018155733 -0.08391841
-0.018174527 0.061277997 -0.06296728 0.0024089136 -0.005686566 0.121993676 -9.908757e-06 0.03435138
-0.0025291273 -0.07437037 0.0009772463 0.06672799 -0.066645235 -0.011715431 0.027339088 -0.06504107
-0.0039794715 0.07200689 0.070678346 0.106127545 0.084164865 0.0019215628 -0.00821724 -0.018407496
0.08497542 0.045227364 -0.12365176 -0.032175075 0.018851284 -0.0013024167 -0.035197064 -0.0011906486
0.06560219 -0.12518644 0.00062362227 0.005131551 0.015814994 -0.07319461 -0.013142086 0.038372457
-0.00583879 -0.064908415 -0.03865183 0.07079248 0.1233782 0.14236426 -0.0033897054 -0.08648338
