Models/NBA/Total_15_avg_past_games_model.pth (torch, 723215 bytes, 7 tensors)

fc1.weight f4 [256, 542]
000000 3d 88 d8 3c 69 d1 c1 bd ee 37 85 3d 75 75 99 bb
       0.026432151 -0.0946377 0.06504808 -0.0046831914
000010 d4 2f a7 3a 9f 75 7a 3d bb e6 ef 3c bb 0d 48 3d
       0.0012755343 0.06114733 0.029284826 0.04884122
000020 46 c8 a1 3d 5e 2e 96 3c e4 6d 95 3d ef be c9 3d
       0.07899527 0.018332656 0.072963506 0.09850871
000030 35 ff ba 3d 9b fc a0 3c 1e 8e c6 3c 27 89 31 3d
       0.09130708 0.019651702 0.024237689 0.04334369
000040 f2 b1 4e 3d 6a 98 82 3d c3 77 7a 3d 32 d6 91 3b
       0.05046267 0.06376727 0.06114937 0.004450583
000050 17 89 f8 3c 2e 78 6c ba 0a 96 fc bc 2d 5d 75 bd
       0.030338807 -0.0009020594 -0.030833263 -0.059903312
000060 94 8d e3 3c f5 0f a2 3d ef 1e 58 bc 9c 92 8f 3d
       0.02777747 0.079132 -0.013190969 0.070103854
000070 26 9b 91 3c e5 bd 53 3d 8e d6 a4 3d 7d 7e 78 3d
       0.017774176 0.05169477 0.080487356 0.060667504
000080 a0 d1 e6 bb 28 d3 78 3d 8b c2 35 3d e2 64 9e 3c
       -0.007044032 0.06074825 0.044374984 0.019335214
000090 30 ac 8d bc b6 36 04 3d 63 81 84 bd 4f 02 94 3d
       -0.01729402 0.03227874 -0.06469991 0.07227003
0000a0 6e 5d ae ba ce f0 ce 3c f6 23 d7 3c 4f 64 1c 3d
       -0.0013302991 0.025261309 0.026262265 0.0381816
0000b0 4f 4c 49 bd 21 f6 ef bc bc c3 b7 bb 1b 42 5c 3d
       -0.04914504 -0.029292168 -0.00560805 0.05377398
0000c0 f2 6d d0 3b 05 6e e6 3c 1b 42 10 bd 94 7b 1c bd
       0.0063607628 0.028128633 -0.035219293 -0.03820379
0000d0 b5 84 0d 3d f5 da 16 3d 1b 7e a0 3d 54 44 54 bd
       0.034550387 0.036829907 0.07836553 -0.051822975
0000e0 ec bf 5d 3d 31 1a e2 bd f6 3a 90 bd 3b 15 25 3b
       0.05413811 -0.11040152 -0.07042496 0.0025189656
0000f0 9c 20 f9 bc dd 6c 36 3c f9 4c 99 3d 14 66 dc 3c
       -0.030411057 0.0111343535 0.074853845 0.026904143
000100 72 82 c0 3b 83 f6 bc 3c 9d db 1a bd 45 9e 0c 3e
       0.0058749253 0.023066765 -0.037807096 0.1373225
000110 e6 db ab 3c ff 7f e5 3c a6 81 a4 3b d3 73 e4 bd
       0.02097888 0.028015135 0.005020338 -0.11154904
000120 94 c5 bf bc 00 48 cc 3c 4a 6e a0 3d d7 4d 08 3e
       -0.023409642 0.024936676 0.07833536 0.13310944
000130 1f 15 ce 3d 28 a5 1b 3d fd 13 ee bc cc 42 24 bd
       0.10062622 0.037999302 -0.029062266 -0.040102765
000140 74 24 8a 3b db 87 13 3d c1 10 ea bc a8 6d b4 3c
       0.0042157713 0.036018234 -0.028572442 0.022024944
000150 10 78 bc 3b fd f4 4c bb fb 6b c4 3c 24 ed 7e bd
       0.0057516173 -0.0031273954 0.02397727 -0.062237874
000160 83 e5 88 3d bd 21 bb bc f9 3c f8 bd aa 10 54 3d
       0.06684401 -0.022843236 -0.121210046 0.051773705
000170 8e 93 09 3e 70 d6 8c 3d 54 cb 7e 3c a0 ee 2d 3d
       0.13435194 0.06876838 0.015551407 0.0424639
000180 8a ff 8f 3c d6 fa f5 bc 8c ce 6d bd ab f8 73 3d
       0.017577905 -0.030026834 -0.058058307 0.05956332
000190 50 20 38 3d 7b cd 18 3c 2c c0 3a bd eb de 45 bc
       0.04495269 0.009326334 -0.045593426 -0.012077074
0001a0 59 4c 1a bd 63 d2 a5 bd 03 96 ef bb fd 81 80 bc
       -0.037670467 -0.08096769 -0.007311584 -0.015686983
0001b0 70 a4 97 3d f1 cc c4 bd 42 46 7b 3d 5b c5 18 bc
       0.07404411 -0.09609402 0.0613463 -0.009324397
0001c0 41 e1 71 bb 69 fb de 3c e1 1a 5e 3c 40 16 89 bd
       -0.0036907943 0.027219491 0.013556213 -0.06693697
0001d0 ff 74 55 3d 10 f7 87 3b d7 b2 e7 bc 16 f0 81 bd
       0.05211353 0.004149325 -0.02828352 -0.06344621
0001e0 b0 34 9f 3d 8f 57 b6 3c 49 90 25 bc 78 a6 66 bc
       0.07773721 0.022258548 -0.010105201 -0.014077775
0001f0 46 39 67 bc b8 49 28 bd 45 63 27 bd be cf 2c 3d
       -0.014112776 -0.04108593 -0.040866155 0.042190306
000200 49 00 3c bc 2a db 04 3d 9d 43 9b bd 9a f3 05 bd
       -0.011474677 0.032435574 -0.075812556 -0.03270302
000210 46 df ec bc a4 a0 e5 3c 18 5d 71 3c 49 af 1b bb
       -0.028915059 0.028030701 0.014731668 -0.00237556
000220 e7 df b3 3c 54 4a 0b bd 1c b8 00 bd 79 18 14 bd
       0.02195735 -0.03400643 -0.03142558 -0.03615615
000230 2f 3f fe 3c 52 2d ec 3c 9f 03 ca 3c d0 48 0e 3c
       0.031035988 0.028830204 0.02465993 0.008684352
000240 b6 21 97 3c 10 9f 1c bd 58 af 44 bc 63 24 e3 bc
       0.018448692 -0.03823763 -0.012004696 -0.027727311
000250 0e c1 04 bd e2 bf 21 bc 01 06 86 3b 53 2a 01 3b
       -0.032410674 -0.009872409 0.004090071 0.0019709065
000260 cb 24 3d bd 72 93 c2 bd 7d ac 1a 3c 80 fb 88 3d
       -0.046177667 -0.09500779 0.0094405385 0.06688595
000270 dc 13 22 3c 50 f5 af 3c 90 f7 c0 3d cc 18 a0 bc
       0.00989243 0.021479279 0.09422219 -0.019543074
000280 94 d1 0e 3d 1e 4a 8a 3d da 49 b3 3d 87 70 64 3d
       0.034867838 0.06752418 0.087543204 0.055771377
000290 c4 d8 5c bd 00 c0 22 be 4f b2 c8 bc 3e 53 17 bd
       -0.05391766 -0.15893555 -0.024499087 -0.03694462
0002a0 b3 6d d0 bc 0f cb f6 3a a2 74 9b bd b9 b8 75 bd
       -0.025442934 0.0018828827 -0.07590605 -0.05999062
0002b0 ae 2c 6c 3c 58 e5 47 3c 81 0f dc bc ad f6 e7 bb
       0.014414949 0.012200676 -0.026862862 -0.0070789666
0002c0 a2 0b ea bc ba b2 43 3d c8 79 90 bc 55 aa 71 bc
       -0.02857 0.04777787 -0.017636195 -0.014750083
0002d0 0b 73 d4 bd 75 97 1d bd 55 a3 1e bd 52 b2 04 bc
       -0.10373505 -0.03847452 -0.038729984 -0.0080991555
0002e0 a5 11 c4 bc 05 04 fa 3c a9 0b 4c 3d 82 9f 96 3d
       -0.023934195 0.030519495 0.049815807 0.073546425
0002f0 97 4c 86 bd 46 d2 92 bc b5 7e cd 3d 11 a8 e9 3d
       -0.06557577 -0.017922532 0.10033933 0.11409009
000300 1c 0d 8b bd d3 2d 81 3d 8f ff dd 3c f0 b4 32 3d
       -0.0678961 0.063075684 0.027099399 0.043629587
000310 a9 ae 07 3d 2f 4b 74 bc 14 32 e4 3d 6d 86 3e 3d
       0.033125553 -0.014910503 0.11142364 0.046514917
000320 9d bb 4d 3d 6b d9 90 3d a1 80 19 3d 70 ac fa bc
       0.05022775 0.07072719 0.037476186 -0.030599803
000330 a4 29 51 3b 0f d6 ff bc b9 c0 9f 3d 02 d1 8e bd
       0.003191569 -0.03123 0.07800431 -0.06973459
000340 bc ab 03 3d 92 80 03 be 77 dc c2 bc 09 41 81 bd
       0.0321462 -0.12842014 -0.023786766 -0.063112326
000350 82 e4 47 bd 25 17 21 3d f7 f9 ee 3b 06 8a 92 3d
       -0.048801906 0.039328713 0.0072929817 0.07155232
000360 db 39 c9 bc e6 7d 80 3d d4 fa 1c bb f2 3a d5 3d
       -0.02456372 0.06274013 -0.0023953216 0.104116336
000370 97 e7 d5 bc e5 c9 48 bd 2f 28 27 bd e4 80 97 3d
       -0.026111407 -0.049020667 -0.040809806 0.07397631
000380 99 e2 c4 3d fd 1a 04 bd 3c 10 16 bd ee 15 cf bc
       0.096135326 -0.0322523 -0.036636576 -0.025279012
000390 6a 47 cf bd 7d 8d 08 be 23 93 14 bd 95 54 39 bd
       -0.10121043 -0.13335223 -0.036273133 -0.04524668
0003a0 0e b5 d2 bd 83 8c c8 bd 3f 99 20 3c ca ff 4a bc
       -0.1028844 -0.097924255 0.009802162 -0.012390086
0003b0 dd 03 b0 bb b3 9a ae bc b8 74 19 bd d6 9e 49 bd
       -0.0053715543 -0.021314 -0.037464827 -0.049223743
0003c0 01 9c 1c bd 6b d1 b2 3c 2c 38 dc bc da 67 ab bd
       -0.038234714 0.021828374 -0.026882254 -0.083694175
0003d0 86 63 80 3d a9 35 33 3d 75 a3 91 3c 40 47 8d 3d
       0.062689826 0.043752346 0.017778138 0.068983555
0003e0 cf 73 a8 3d 19 c2 f7 bc cc ef 10 bc 68 6d 59 b9
       0.08225214 -0.03024392 -0.0088462345 -0.0002073549
0003f0 39 ac 55 3c 96 85 3b bd da 52 13 bd c8 56 52 3d
       0.013041549 -0.045781694 -0.035967685 0.051352292

fc1.bias f4 [256]
000000 55 0b 81 bd 13 f3 67 bd 25 9c bc bd 3d 94 de bd
       -0.063009895 -0.056628298 -0.0920947 -0.10868118
000010 b1 35 db bd 38 24 18 bd d4 2f 1c be c0 8a 1a 3c
       -0.107036 -0.037143916 -0.1525262 0.009432495
000020 41 47 97 bd 73 14 b9 bd a2 ab 81 bd 42 72 86 bd
       -0.073866375 -0.090371035 -0.063315645 -0.06564762
000030 64 71 72 bd d5 51 82 bd 45 41 68 bd bd 31 36 bd
       -0.05919017 -0.063632645 -0.05670287 -0.044481028
000040 63 ec 27 bd 1e 2b 78 bd 5a 5c a8 bd 1a 5b bd bc
       -0.04099692 -0.060587995 -0.0822074 -0.02311473
000050 30 b4 03 bd 82 12 42 bd 3a df b8 bd df 30 0f be
       -0.032154262 -0.04738093 -0.09026952 -0.13983487
000060 d0 77 7b bd 00 3a 94 bd 33 af 0e be cc c6 a3 bd
       -0.06139356 -0.07237625 -0.1393402 -0.07996902
000070 c3 a5 81 bd 3f 5f 4c bd b4 ff c9 bd 44 50 fd bd
       -0.06330445 -0.04989552 -0.098632246 -0.12368825
000080 68 25 49 bd 21 23 35 be f3 3c 98 bd 47 19 97 bd
       -0.04910794 -0.17689182 -0.074335 -0.07377868
000090 5c 49 02 be 7c f0 ae bd 10 2b d1 bd 81 56 3e bd
       -0.12723297 -0.085419625 -0.10213292 -0.046469215
0000a0 f8 d1 97 bd 1c b8 ae bd 9e 8b b7 bd ef 35 f2 bd
       -0.07413095 -0.0853121 -0.08962177 -0.11826693
0000b0 80 18 03 be 56 99 0a bd 81 4c 97 bd 21 80 62 bd
       -0.12802315 -0.03383764 -0.07387639 -0.055297974
0000c0 b8 f6 a2 bd 12 39 05 be 03 27 30 bd 56 df 5b bd
       -0.07957214 -0.13010052 -0.043005954 -0.053679787
0000d0 84 52 b0 bd fd e1 da bd 29 2e b1 bd 4c ed aa bd
       -0.086094886 -0.10687635 -0.086513825 -0.08346042
0000e0 2d 73 b1 bd 45 a1 19 be 8b 57 86 bd 08 54 b6 bd
       -0.08664546 -0.15002926 -0.06559666 -0.089027464
0000f0 d6 1e 9a bd 76 07 88 3c 30 15 8c bd 47 a2 f9 bd
       -0.07525413 0.01660512 -0.06839979 -0.12189155
000100 29 06 d8 bd 88 af c8 bd 25 58 00 be 40 10 38 bd
       -0.1054805 -0.09799105 -0.12533624 -0.044937372
000110 8a 51 d2 bd 37 60 8d bd d9 80 92 bb 75 a8 b5 bb
       -0.102694586 -0.06903117 -0.0044709262 -0.0055437633
000120 96 b4 63 bd 2d 7d e7 bd 38 5a ba bd b4 35 ae bd
       -0.055592142 -0.11303172 -0.09099239 -0.08506337
000130 ff 4e fc bd 95 a6 6b bd 5b 8a ce bd 9f e4 b2 bd
       -0.12319755 -0.057531912 -0.10084983 -0.08735012
000140 f4 8d dd bd f7 12 a8 bd 8f 3d cf bc 6f ed 8b bd
       -0.10818091 -0.08206742 -0.025297908 -0.06832396
000150 3a fb fb bd b5 b3 9f bd 41 eb f5 bb 39 8a a3 bd
       -0.12303777 -0.07797948 -0.007504851 -0.07985348
000160 37 8d b7 bc c1 c3 30 be 4b c9 81 bd a1 3d ba bd
       -0.022406204 -0.17262174 -0.06337222 -0.09093786
000170 b5 d3 b3 39 23 7d 97 3c 8b a7 b9 bd 7c 56 cb bc
       0.00034299275 0.018492287 -0.090651594 -0.024821512
000180 55 21 5f bd c2 14 78 bd 7f 69 38 be 2e 70 d3 bd
       -0.054475147 -0.06056667 -0.18008994 -0.10324131
000190 0a 0f 44 bc 0b 6c 7e bc b7 82 12 be 99 3b 11 bd
       -0.011966476 -0.015528689 -0.14307676 -0.035457227
0001a0 7b e3 c1 bd 09 ea 5b bd 0a 2a d7 bd 83 0c 0f bd
       -0.094672166 -0.05368999 -0.10506065 -0.03492404
0001b0 ff 72 fe bd 8c 62 67 bd 5e c9 ce bd ce e9 a1 bd
       -0.124242775 -0.056490466 -0.100970015 -0.07905923
0001c0 a3 19 9a bd 52 c6 d5 bd 6c 46 a4 bd ed b8 08 bd
       -0.07524421 -0.10438217 -0.080212444 -0.033379484
0001d0 1d 1d a8 bd 91 0e 02 be eb 92 e3 bd 83 41 1a bc
       -0.08208678 -0.12700869 -0.11112007 -0.009415033
0001e0 ff 37 99 bd 2a fb e0 bc b3 6c a8 bd a7 e6 d0 bd
       -0.074813835 -0.027463514 -0.08223858 -0.102002434
0001f0 58 13 84 bd cf 1a 35 be 33 fe 9b bd 8f 93 bd bd
       -0.06449002 -0.17686008 -0.07616844 -0.0925666
000200 02 9b cb bd c5 69 d1 3c 84 eb 97 bd d5 4b 65 bd
       -0.09941675 0.02556313 -0.07417968 -0.055980522
000210 d9 10 b0 bd 65 dd 78 bd 74 3a a4 bd c1 7a 8f bd
       -0.085969634 -0.060758013 -0.080189615 -0.07005835
000220 c8 0a b4 bd 85 ab 1a be 09 b0 b1 bc 62 dc 0a be
       -0.08791119 -0.15104492 -0.021690385 -0.13560632
000230 61 b8 da bd 3b 8f a1 bd 9e 3e 4b bd b4 c9 b4 bd
       -0.10679699 -0.07888647 -0.049620263 -0.08827534
000240 49 18 7f bd ee e4 ca bd 44 bc 62 bd e1 6a e7 3b
       -0.06227902 -0.09906946 -0.055355325 0.0070623015
000250 82 a2 be bd 46 b2 e5 bd 1a 51 20 be d0 19 38 bd
       -0.0930834 -0.112156436 -0.15655938 -0.04494649
000260 e4 e1 ad bd 81 cc 0c be 55 2a fa bd 8c 4c e7 bd
       -0.08490351 -0.13749887 -0.122151054 -0.11293897
000270 c7 38 29 be cf 21 98 bd 8c 4c cf bd 4b ca fc bd
       -0.16525565 -0.074283235 -0.10122022 -0.12343272
000280 db d2 e3 bd c1 b1 b2 bd 97 8c 01 be c1 83 fe bc
       -0.11124202 -0.0872531 -0.12651287 -0.031068685
000290 72 01 80 bd 8d 28 a0 bd 55 8a 03 be e1 06 a1 bd
       -0.06250276 -0.078202344 -0.12845738 -0.0786264
0002a0 5b f0 3f bd ec f8 7c bd b9 e6 ff bd a5 c5 de bc
       -0.04686008 -0.061760828 -0.12495179 -0.027193854
0002b0 2e cd b3 bd b7 19 2f bd 0d dd 27 bc 49 af a7 bc
       -0.08779369 -0.042749133 -0.010245574 -0.020469325
0002c0 bf 5c 92 bd 13 c5 f3 bd 2e 52 8d bd b9 d4 fe bb
       -0.07146596 -0.11902823 -0.0690044 -0.0077768234
0002d0 2b e8 28 bd 09 d0 cc bd a6 ed a9 bc e1 54 c5 bd
       -0.041237038 -0.10000617 -0.020743202 -0.0963533
0002e0 f7 d6 d6 bd e5 21 84 bc ab 51 a3 bd 3b 28 a5 bd
       -0.1049022 -0.016129443 -0.07974561 -0.08064314
0002f0 f9 4c 74 bd 84 65 fe bd d9 7e 3b bd 3e 3c ec bd
       -0.05964372 -0.12421706 -0.04577527 -0.11534928
000300 94 4e 9c bd e1 a1 55 bd e6 ee da 3b f7 21 11 be
       -0.07632175 -0.052156333 0.006681311 -0.14173113
000310 a8 ce 8f bd 0b 0e 70 bc 9a 38 fb bd 2a 74 b7 bd
       -0.070218384 -0.014651786 -0.12266655 -0.089577034
000320 98 7a 3d 3d 24 93 03 be 97 20 2e bd d9 25 ce bc
       0.046259493 -0.12849098 -0.04251155 -0.025164532
000330 eb bc 3c bd 93 58 94 bd 3a 3e 7b bd 5a de fa bd
       -0.046078604 -0.07243457 -0.06133864 -0.122494414
000340 50 bd 92 bd 40 43 db bd 24 d5 db bd 62 98 40 bd
       -0.07165015 -0.10706186 -0.10734013 -0.047020324
000350 86 1f 11 be 3e 4c ff bd 0a f9 8e bd 4a 8d 93 bd
       -0.14172181 -0.12465714 -0.06981094 -0.07204683
000360 17 6d 07 be 87 d9 0b be 84 1c 1b be 45 ee dd bd
       -0.13225208 -0.13657199 -0.15147597 -0.10836462
000370 42 fc c7 bd 54 b4 6e bd 57 b6 26 bd cd 12 cf bd
       -0.09764911 -0.058277443 -0.040701237 -0.10111008
000380 29 d8 83 bd c8 d7 25 bd 15 9e 3e be c1 78 45 bd
       -0.06437714 -0.04048899 -0.18614991 -0.048210863
000390 2d 92 9c bd 02 b0 e1 bc 5f 08 5c bd 17 7d 89 bd
       -0.07645068 -0.027549747 -0.05371892 -0.06713312
0003a0 00 a1 48 bd e8 20 37 bc 05 02 ba bd 58 f3 50 bc
       -0.048981667 -0.011177279 -0.090824164 -0.01275333
0003b0 7d df 0e be 54 87 0e bd d8 e5 21 bb f1 7b d1 bd
       -0.13952442 -0.034797028 -0.0024703648 -0.10228718
0003c0 93 5c 95 bd 67 00 1a 3c c0 0a 0e bd d1 fa da bd
       -0.07293048 0.00939951 -0.03467822 -0.10692371
0003d0 05 64 03 be 84 0a d5 bc 2c 17 d5 bd f4 4f a7 bd
       -0.12831123 -0.02600599 -0.1040481 -0.08169547
0003e0 8a cb 9e bd e4 be ea bd 35 df d6 bd 86 e6 a9 bd
       -0.07753666 -0.11462191 -0.10491792 -0.08295922
0003f0 47 42 e2 bd 07 a5 ee bc e9 3f ed bd 23 65 c6 bd
       -0.11047798 -0.029131426 -0.115844555 -0.09687259

fc2.weight f4 [128, 256]
000000 29 9a df bd e0 2d ad 3c 34 46 ab bd 56 0b 99 bd
       -0.109180756 0.021140039 -0.083629996 -0.07472865
000010 39 12 94 3c e4 03 2b bd 7b 08 9b bd 91 24 1e bd
       0.018075095 -0.041751757 -0.07569977 -0.03860909
000020 3b f6 93 3b d7 88 62 3d 48 b6 71 bc 76 2f 93 3c
       0.004515437 0.055306282 -0.014752932 0.017966967
000030 bc af 25 bd 5d 39 c0 3c 7c 17 3e bd a1 79 6e bc
       -0.040450796 0.023464853 -0.046409115 -0.014555366
000040 47 59 7d bd 1a 8f 1b 3d 8f 0c 7b bd c9 02 04 3d
       -0.06185272 0.03797827 -0.061291274 0.03222922
000050 a4 99 32 bd bd b4 c4 bc 73 17 fe bc 04 fd af bc
       -0.043603554 -0.024011964 -0.03101704 -0.021482952
000060 1c 00 be bc 3c c6 ea 3b 7c 11 17 3d a1 2f 5a 3c
       -0.023193412 0.0071647447 0.03688191 0.01331702
000070 ae a5 9e bc ab 3d 2e bd c1 78 0e bd d0 d3 f6 bc
       -0.019366112 -0.04253928 -0.03478313 -0.030130297
000080 87 21 4e bd f0 e1 2d bd f3 5d cf 3c 73 f8 1d bd
       -0.050324943 -0.0424518 0.025313353 -0.038567018
000090 95 62 71 3b 05 22 31 bd c4 07 5e bd 15 85 62 bc
       0.003683244 -0.043245334 -0.054206625 -0.013825675
0000a0 ef cb 15 bb 34 04 38 3c 32 91 3a 3d 65 61 35 3d
       -0.002285715 0.011231471 0.045548625 0.044282336
0000b0 5d 75 8b bd 96 c3 64 bd fc da 7b bc ba 0d 83 bd
       -0.06809495 -0.055850588 -0.015372034 -0.063991025
0000c0 34 76 0a 3d 07 dd 83 3d 55 48 5f bd 3e 2a e9 3c
       0.033804134 0.06438642 -0.05451234 0.028462525
0000d0 f8 fa b3 bd c2 b6 9d bd 54 3b 06 3d 05 63 88 bd
       -0.08788103 -0.07700874 0.032771423 -0.066595115
0000e0 60 da e0 bb 1c ab 7b 3b 1e 47 c6 b8 8f 33 ac bd
       -0.00686197 0.003840155 -9.454622e-05 -0.084082715
0000f0 d2 b3 4f bd ff 77 a9 bd 86 3c 39 bd 6a 1a 42 bd
       -0.0507086 -0.082748406 -0.045223735 -0.04738847
000100 4b 36 e4 3c d4 31 64 bc 63 30 7c 3d dd 10 6c bd
       0.02785792 -0.013927896 0.061569583 -0.05763327
000110 7f a6 83 bc 68 50 7d bd c2 7d 20 bd 43 0b a3 bc
       -0.016070602 -0.06184426 -0.039182432 -0.019902831
000120 17 cb 02 bd 89 6c 87 bd 86 b9 8c 3c a0 8f c2 39
       -0.031931963 -0.06612498 0.017178308 0.00037109572
000130 43 bf 85 3c d6 e6 38 3d b5 f2 83 bd ba ea ed 3b
       0.016326552 0.045142017 -0.06442777 0.0072606476
000140 4f d3 f0 bb b2 48 ab bc d0 89 d1 bd 65 1b 35 bd
       -0.0073494087 -0.020908687 -0.10231364 -0.04421558
000150 2b 3a 82 bd cc 91 ae bc 61 01 0a bd a9 db 07 bd
       -0.06358751 -0.021309756 -0.03369272 -0.03316847
000160 e0 6f b3 bd 8b 14 2d 3d ea 1b 60 bd c9 92 0a bd
       -0.08761573 0.04225592 -0.05471412 -0.03383139
000170 18 55 96 bd 0a ec 42 3b 68 49 8e bd 3e 08 0e bd
       -0.07340449 0.002974274 -0.06947595 -0.03467583
000180 ee 67 99 3c 8e 44 7e 3d f9 3f 16 bd 83 a2 0e bd
       0.018726315 0.062077098 -0.036682103 -0.034822952
000190 c2 9e 8e 3c 2b 02 2a bc 4a 29 ee bc b1 22 3f bd
       0.017409686 -0.010376493 -0.029072423 -0.046663944
0001a0 ea 8f 13 bd bb 89 32 bd 06 58 6d bd e5 66 86 bd
       -0.03602592 -0.04358838 -0.057945274 -0.06562594
0001b0 ec 8f 87 bd 7d a3 14 bd ba 55 6e 3b 7e 5b 45 3c
       -0.06619248 -0.036288727 0.0036367015 0.012045739
0001c0 25 11 9c bc a1 8a 6d 3b 2c 5d 84 3c 88 4b e5 3b
       -0.019051144 0.003624596 0.016157709 0.0069975294
0001d0 9f 4f 47 bd 73 b0 47 3d 53 98 d3 bb 26 cb de 3c
       -0.048659917 0.04875226 -0.0064573674 0.027196478
0001e0 4e 42 b2 bd d2 4c c9 bd 38 e1 94 bd a9 c0 0e 3d
       -0.08704053 -0.098291054 -0.072695196 0.034851704
0001f0 41 85 52 bd e0 b7 8f bd 79 3e 2f bd d3 38 88 bd
       -0.051396612 -0.07017493 -0.042784188 -0.06651463
000200 64 95 59 bc b6 32 6e 3b 98 27 a3 3c 57 37 1e bd
       -0.013280246 0.0036346144 0.01991634 -0.038626995
000210 fe 07 7b bd e2 8a 81 bc 72 68 81 3c 8a e2 80 ba
       -0.06128692 -0.015813295 0.015796874 -0.0009833139
000220 cd 62 22 bd c3 d5 a2 bb ed a5 47 bb 55 3c 4b bd
       -0.039645005 -0.00496933 -0.003046389 -0.049618084
000230 02 16 dc 3c 4a ab c8 bc 6b 29 08 3d 48 13 17 3d
       0.026865963 -0.02449574 0.033242624 0.036883622
000240 64 ef bf 3c 21 c3 63 3b be c4 24 bc db 1b f7 bc
       0.02342958 0.0034753757 -0.010056673 -0.03016465
000250 c1 d0 cf bb e5 a8 89 bd d6 0f d1 bc 70 d7 73 bd
       -0.006342024 -0.06721667 -0.025520246 -0.05953163
000260 7e 25 13 3d e1 98 e1 3b bf a1 8f 3d 28 2b 35 bd
       0.035924427 0.0068846797 0.070132725 -0.04423061
000270 29 b5 4c bd 11 6f bc 3a eb 0e 80 bc 61 97 a9 bc
       -0.049977455 0.0014376362 -0.015632113 -0.020702066
000280 9a d1 08 bd 88 ee 3d bd b3 87 15 bc 8b 42 ab bc
       -0.033403017 -0.04637006 -0.0091265915 -0.020905754
000290 fe 11 79 3d 65 2b a3 bc 4f 8a 87 3c 08 11 55 bc
       0.060808174 -0.019918153 0.016545443 -0.013004549
0002a0 e7 eb 67 bd 58 c5 b4 bb 6a 9d 55 3c ac b7 c5 3c
       -0.05662146 -0.0055166893 0.013038019 0.024135433
0002b0 c8 74 3c bb ee c8 2e bd 57 d0 15 bd 24 be 1c bd
       -0.002875613 -0.04267209 -0.03657564 -0.03826727
0002c0 a3 8d be bb 67 fa cf bd 78 e9 0b 3c 95 23 90 ba
       -0.0058152243 -0.10155182 0.00853955 -0.0010996932
0002d0 8b d0 17 bd 72 b9 c5 bc bf 6b 6f bc 43 13 b9 bc
       -0.037064116 -0.024136279 -0.014613091 -0.022592193
0002e0 42 58 c7 ba 40 e7 c4 bc cc eb 4f 3b fa 03 37 3b
       -0.0015208798 -0.02403605 0.003172624 0.0027925954
0002f0 a7 41 45 bb e2 fb 49 3d 95 e2 db 3c 65 ee 28 bd
       -0.0030098946 0.04931248 0.026841441 -0.041242976
000300 d7 b8 fd bc 99 29 49 3b 7d eb 43 3b 39 ea 30 bd
       -0.030971928 0.003069496 0.0029895 -0.043192122
000310 71 22 1b 3d 84 81 85 3d 92 57 de bd 57 da 8e 3c
       0.037874643 0.06518844 -0.108565465 0.017438097
000320 67 71 5b bd fc fd 05 bd 13 68 80 bd cb 84 41 bd
       -0.053574946 -0.03271292 -0.062698506 -0.047245782
000330 78 99 04 bd cf 7d 34 3c 06 16 ca 39 cb db 2a bc
       -0.03237292 0.011016323 0.0003854485 -0.010428379
000340 c1 5c f2 3c da cf 3c bd 1f ce d1 bb 1c 22 f0 bc
       0.029585244 -0.04609666 -0.0064027454 -0.02931314
000350 e9 bb 66 bd 81 17 87 bb 47 7b de 3c d0 7a 23 bd
       -0.05633155 -0.004122675 0.027158393 -0.039912045
000360 6b 66 89 bd 52 51 5f 3d e3 91 3a bd eb bc 00 bd
       -0.06708988 0.054520912 -0.045549285 -0.031430166
000370 1e 02 01 bd 6c 8c 5e 3d 6c c5 47 bc b5 7d 7f 3c
       -0.03149616 0.054333135 -0.012193065 0.015593936
000380 49 13 cd bc 6b dd 03 bd 22 15 e7 bc b4 1f c7 bd
       -0.02503361 -0.032193583 -0.02820832 -0.09722844
000390 63 6a 4d 3d d6 74 90 bd cc cb 47 bd 3e 1d 32 3d
       0.050150286 -0.07053535 -0.04877834 0.04348492
0003a0 6f 09 6b bd 33 16 6f bd d1 6d 7e bd 54 27 84 bd
       -0.057382043 -0.05837078 -0.062116448 -0.06452814
0003b0 a8 a5 3c 3d 38 f2 6f 3d 58 00 59 bd 81 d1 37 bd
       0.04605642 0.058580607 -0.052978843 -0.044877533
0003c0 36 31 e4 bc f9 08 97 bb 0e ab 07 3b 3d 22 51 bd
       -0.027855497 -0.004609224 0.0020701322 -0.051058043
0003d0 ee e5 9e 3c e1 43 90 bd 3f b6 d6 bc b9 1a 97 bd
       0.019396748 -0.07044197 -0.026209949 -0.07378144
0003e0 00 fe 19 bc a1 86 b3 bd 69 62 5d 3c c6 09 8f bd
       -0.009398937 -0.08765913 0.013512232 -0.06984286
0003f0 de 50 d1 bc 1c 54 0a bd fb fb 18 3d 4d 25 99 bc
       -0.025551256 -0.03377162 0.037349682 -0.018694544

fc2.bias f4 [128]
000000 ac 84 87 3c 49 88 91 bd 43 eb 8e 3c 1e 37 97 3b
       0.016542755 -0.071060725 0.017446166 0.004614725
000010 44 b6 5c bc dd ea 5b 3c 79 63 db 3c a6 39 21 bc
       -0.01347119 0.013422695 0.02678083 -0.009840405
000020 a4 42 da 3c 35 da 35 3d 12 0e 3a 3d 57 57 38 bd
       0.026643105 0.04439755 0.045423575 -0.04500517
000030 bc 19 84 bc 07 3e 60 bd a1 c4 09 bd ff fa 71 3a
       -0.016125552 -0.054746654 -0.033634786 0.0009230822
000040 be 12 76 3d c6 a8 0a 3d 5d 27 47 bd c1 fe 17 3d
       0.060076468 0.03385236 -0.048621524 0.037108187
000050 61 d9 f5 39 10 7b e1 bd 08 5b 93 bd eb 8c 14 bd
       0.00046892 -0.110098004 -0.07195097 -0.036267202
000060 38 0c 86 bd 43 97 67 bc 1e 8c 55 bd 4e ad 96 bd
       -0.06545299 -0.014135185 -0.05213558 -0.07357274
000070 b9 70 59 bd 1f de 8e bd 68 18 fa 3a 96 4f c8 3c
       -0.053086016 -0.0697596 0.001908076 0.024452012
000080 3b 84 a3 bd 30 3e 0f 3d a6 dd b3 bc c3 a2 80 bd
       -0.07984205 0.034971416 -0.021956276 -0.06281044
000090 d0 1b 7b bc 32 0e 1f bd 7e 73 e8 bc da df 66 bd
       -0.015326455 -0.038831897 -0.028375383 -0.056365825
0000a0 84 c6 10 bd 5f 67 fb bc 9d 09 38 3b ee c2 5d bc
       -0.03534557 -0.03068894 0.0028081902 -0.013535244
0000b0 18 05 23 bc 09 63 af ba 40 60 53 bd 61 4b 76 3d
       -0.009949945 -0.0013380955 -0.051605463 0.06013048
0000c0 78 19 af bc d8 ca 90 bc b0 93 15 3c c3 29 58 3d
       -0.02137445 -0.017674848 0.00912945 0.052774202
0000d0 b7 fb 71 3c 0a 1f 1b 3d 3f 0f 21 bc a9 fd a5 bd
       0.014769486 0.037871398 -0.009830295 -0.081050225
0000e0 42 20 2b 3d 4b 1f 4a bc d2 25 c4 bd 60 40 13 bd
       0.04177881 -0.012336562 -0.09577526 -0.035950065
0000f0 0b 81 44 bd d1 f4 27 bd c5 13 b4 3c 64 59 57 bb
       -0.047974627 -0.04100496 0.021982083 -0.0032859677
000100 ba a8 aa 39 a7 b2 84 bd b3 3b 77 bd 5d 07 00 3d
       0.00032550638 -0.06479388 -0.060359668 0.031257022
000110 de 6d 63 3d 99 f7 e0 3b f6 6b 13 3d 66 51 e0 3c
       0.0555247 0.0068654534 0.03599163 0.027382564
000120 b9 a0 54 bd 78 ec 9a bd 8f 04 15 3d 15 c9 c5 3c
       -0.05191109 -0.07564634 0.0363813 0.024143735
000130 61 84 e0 bb 0d f7 43 bd 4e 38 19 3d 7a 53 9c 3d
       -0.0068517183 -0.047843028 0.037407212 0.076331094
000140 60 49 80 3d 8f 5d 85 bd 62 86 58 bd f7 fd 6b 3d
       0.06263995 -0.065119855 -0.052862532 0.057615247
000150 72 75 58 3c 5a 3e 01 3d 43 0d c2 3b 61 c8 0d bd
       0.013211595 0.031553604 0.005921991 -0.034614924
000160 2b cb 03 3c c5 a9 0b bd cb 6d 6d bd 11 67 96 bc
       0.0080440445 -0.03409745 -0.057966035 -0.018359693
000170 38 6a 2a 3d 20 d1 bf bb fc d6 61 bd 1d 64 f4 bc
       0.041605204 -0.005853787 -0.055136666 -0.029832894
000180 73 fa a4 bd 26 c2 b0 3c 40 b4 77 bc cf 3f f1 bc
       -0.08055582 0.021576952 -0.015118659 -0.029449372
000190 ec 87 8a bc 6a 15 0b 3d 19 5e d1 bc 02 21 30 bd
       -0.016910516 0.03395597 -0.025557565 -0.04300023
0001a0 ce 1c 25 3d b0 f5 78 bd dc 2a f1 bc c3 86 d1 bc
       0.040310673 -0.06078118 -0.029439382 -0.025576955
0001b0 07 08 1a bd 65 4b 23 bc f8 87 1c bd a4 d4 86 bb
       -0.03760531 -0.009966706 -0.038215607 -0.004114704
0001c0 ad f4 55 3c 1e ce 75 bd 00 e7 32 bd 38 0e f7 3c
       0.0130588235 -0.06001102 -0.04367733 0.030158147
0001d0 02 41 16 3c ca 60 28 bd b7 24 c9 3c 47 87 32 3d
       0.0091707725 -0.04110793 0.02455364 0.04358604
0001e0 66 8c bd 3c b9 de a3 bd 1c f1 8c bd d9 d3 30 bc
       0.023138236 -0.08001465 -0.068819255 -0.010792696
0001f0 69 6c c7 3b f7 76 2f 3d 99 4c 63 bd 01 c9 e4 bc
       0.0060859215 0.042838063 -0.05549297 -0.027927877

fc3.weight f4 [64, 128]
000000 13 1a 85 bd 50 d4 9b bb fb 65 4e 3d da 51 0a bd
       -0.06499114 -0.004755534 0.050390225 -0.033769466
000010 f4 7e 09 bd cc 60 8e bc 02 97 8e 3b bf e3 a7 bd
       -0.033568338 -0.01738014 0.0043514976 -0.08197736
000020 7a 2f 35 3d de 80 6a bd 7f e3 af bd c6 96 5d bd
       0.04423473 -0.057251804 -0.08588313 -0.054098867
000030 42 fe 62 bd e5 44 fc bb fd d5 8e ba 31 99 8c bc
       -0.05541826 -0.0076986426 -0.0010897514 -0.017162891
000040 d6 9a 26 bd 1d 0c 9a 3b dd 48 1b bd ba 08 0d 3d
       -0.040675007 0.004701151 -0.037911285 0.03443215
000050 63 be 9e bd 5e d7 73 3d 82 26 bc bc 41 5f dd bd
       -0.07751157 0.059531562 -0.02296758 -0.10809184
000060 0f 9c d6 bd 94 fb da ba 36 67 11 bd ee db 63 bd
       -0.104789846 -0.0016707056 -0.03549882 -0.055629663
000070 8f 43 b0 3d 0f 7a a2 3d 46 08 04 bd ca ef 81 bd
       0.08606636 0.07933437 -0.032234453 -0.06344564
000080 72 2b 2e bc 62 08 d5 bd 7f 13 e4 3c d5 48 f8 bd
       -0.010630475 -0.104019895 0.027841328 -0.121232666
000090 41 ec 95 bd ba 20 32 bd ad 49 b4 bc 81 9b 3d bd
       -0.073204525 -0.04348824 -0.022007788 -0.04629088
0000a0 87 af 05 3d 84 3b 22 3c 50 d3 1b bd ff 5e e2 bc
       0.0326381 0.009901885 -0.03804332 -0.027633188
0000b0 4f 1c 16 ba fc 75 0b bd cc 36 5d 3d 38 49 02 bb
       -0.0005726264 -0.034048066 0.054007336 -0.0019880068
0000c0 09 3a 87 3c 16 99 86 bd 56 85 99 bd d4 41 1d bd
       0.016507166 -0.065721676 -0.07496135 -0.038392857
0000d0 d8 69 80 3d 68 75 a3 bd 6f 94 9a 3c 2a 13 24 bd
       0.06270188 -0.07981378 0.018869607 -0.04005734
0000e0 dd 44 5b bd f2 4f 86 bd 72 1e ad bd 50 d1 10 bd
       -0.05353247 -0.06558217 -0.084530726 -0.035355866
0000f0 48 c2 7f bd 9d 38 e8 bd 77 53 d3 bb 95 57 8a bc
       -0.06244114 -0.11338923 -0.006449159 -0.016887465
000100 a5 81 3b 3d 6c 96 89 bc f6 cd 6f bd 25 e8 a8 3c
       0.045777936 -0.01679536 -0.05854603 0.020618508
000110 7e f1 d6 bd 99 c8 98 3d 15 17 f0 bd 0d ec d0 bc
       -0.1049528 0.07460136 -0.117231525 -0.025503183
000120 06 a4 fb 3c 0c 2c 9a 3d fe cc 92 3c 0b c8 41 bc
       0.03071786 0.075279325 0.017920014 -0.011827479
000130 77 d7 f8 3c 00 a9 81 bd a9 d4 88 bd b3 6b 89 bd
       0.03037618 -0.06331062 -0.06681187 -0.06709995
000140 2c 6e 35 bd 4f ee 97 ba 50 0d 56 3c df fd 3a bd
       -0.04429452 -0.0011591407 0.013064697 -0.045652267
000150 01 82 d1 bc 72 4e 90 bd 3e 83 f3 3c 37 77 7b bd
       -0.025574686 -0.07046212 0.029725667 -0.06139299
000160 ff 06 72 bd 7e 74 58 bc ce 4c bd 3d 36 b2 bb bc
       -0.059088703 -0.013211368 0.09243165 -0.022912126
000170 99 a3 98 bd c6 cc 7c bc f3 68 bc bd 0c b9 d5 bd
       -0.07453079 -0.015429681 -0.09199705 -0.104356855
000180 35 7c a3 3d 1a 32 47 bd ac e3 58 3d 6c bd 45 3c
       0.07982675 -0.048631765 0.0529515 0.0120690875
000190 a8 f6 50 3c c7 fe 0e 3d f0 8b 28 bc 9d 94 9e bd
       0.01275412 0.034910943 -0.01028727 -0.077431895
0001a0 a2 50 99 bd 63 bc f6 b9 63 a8 d2 3c d7 9e bc 3d
       -0.074860826 -0.00047061135 0.025715059 0.09209984
0001b0 e0 76 d0 bc b3 4e a0 3c fe 2b 5f 3c 06 e8 99 bd
       -0.025447309 0.019568777 0.013621328 -0.07514958
0001c0 46 e2 69 bb 2d b4 07 3d ee 05 ed bb 69 ba cd 3c
       -0.0035687848 0.033130813 -0.007233373 0.025113301
0001d0 51 0f 06 bd b7 2a 8b 3d fe 17 a6 bd 54 f3 6c 3c
       -0.03272945 0.067952566 -0.08110045 0.014462311
0001e0 3c c8 df 3b 16 43 46 3d d4 da 14 3c 30 00 82 bd
       0.0068292897 0.048403822 0.009085376 -0.06347692
0001f0 65 48 aa bd 1a 87 c8 bd 9c 4d ad bb 11 3c 3a 3d
       -0.083145894 -0.097913936 -0.005288793 0.04546744
000200 bd 66 20 3d 07 ef 86 3d 5b 20 65 3d 61 14 9c 3d
       0.03916048 0.065885596 0.05593906 0.076210745
000210 a3 ad 5e bb 42 fa 2e bd bb 5f ab bc 92 b2 96 3d
       -0.0033978007 -0.042719133 -0.020919671 0.07358278
000220 15 89 36 3d bb a8 e2 ba 12 5d 98 bd 89 63 8d 3d
       0.044564325 -0.0017292717 -0.07439627 0.069037504
000230 5c fd c4 bc ac 9d 3c bd 94 ce 4d 3d 22 65 83 3c
       -0.024046592 -0.046048805 0.050245836 0.016039435
000240 b8 7c 88 3d 75 fb 25 3d 06 43 b0 bd ec 8e 93 3d
       0.06664413 0.04052301 -0.08606534 0.072049946
000250 9e b8 a8 bc 87 10 ba bc eb 48 5f 3c e8 ed 75 bd
       -0.020595845 -0.022712959 0.013628225 -0.06004134
000260 5e 96 08 bd 73 b2 4d 3d 5d 7f b4 bd 63 4f 2f bc
       -0.033346526 0.05021901 -0.08813355 -0.01070008
000270 b5 c4 1a bd 34 69 ef 3c fc 60 f3 bc 6a f9 d3 3b
       -0.03778525 0.02922497 -0.029709332 0.0064689415
000280 7a c5 77 bc 7c 21 df bd a5 68 50 bd 13 cf 6b 3d
       -0.015122766 -0.108950585 -0.050881047 0.05757053
000290 95 68 6f 3d c9 86 0e 3c f0 cd ae 3d fa bf 47 3d
       0.058449347 0.0086991275 0.08535373 0.048767067
0002a0 62 2f 8b bd d0 aa 4a bd c0 f5 1d 3d 89 c4 c4 3d
       -0.06796147 -0.049479306 0.038564444 0.096077986
0002b0 47 f8 52 bd 9e 72 95 3c ab 1c df 3c 9c 9b 01 bd
       -0.051506307 0.01824313 0.02723535 -0.03164254
0002c0 13 d8 5e bc f6 eb a7 3d 25 0f 09 3c c8 77 eb bc
       -0.013601321 0.08199303 0.008365427 -0.02874364
0002d0 c7 5a f3 bb 36 95 45 3d 10 57 f9 bc b9 2d 8c bc
       -0.007426593 0.048238 -0.030437022 -0.017111646
0002e0 93 e6 47 bd 02 2a 0c 3d 07 ff 07 bb 38 53 a1 3d
       -0.048803877 0.03421975 -0.0020751373 0.07877201
0002f0 76 cc 81 3d a5 c2 bc 3c ff 4d 63 3d 98 25 8f 3d
       0.06337826 0.023042032 0.055494305 0.06989592
000300 ee 40 3a 3d 8c d1 84 3c 4f 9b 9d bc c3 81 0b be
       0.045472078 0.016213201 -0.019239096 -0.13623719
000310 3d ae 93 bd 17 d7 80 3d ad 9b 84 3d 8c 77 7d 3d
       -0.07210968 0.06291025 0.06475005 0.061881587
000320 de b0 86 3d 7c fa c3 3c a7 88 f0 bb 22 16 95 bd
       0.065767035 0.023923151 -0.007340509 -0.07279612
000330 8c e4 a9 bd dc 34 8d 3d 48 17 43 3d 14 7b 98 bd
       -0.08295545 0.06894848 0.047629625 -0.0744535
000340 e2 28 b5 bd 07 81 86 bc 4a 43 f6 3c 09 d1 e3 3c
       -0.088456884 -0.016418947 0.030061383 0.027809637
000350 f8 f0 98 3d f4 b4 72 3c 4a 0e 1b bd a5 e4 62 3d
       0.07467836 0.01481365 -0.037855424 0.055393834
000360 75 cb b7 3d 51 b9 8e 3d 1a 36 99 bc d2 d3 c6 bc
       0.08974353 0.0696894 -0.018702555 -0.024270926
000370 71 3f 88 bd bc 2e 98 bd 23 80 56 3d d9 c8 9f 3d
       -0.066527255 -0.07430789 0.052368294 0.078019805
000380 bc 29 3e bd af a4 92 3d 92 7b 72 3d 35 6b 94 3d
       -0.04642652 0.07160317 0.059199877 0.072470106
000390 cb 84 8d 3d 01 19 a8 bd 42 84 a6 bd f5 65 1d bd
       0.06910094 -0.08207894 -0.08130695 -0.038427312
0003a0 36 29 98 bd eb be 9b 3d a6 45 1f bd 17 2b d7 3c
       -0.07429735 0.07604774 -0.03888478 0.026265664
0003b0 c9 e6 5a bc 96 2b 9c 3d d9 1d 3d 3c 61 a5 d4 3c
       -0.0133606875 0.07625501 0.011542761 0.025957765
0003c0 f0 8a ab bd ec 73 82 bd fc f2 c3 bd e2 90 d9 3d
       -0.083761096 -0.063697666 -0.0956783 0.10623337
0003d0 de 17 bc 3d 53 d3 6c bd ba 04 c8 ba 36 43 a6 3d
       0.0918424 -0.057818722 -0.0015260198 0.08118288
0003e0 f5 1f 63 bd 67 1f 90 bd 31 d4 64 bd 1f 19 4d bc
       -0.0554504 -0.070372395 -0.055866424 -0.012518196
0003f0 ec df 13 3d ac 22 ae bc e1 59 d2 bc d9 44 a4 3b
       0.03610222 -0.021256767 -0.025677623 0.00501309

fc3.bias f4 [64]
000000 b5 af e3 3c fc 4a 60 3d 09 5f cc bd 80 01 51 bd
       0.027793745 0.05475901 -0.09979064 -0.05102682
000010 3b 11 9c bd cd 2f 13 bd e1 8f 0a 3d cd fe e3 bc
       -0.07620474 -0.03593426 0.03382862 -0.02783146
000020 c4 1a e0 3c bc 24 33 3c 16 f0 e1 bd 92 98 34 bc
       0.027356513 0.010934051 -0.11032121 -0.011022704
000030 28 3a 58 3d 88 10 5a 3d 56 96 88 bc 16 8a 42 3d
       0.052789837 0.05323842 -0.016673248 0.04749497
000040 9a 1b be bd 67 a3 f2 3d de fd b1 3d 09 c1 b6 bc
       -0.09282608 0.11847573 0.086909994 -0.022308843
000050 09 ab fc bd b4 5d b3 bd bc 67 79 bc 7d fb 19 bc
       -0.1233731 -0.08758107 -0.015222486 -0.009398338
000060 5b 8c a2 bd 55 53 bf 3c a1 22 f1 bb cf b2 ca bd
       -0.07936927 0.023355165 -0.0073588644 -0.09897386
000070 e8 12 68 3d 74 37 a6 bd 6a 66 10 bc f9 02 8b 3d
       0.056658655 -0.081160456 -0.00881348 0.06787676
000080 a0 76 ad 3d fe 54 54 3d 3a 92 a6 3d 86 a7 cb 3c
       0.084698915 0.051838867 0.08133359 0.024860155
000090 74 d5 65 bd 34 bf 91 bc 65 c8 13 bc e6 7c cd bd
       -0.056111768 -0.017791368 -0.009019946 -0.10033588
0000a0 72 a8 6f 3c e0 45 fa bc 2c 4b cb bd 19 59 a9 3c
       0.014627563 -0.030550897 -0.09926447 0.020672368
0000b0 2b 63 ae bb 2c a3 11 bd 1e d6 e0 bd 4d 6c f2 3c
       -0.0053218803 -0.035556003 -0.109783396 0.029592657
0000c0 92 3e 06 3d b1 cd 01 be 4c b9 e4 bb 52 26 5e bd
       0.032774515 -0.12676121 -0.006980097 -0.054235764
0000d0 a2 9f 6a bd 3b 3f d7 bd c2 f6 33 3d 41 d8 d0 bd
       -0.057281144 -0.10510107 0.0439365 -0.10197497
0000e0 30 4c cb 3d 34 59 63 bd c1 dc dc 3b 1e 6a fe 3b
       0.09926641 -0.055504993 0.006740183 0.007764115
0000f0 de 1f 85 bd 45 93 8f bd 8e 08 98 bd b9 d7 29 bd
       -0.06500219 -0.07010511 -0.07423507 -0.041465495

fc4.weight f4 [1, 64]
000000 be 2c eb bb 4e f4 80 3c 99 eb 81 bc 84 92 26 bc
       -0.0071769645 0.015741494 -0.015859412 -0.010166768
000010 93 e9 cf bd d4 9a aa bd 28 a3 b7 bc b4 09 84 bc
       -0.101519726 -0.08330312 -0.022416666 -0.016117908
000020 aa f5 d8 bc f6 d9 96 bb d9 f2 bd 3b 7d 4b 92 bd
       -0.02648433 -0.0046036197 0.005796772 -0.071433045
000030 91 c6 6c 3a 6f 3f 81 3c f3 75 d0 bb 80 b9 d4 bd
       0.0009032274 0.015777318 -0.006361717 -0.10386944
000040 1c 4c fb bc fe 50 6d bd a5 fa ed bc 4e 15 9d 3d
       -0.03067594 -0.05793857 -0.02905018 0.07670079
000050 72 09 da bb a4 6f 0a 3a e3 fd c6 bc 67 fd d5 3c
       -0.006653958 0.0005280918 -0.024290984 0.026121808
000060 92 6a 26 3c 9f 00 bb bb 53 0e 00 bc a9 e6 fb bc
       0.010157244 -0.005706861 -0.007815915 -0.030749636
000070 1c ff 24 3d 2f c3 96 3b 00 fb 00 bc 40 8c 06 3d
       0.040282354 0.0046009044 -0.007872343 0.032848597
000080 61 81 97 bd d7 eb 0a bd 09 a2 49 bd 32 ca 0e 3d
       -0.07397724 -0.03391632 -0.049226794 0.034860797
000090 dd 28 27 bc a3 c6 67 3d ea ea 62 bb 8c 5e 91 3d
       -0.010202614 0.05658592 -0.0034624883 0.070981115
0000a0 07 1f 10 bc 55 22 7c 3d 44 33 71 3c 16 9e 26 bd
       -0.00879646 0.06155618 0.014721695 -0.040678106
0000b0 df d2 31 3d 5f ca 09 3d ef d5 bd 3a 54 00 a5 3d
       0.043413993 0.03364026 0.0014483313 0.08056703
0000c0 d9 ec 57 bc cb a1 e2 ba 17 c1 78 3d 9a 3c 16 3d
       -0.0131790275 -0.001729065 0.06073102 0.036678888
0000d0 a2 87 bb 3a 6f 61 c2 3c 83 4c 02 bd 0c cd 63 bd
       0.001430739 0.0237281 -0.03181125 -0.05561547
0000e0 a4 b6 b1 bd 05 36 8d 3c ab 1d d5 3c 4d 02 c4 3d
       -0.08677414 0.017237673 0.026015123 0.09570751
0000f0 4c cc 7e 3d 87 d3 9f 3d 79 4e fe bc 36 d1 92 3d
       0.06220655 0.078040175 -0.031043278 0.0716881
