Models/NBA/Total_20_avg_past_games_model.pth (torch, 723215 bytes, 7 tensors)

fc1.weight f4 [256, 542]
0	0xbd2d7a0d	-0.042352725
1	0xbdb71812	-0.08940138
2	0xbd591109	-0.05299476
3	0x3e1edc3d	0.15513702
4	0xbd72411e	-0.05914413
5	0x3d8bbc33	0.068230055
6	0xbcd39175	-0.025826195
7	0x3c416207	0.011803157
8	0xbcb56333	-0.022142028
9	0xbd4bc87c	-0.049751744
10	0xbd1570fd	-0.036484707
11	0xbd48728a	-0.048937358
12	0xbd497438	-0.0491831
13	0x3db11994	0.08647457
14	0x3d524a2f	0.05134028
15	0xbd5b34d0	-0.053517163
16	0x3bdb7eba	0.0066984566
17	0xbcb2ab47	-0.021810187
18	0xbd811189	-0.06302173
19	0x3b1c04f8	0.0023806673
20	0xbd6c9df1	-0.057767812
21	0xbd0bae84	-0.034101978
22	0xbd03d5eb	-0.03218643
23	0x3c95c623	0.018282956
24	0xbd2d85db	-0.042363983
25	0x3a5e9711	0.00084911386
26	0x3d9cafe3	0.07650735
27	0x3c89b6a6	0.016810726
28	0xbcaf4e28	-0.021399572
29	0xbcdf390f	-0.027248887
30	0xbb1aa8c7	-0.0023599134
31	0x3cd84106	0.026398193
32	0xbcc6aca2	-0.02425224
33	0xbb706bb8	-0.00366853
34	0x3c926b37	0.01787339
35	0xbc007677	-0.007840744
36	0xbd81f448	-0.06345421
37	0xbd23e39f	-0.040012
38	0x3d06950d	0.03285699
39	0x3c9407ca	0.01807012
40	0xbc39c91f	-0.011339455
41	0xbad67965	-0.0016363083
42	0x3cf7ba0c	0.030240081
43	0xbbcc9aca	-0.006244038
44	0x3d1cc673	0.038275193
45	0x3cd24b75	0.025670746
46	0xbc457180	-0.012050986
47	0xbcc3caff	-0.023900507
48	0xbc81c47b	-0.01584076
49	0xbc8ea44a	-0.017412324
50	0xbbe94199	-0.0071184156
51	0xb9c1bd9b	-0.00036953096
52	0x3be301cf	0.006927706
53	0xbcdab000	-0.026695251
54	0xbd97b99c	-0.07408449
55	0xbd218940	-0.039437532
56	0xbd0b2f96	-0.03398093
57	0xbc0a37f8	-0.008436196
58	0xbccc6903	-0.024952417
59	0xbd41f3f2	-0.047351785
60	0x3b823510	0.0039736107
61	0xbd1e9871	-0.0387196
62	0xbd028a73	-0.031870317
63	0xbd2dbd72	-0.042416997
64	0xbd898204	-0.06714252
65	0xbd23b684	-0.039968982
66	0x3caaa525	0.0208307
67	0x3db7b07b	0.08969208
68	0xbc3e6d8c	-0.011622798
69	0xbd1fa7a1	-0.038978223
70	0xbcc8674e	-0.024463322
71	0x3d1a5899	0.03768215
72	0xbcbb67ee	-0.022876706
73	0xbcef9721	-0.029246869
74	0xbd5d545b	-0.054035526
75	0xbbf152ab	-0.007364591
76	0x3c3f9c9a	0.011695052
77	0xbc854e30	-0.016272634
78	0xbd947987	-0.07249742
79	0x3ce8ce3e	0.028418656
80	0xbcde816b	-0.02716132
81	0xbd60b0fc	-0.054856285
82	0x3d8f0d44	0.06984952
83	0x3d9299ca	0.07158239
84	0x3bbd1b94	0.00577111
85	0xbd03e63c	-0.03220199
86	0x3d3f883e	0.04676079
87	0x3e04e096	0.12976298
88	0x3d120ee9	0.03565875
89	0x3cfc4745	0.030795703
90	0x3c204517	0.009782097
91	0x3cebfeec	0.02880808
92	0x3cdcd12f	0.026955215
93	0x3c14ab1e	0.009074001
94	0xbc253b3d	-0.010084924
95	0x3c2bd303	0.010487321
96	0x3d1be84a	0.038063325
97	0xbc4741e1	-0.012161703
98	0x3d3656d6	0.044516407
99	0x3c6653d1	0.014058069
100	0x3cbde900	0.023182392
101	0x3ce21003	0.027595526
102	0xbd0ef674	-0.034903005
103	0xbbc09349	-0.0058769328
104	0xbc8f653e	-0.01750433
105	0x3d06e1ba	0.032930113
106	0xbc9f0f80	-0.01941657
107	0x3bb66ab2	0.0055669183
108	0x3d3a8dbd	0.04554533
109	0x3d1d5a2a	0.038416065
110	0x3c9692d6	0.018380564
111	0xbd4cefa7	-0.050033238
112	0xbc4537c4	-0.012037221
113	0xbcd2e6f0	-0.025744885
114	0x3ca00f26	0.019538473
115	0xbcb725d0	-0.022356898
116	0xbcebf05f	-0.028801141
117	0x3b14a070	0.0022678636
118	0xbca457b0	-0.020061344
119	0x3ca89f1c	0.020583682
120	0xbc9307a9	-0.017947989
121	0x3c808109	0.015686529
122	0xbb483cb0	-0.003055375
123	0x3d95be79	0.073117204
124	0x3cae1452	0.021249924
125	0x3d1bdd28	0.038052708
126	0xbcd1936a	-0.025582988
127	0x3d8a662a	0.067577675
128	0x3d771297	0.060320463
129	0x3d4ba546	0.049718164
130	0xbd8a4e7f	-0.06753253
131	0xbcc11c3f	-0.02357304
132	0xbc042b51	-0.008066968
133	0xba9a7ae1	-0.0011785888
134	0xbac06724	-0.0014679176
135	0x3c15b7ed	0.00913809
136	0x3c9813cd	0.01856413
137	0x3bb521d9	0.0055277166
138	0x3d1eaa36	0.038736545
139	0x3cfacdf3	0.030615782
140	0x3d14653d	0.03622936
141	0x3d1d7f13	0.038451266
142	0x3c43a6df	0.011941641
143	0xbc821602	-0.015879635
144	0xbc5bd926	-0.013418471
145	0x3b472b24	0.0030390704
146	0x3c260245	0.010132377
147	0x3cfb0806	0.030643474
148	0x3ae90efa	0.0017780953
149	0x3c733df7	0.014846317
150	0xbd0651aa	-0.032792725
151	0x3d024efb	0.031813603
152	0x3d0722cc	0.03299217
153	0xbc44e483	-0.012017372
154	0xbd5787c8	-0.052619725
155	0xbcafdb0b	-0.021466753
156	0x3d1a17a4	0.0376202
157	0x3ca952e7	0.020669414
158	0xbd4c2a36	-0.049844943
159	0xbbee4c44	-0.007272275
160	0x3e10f84a	0.14157215
161	0xbd2c1462	-0.042011626
162	0xbdc7b8db	-0.09752055
163	0xbd16abf8	-0.036785096
164	0x3d2759e2	0.040857203
165	0x3dc5885e	0.096451506
166	0x3dbacfb4	0.091216475
167	0x3d8611ed	0.06546388
168	0x3b7376ff	0.0037149785
169	0x3d72d9e4	0.059289828
170	0x3da2ce40	0.07949495
171	0x3d4c65a4	0.04990162
172	0xbd5924b9	-0.053013537
173	0xbcc9628d	-0.024583125
174	0xbc1533bb	-0.009106572
175	0x3cf4d82c	0.029888235
176	0x3cab0082	0.020874266
177	0xbb0af968	-0.0021205787
178	0x3d3d1053	0.046158146
179	0x3dd56545	0.10419706
180	0x3d89c21d	0.06726477
181	0xbd9fa083	-0.07794287
182	0xbd143e1e	-0.036192052
183	0x38d68918	0.00010229851
184	0x3cbf0388	0.023317114
185	0x3cffae97	0.03121118
186	0x3dd1dbc3	0.10246994
187	0x3d225f42	0.039641626
188	0x3ddc88b2	0.1076826
189	0x3da8561f	0.08219551
190	0x3dd7adca	0.105311945
191	0x3d6c727c	0.05772637
192	0x3d306123	0.043061387
193	0x3d178ff1	0.037002508
194	0xbcd2e403	-0.02574349
195	0xbcbc30f8	-0.022972569
196	0xbce26c05	-0.027639398
197	0xbd733afb	-0.05938242
198	0xbc5c8edd	-0.013461796
199	0xbd6702c2	-0.056399114
200	0xbd8751e9	-0.0660742
201	0x3db8dd99	0.090266414
202	0xbc383548	-0.011243172
203	0xbd0fe2e3	-0.035128485
204	0x3d849667	0.064739995
205	0x3d7e0601	0.062017445
206	0xbd5a3092	-0.053268977
207	0xbc0c9e84	-0.008582715
208	0xbd85c7fe	-0.06532286
209	0x3d0b999d	0.034082044
210	0x3c1663de	0.009179084
211	0x3b1c3833	0.0023837208
212	0xbcbbdcca	-0.022932429
213	0xbc8a0bc2	-0.01685131
214	0xbd7e34f9	-0.062062237
215	0xbd0b365f	-0.0339874
216	0xbb50bc0d	-0.0031850368
217	0xbd5c78d4	-0.05382617
218	0xbc959a00	-0.01826191
219	0xbcf7ae45	-0.030234465
220	0x3c68e032	0.014213609
221	0xbd054edf	-0.03254592
222	0xbc3d812f	-0.011566444
223	0xbbc24912	-0.005929121
224	0xbcf9e13a	-0.030502904
225	0x3d6aa093	0.05728204
226	0xba4fab0e	-0.00079219125
227	0xbd415394	-0.047198847
228	0x3d07a540	0.03311658
229	0xbc0213f7	-0.00793933
230	0xbd192449	-0.03738812
231	0xbd1fa8ba	-0.03897927
232	0x3c982e0a	0.01857664
233	0xbc77e593	-0.015130418
234	0x3c8310e4	0.015999265
235	0xbd81c314	-0.06336036
236	0xbd054d8c	-0.032544658
237	0xbd8e4e7d	-0.06948564
238	0xbcd08738	-0.025455102
239	0x3ca733a8	0.020410374
240	0xbd9a424e	-0.07532178
241	0x3d03b833	0.032158088
242	0xbcccb60f	-0.024989156
243	0xbd2eb4d9	-0.04265294
244	0x3c0e8cbc	0.008700546
245	0xbac079fd	-0.0014684793
246	0xbd28211a	-0.041047193
247	0x3cfa9cd1	0.030592354
248	0x3d3e4238	0.04644987
249	0x3dcd5c2e	0.100273475
250	0x3d684ce7	0.056713965
251	0x3cb5393f	0.022122024
252	0x3ce890d4	0.028389372
253	0x3cbd9ad8	0.023145124
254	0x3bc1f823	0.005919473
255	0x3d4a7c98	0.049435228

fc1.bias f4 [256]
0	0xbdc892e7	-0.097936444
1	0xbdb5da73	-0.088795565
2	0xbd097aa5	-0.03356423
3	0xbc6057a4	-0.01369277
4	0x3c82b86d	0.015957082
5	0xbdcd3acd	-0.10020981
6	0xbc1f3068	-0.009716131
7	0xbd88c392	-0.06677927
8	0xbd6120fd	-0.0549631
9	0x3c760cc3	0.015017691
10	0xbd725797	-0.059165563
11	0xbd67d75e	-0.056601875
12	0xbd877842	-0.06614734
13	0xbd1c3960	-0.038140655
14	0xbd8dcfdb	-0.06924411
15	0xbd88b38b	-0.0667487
16	0xbd0116fd	-0.031516064
17	0xbcfe8dbc	-0.031073444
18	0xbcc60ec2	-0.024176959
19	0xbd958457	-0.073006324
20	0xbda7aa16	-0.08186738
21	0xbd46e2f8	-0.048556298
22	0x3b841cf2	0.004031771
23	0xbd3847c2	-0.04499031
24	0xbdf95f15	-0.121763386
25	0xbd64cb3f	-0.055857893
26	0xbce325bc	-0.027727954
27	0xbd5ab097	-0.053391065
28	0xbd94b5cd	-0.07261238
29	0xbd740644	-0.059576288
30	0xbda078b2	-0.07835521
31	0xbdddf48c	-0.10837659
32	0xbd5209fc	-0.051279053
33	0xbdd8a01d	-0.10577414
34	0x3cb6c53d	0.022310847
35	0xbd989e85	-0.0745211
36	0xbd91c46b	-0.07117542
37	0xbd505a8b	-0.0508676
38	0xbd8de795	-0.069289364
39	0xbcb6069d	-0.02221995
40	0x3d48e484	0.049046054
41	0xbe0b6f00	-0.13616562
42	0xbd925ae4	-0.07146242
43	0xbc79ee88	-0.015254624
44	0xbbc5e5b0	-0.006039344
45	0xbddcde66	-0.10784607
46	0xbd8cb3a0	-0.06870198
47	0x3c7372f4	0.01485895
48	0xbddb5f60	-0.10711551
49	0xbd82d6f2	-0.06388654
50	0xbd09db18	-0.03365621
51	0xbd8e4f3c	-0.069487065
52	0xb90d0e31	-0.00013452095
53	0xbb902c5a	-0.0043998184
54	0xbd932b06	-0.071859404
55	0xbd8b8c24	-0.06813839
56	0xbe075948	-0.13217652
57	0xbd451d5a	-0.048123695
58	0x3c932ba3	0.017965144
59	0x3b08f00c	0.0020895032
60	0xbd62f1ea	-0.05540649
61	0xbc69dc38	-0.014273696
62	0x3c9ae72b	0.018909058
63	0xbdd00151	-0.10156501
64	0xbd1cb5e9	-0.03825942
65	0xbce7f756	-0.028316181
66	0xbcceb295	-0.025231639
67	0xbd9f745b	-0.07785865
68	0xbcfdca5b	-0.03098028
69	0xbdd14b5f	-0.10219454
70	0xbd761be3	-0.06008519
71	0xbd835a8c	-0.06413755
72	0xbdb42323	-0.08795764
73	0x3c9e74bb	0.01934277
74	0xbc903967	-0.017605497
75	0xbd856641	-0.06513644
76	0xbd176b11	-0.03696734
77	0xbd9b8cf6	-0.075952455
78	0x3c828eba	0.015937198
79	0xbd517df3	-0.051145505
80	0xbda2ce0e	-0.07949458
81	0xbb6ed7d0	-0.0036444552
82	0xbdabaf6e	-0.0838307
83	0xbd04594b	-0.03231172
84	0xbd29bfaf	-0.04144257
85	0xbcbc56a7	-0.022990538
86	0xbce58fc8	-0.028022662
87	0xbd402414	-0.046909407
88	0xbd244f13	-0.040114474
89	0x3c0dee22	0.008662732
90	0xbdcdb9e6	-0.10045223
91	0xbd8bb5e9	-0.06821806
92	0xbb1549cb	-0.002277958
93	0xb82d7cf8	-4.13628e-05
94	0xbdad5030	-0.0846256
95	0xbd139972	-0.03603501
96	0xbda57a9e	-0.08080028
97	0xbd7b7755	-0.0613931
98	0xba8ba71a	-0.0010654659
99	0xbbbb357c	-0.005713163
100	0x3cd4a991	0.025959762
101	0xbd53d595	-0.05171736
102	0x3c279998	0.010229491
103	0xbda9beee	-0.0828837
104	0xbca2d078	-0.019874796
105	0xbd330385	-0.04370453
106	0xbcf6ee9a	-0.030143071
107	0xbd341dcf	-0.04397374
108	0xbd8bbf28	-0.068235695
109	0xbd8af681	-0.06785298
110	0xbd37e426	-0.044895314
111	0xbdc2fc7f	-0.09520816
112	0xbcafa70e	-0.021441963
113	0xbd30cf15	-0.04316624
114	0xbdaf0906	-0.08546643
115	0xbdb25ab7	-0.08708709
116	0xbd640b6b	-0.05567495
117	0xbd807ea0	-0.06274152
118	0xbd8d6d84	-0.06905654
119	0xbca2ec35	-0.019888023
120	0x3c9bc46e	0.019014563
121	0xbd9f6fea	-0.07785018
122	0xbdbcf485	-0.09226326
123	0xbcddfab0	-0.027097076
124	0xbd2ec837	-0.04267141
125	0xbd40bf78	-0.0470576
126	0xbcf0d917	-0.029400392
127	0xbde1fb1d	-0.11034224
128	0xbd8a6583	-0.06757643
129	0xbcbab70d	-0.022792364
130	0xbd873bd4	-0.06603208
131	0xbd2c4468	-0.042057425
132	0xbd390148	-0.045167238
133	0xbdb4a64c	-0.08820781
134	0xbdb79bfd	-0.08965299
135	0xbc82ed65	-0.01598234
136	0xbc89dcfc	-0.016829006
137	0xbd4bad1f	-0.049725648
138	0xbdac5db7	-0.08416312
139	0xbd55b3dd	-0.052173484
140	0xbdb69dff	-0.08916854
141	0xbd9f5ca5	-0.077813424
142	0x3ae9bcba	0.0017832734
143	0xbd4e5282	-0.050371654
144	0xbd635c6b	-0.05550806
145	0xbc684699	-0.014176988
146	0xbd15fda5	-0.036618847
147	0x3b9aca1a	0.0047237994
148	0xbda88367	-0.08228188
149	0xbd3ab841	-0.045585874
150	0x3d02b244	0.03190829
151	0xbdfe2351	-0.1240908
152	0xbd475725	-0.048667092
153	0xbd99c692	-0.075085774
154	0xbbf3f273	-0.0074446737
155	0xbd8a7479	-0.06760497
156	0x3c104c11	0.008807198
157	0xbd8a8d1c	-0.06765196
158	0xbc807964	-0.015682884
159	0xbd6d7206	-0.05797007
160	0xbdad4d77	-0.08462041
161	0xbde783fd	-0.11304472
162	0xbd49282f	-0.049110588
163	0xbca573f0	-0.020196885
164	0xbd3e7210	-0.046495497
165	0xbdb47801	-0.088119514
166	0xbdae45c3	-0.085094
167	0xbd787561	-0.060658816
168	0xbb1095dd	-0.0022061982
169	0xbdc795df	-0.097453825
170	0xbddd966e	-0.10819708
171	0xbd919253	-0.07107987
172	0xbcc6c927	-0.024265839
173	0xbd48eeec	-0.04905598
174	0xbe12a96a	-0.14322439
175	0x3c8753bf	0.016519425
176	0xbd4a6bc1	-0.04941917
177	0xbd09593b	-0.033532362
178	0xbcd4b6f1	-0.02596614
179	0xbd22bb44	-0.03972937
180	0xbd5cb6bd	-0.05388521
181	0xbda723fb	-0.081611596
182	0xbd3ecff9	-0.046585057
183	0xbd81b88c	-0.06334028
184	0xbcee1a01	-0.029065134
185	0xbd91b302	-0.07114221
186	0xbdbb223e	-0.091373906
187	0xbd732952	-0.059365578
188	0xbd240a6f	-0.040049013
189	0xbcc6c42f	-0.02426347
190	0xbdac9f02	-0.08428766
191	0xbd1443b3	-0.036197376
192	0xbde6b788	-0.112654746
193	0xbd8b237e	-0.06793879
194	0xbcd95398	-0.026529118
195	0xbd8dcf70	-0.06924331
196	0xbd454115	-0.04815777
197	0xbaf8a436	-0.0018969837
198	0xb9fdd0b6	-0.00048411422
199	0x3cbe56ca	0.023234744
200	0xbd91244f	-0.070870034
201	0xbdcdf17b	-0.10055824
202	0xbdff6ea5	-0.12472276
203	0xbbbb10a4	-0.005708771
204	0x3bfcdd68	0.0077168234
205	0x3cae167a	0.021250952
206	0xbd0357d5	-0.032066185
207	0xbbd780ea	-0.006576647
208	0xbd05b6fe	-0.032645218
209	0xbd6f3163	-0.05839671
210	0xbda29aca	-0.0793968
211	0xbdb54ab6	-0.088521406
212	0xbd593f28	-0.053038746
213	0xbd258a9d	-0.040415395
214	0xbd58d9d9	-0.05294213
215	0xbcb6ebb7	-0.022329194
216	0xbd55f592	-0.052236147
217	0xbd81f7ca	-0.0634609
218	0xbb9443fb	-0.0045247055
219	0xbc12bac8	-0.008955665
220	0xbd57eaf6	-0.05271431
221	0xbd3f4695	-0.04669817
222	0x3ae47add	0.0017431636
223	0xbcba42f3	-0.022737002
224	0xbd8c0b5f	-0.06838106
225	0xbda981a3	-0.08276679
226	0xbd45c0cd	-0.048279572
227	0x3c49a783	0.012308004
228	0xbd03556c	-0.032063887
229	0xbd372dd8	-0.044721454
230	0xbd6b9227	-0.05751243
231	0xbd2f6dda	-0.042829372
232	0x3d3f5ed6	0.046721302
233	0x3c6f9693	0.014623302
234	0xbd4b6eeb	-0.049666326
235	0xbd2d5a6e	-0.04232257
236	0xbd52c604	-0.051458374
237	0xbc851681	-0.016246082
238	0xbd5b125a	-0.0534843
239	0xbda347f4	-0.07972708
240	0x3a757da2	0.0009364729
241	0xbd880714	-0.06641975
242	0xbd74dfc3	-0.05978371
243	0xbd9a8330	-0.07544553
244	0xbdd6ef38	-0.10494846
245	0xbdd69412	-0.10477461
246	0xbd2f3c4f	-0.042782124
247	0x3d1fb93a	0.038995005
248	0xbd685284	-0.056719318
249	0xbda16fb5	-0.078826346
250	0xbd21d10c	-0.039506003
251	0xbd05c2e2	-0.032656558
252	0xbdd2d1bb	-0.10293909
253	0xbc881c1b	-0.016614964
254	0xbd3c0a85	-0.04590847
255	0xbdbc5d07	-0.09197431

fc2.weight f4 [128, 256]
0	0xbd076be8	-0.03306189
1	0x3d904c0c	0.07045755
2	0xbc44ea80	-0.0120188
3	0xbdf02986	-0.1172667
4	0xbd00df91	-0.03146321
5	0xbd5dcc14	-0.054149702
6	0xbd4f3385	-0.050586242
7	0xbda10284	-0.07861808
8	0x3bb08ce3	0.0053878888
9	0xbd94ef41	-0.072721966
10	0xbd805e3a	-0.06267972
11	0xbb82e4ba	-0.0039945515
12	0x3cc6f3f3	0.024286246
13	0xbb17f137	-0.0023184547
14	0x3c43574f	0.011922671
15	0x3cbd444b	0.023103854
16	0xbcd44b74	-0.025914885
17	0x3d331293	0.043718886
18	0xbdcfba7b	-0.1014299
19	0xbdc636cd	-0.09678421
20	0xbd4ca86e	-0.049965315
21	0x3dbd3e7e	0.09240435
22	0x3ca080e2	0.019592706
23	0x3c0acbdc	0.008471455
24	0xbd546346	-0.051852487
25	0x3d4f6c5c	0.05064045
26	0xbd33531f	-0.043780442
27	0xbcb64cd2	-0.022253428
28	0xbd3b01ae	-0.0456559
29	0xbbc54b25	-0.006020921
30	0x3d121f2e	0.035674267
31	0x3b451feb	0.003007884
32	0x3c205b00	0.009787321
33	0x3d621260	0.055193305
34	0x3cf1fd64	0.029539771
35	0xbdc058c6	-0.09391932
36	0x3cbbe1c6	0.022934806
37	0x3c74930f	0.01492764
38	0xbd3d6ed3	-0.04624827
39	0xbb75049d	-0.0037386783
40	0xbc4d2e32	-0.012523221
41	0xbd8efaa0	-0.06981397
42	0x3d10fa2c	0.035394832
43	0x3caa0ca8	0.020757988
44	0x3d2406b6	0.040045463
45	0x3d274706	0.040839218
46	0xbc566024	-0.013084445
47	0x3ac6a4d0	0.0015155319
48	0x3ce46b22	0.027883116
49	0x3bb09b61	0.0053896164
50	0xbd393558	-0.04521689
51	0xbc1721dd	-0.009224382
52	0xbd61be31	-0.05511302
53	0xbd4034a3	-0.0469252
54	0xbd9f1c42	-0.077690616
55	0x3d9ca2bd	0.07648227
56	0x3d72c322	0.059268124
57	0xbd06f580	-0.03294897
58	0x3d52340a	0.05131916
59	0x3a383430	0.00070268195
60	0xbd9e1d11	-0.07720388
61	0xbd963bcb	-0.07335623
62	0xbca0d993	-0.019634997
63	0xbdff8e46	-0.124783084
64	0xbd04345d	-0.0322765
65	0x3d342e47	0.043989446
66	0x3d20c224	0.039247647
67	0xbda5bbac	-0.08092436
68	0xbd9df785	-0.07713226
69	0xbd46a5d5	-0.048497993
70	0xbca79394	-0.020456113
71	0xbd84400b	-0.06457528
72	0x3d1840b0	0.037171066
73	0xbcfd3d40	-0.030912995
74	0xbd42247f	-0.047398087
75	0x3d259674	0.040426686
76	0xbcf13852	-0.0294458
77	0xbc91fdc0	-0.017821193
78	0xbe072d1a	-0.13200799
79	0x3d4865d5	0.04892524
80	0xbd3faa2f	-0.04679316
81	0xbd01a12c	-0.031647846
82	0x3d73ef6e	0.05955451
83	0xbdc8ff2c	-0.09814295
84	0x3c9dc8d7	0.019260807
85	0xbc25fa94	-0.010130543
86	0xbd4ad89e	-0.04952299
87	0x3d3d7e6a	0.046263136
88	0x3b8f460a	0.004372363
89	0xbdb63bf2	-0.088981524
90	0xbb9adfc2	-0.004726381
91	0xbd8fc6ae	-0.07020317
92	0x3ce659f1	0.02811906
93	0x3cfbc704	0.030734546
94	0xbd444905	-0.0479212
95	0xbd62aefb	-0.055342656
96	0xbcab1225	-0.020882675
97	0x3d926e2c	0.0714992
98	0xbdb2be8b	-0.087277494
99	0x3d3164a3	0.043308865
100	0xbd97928b	-0.07400998
101	0xbdac7ee5	-0.08422641
102	0x3d3b9be7	0.045802977
103	0xbd243dd7	-0.040098038
104	0xbdb4a4a8	-0.08820468
105	0xbb68daeb	-0.0035530876
106	0x3ce81f75	0.028335312
107	0x3d9635c2	0.07334472
108	0x3c7da72c	0.015481751
109	0x3cdc3636	0.026881319
110	0xbc54565e	-0.012960045
111	0x3b9d5256	0.004801075
112	0x3d23752c	0.039906666
113	0xbd709f62	-0.05874575
114	0x3d3d03d1	0.046146218
115	0xbde0ffcf	-0.109862916
116	0x3d5a4489	0.053288016
117	0xbd6b7b90	-0.057490885
118	0xbd38e264	-0.045137778
119	0xbda1991e	-0.07890533
120	0xbdb14679	-0.0865602
121	0xbdb73e3c	-0.08947417
122	0xbda1226e	-0.07867895
123	0x3d876b27	0.066122346
124	0xbc885abc	-0.016644828
125	0xbd138d09	-0.036023173
126	0x3c9478ce	0.01812401
127	0xbd723abf	-0.059138056
128	0xb9a3d0de	-0.000312454
129	0xbd215c9c	-0.03939496
130	0x3d46fb3a	0.048579432
131	0x3d8b63d6	0.068061516
132	0x3c1230b2	0.008922743
133	0xbcc41f36	-0.023940664
134	0xbc084253	-0.008316594
135	0x3d3eda2b	0.04659478
136	0x3d22ca84	0.039743915
137	0xbd689152	-0.056779213
138	0x3d16db08	0.03682998
139	0xbd16bbd6	-0.036800228
140	0xbd97c5e8	-0.074107945
141	0xbcdb733b	-0.026788345
142	0x3c556472	0.013024436
143	0xbd67ba4a	-0.056574143
144	0xba3b859d	-0.0007153394
145	0xbc62d183	-0.013843897
146	0xbd038d47	-0.032117154
147	0x3d07c563	0.033147227
148	0x3b9215f6	0.0044581844
149	0x3ba2b4b7	0.0049653905
150	0x3d1dd5a1	0.03853381
151	0xbd4511f0	-0.04811281
152	0xbd7c4e7a	-0.06159828
153	0xbdda2812	-0.10652174
154	0xbd3598c1	-0.04433513
155	0x3caff329	0.021478252
156	0x3cd60750	0.026126534
157	0x3de2e2ce	0.11078416
158	0x3ca991de	0.020699438
159	0x3d59f204	0.05320932
160	0xbd8cc7a8	-0.06874019
161	0xbd59cefb	-0.053175908
162	0x3d850afe	0.06496237
163	0x3ca052fd	0.019570822
164	0xbd57ef5f	-0.052718516
165	0xbd254555	-0.040349323
166	0xbd174bf8	-0.036937684
167	0x3d12a7ec	0.035804674
168	0xbd2b82e6	-0.04187288
169	0xbd77fff4	-0.06054683
170	0xbd79675a	-0.06088958
171	0xbd3a5b9f	-0.045497533
172	0xbd0b4191	-0.033998076
173	0xbc7d094c	-0.015444111
174	0x3b4a6a20	0.003088601
175	0x3d6bb183	0.057542335
176	0xbdb31b25	-0.08745412
177	0xbbb673b7	-0.0055679935
178	0x3bccfb46	0.00625554
179	0xbd8bdf7b	-0.06829735
180	0xbd1d2e2f	-0.038374122
181	0x3c48dcf1	0.012259708
182	0xbc951f83	-0.018203503
183	0xbcd4fb45	-0.02599872
184	0x3cb881f7	0.02252291
185	0xbb9a2354	-0.0047039185
186	0x3d89bb3a	0.06725164
187	0xbd2e55a4	-0.042562142
188	0xbd9187df	-0.071059935
189	0xbdba685d	-0.09101937
190	0x3bd2214a	0.00641266
191	0x3dc868cd	0.09785614
192	0xbd8c0d3e	-0.06838463
193	0xbdec7c41	-0.11547137
194	0x3c5968ed	0.013269645
195	0xbe00f61b	-0.12593882
196	0x3b54f463	0.0032494299
197	0x3cdbec98	0.026846215
198	0xbbd7ffed	-0.006591788
199	0xbb624dd3	-0.003453125
200	0xbc0cdacb	-0.008597086
201	0xbd45c08e	-0.048279338
202	0xbdf2369d	-0.11826823
203	0x3d9481ee	0.072513446
204	0xbdc1ab45	-0.09456495
205	0x3d63dad8	0.055628628
206	0x3d76ceed	0.060255934
207	0x3c43a4e8	0.011941172
208	0xbd8268a2	-0.063676134
209	0xbd64ff4a	-0.055907525
210	0xbdc6620a	-0.09686668
211	0xbdd1f2d2	-0.102513924
212	0xbd66f110	-0.05638224
213	0xbc8017c0	-0.015636325
214	0xbd1acf1d	-0.037795175
215	0xbcb05adf	-0.021527706
216	0x3d8ad864	0.067795545
217	0x3d22be5b	0.03973232
218	0xbd70721c	-0.058702573
219	0x3d8fee72	0.07027902
220	0xbb2df7bb	-0.0026545364
221	0x3bacf733	0.005278492
222	0xbd41d345	-0.047320623
223	0xbbf57bbd	-0.0074915574
224	0x3baecaf4	0.0053342525
225	0xbc44b3c1	-0.012005747
226	0x3d1b3de1	0.03790081
227	0xbdb6dfd8	-0.089294136
228	0xbda5ec87	-0.08101755
229	0xbd8d9e2f	-0.06914937
230	0xbdfd9e2b	-0.12383684
231	0xbd6479b5	-0.05578013
232	0x3c896555	0.016771952
233	0x3c56db73	0.013113844
234	0xbd873b06	-0.06603055
235	0x3d88db87	0.066824965
236	0xbd75e398	-0.060031503
237	0x3ddd1e04	0.10796741
238	0x3b13aa28	0.002253184
239	0x3c97d624	0.018534727
240	0xbd49fac8	-0.04931143
241	0x3dd513ea	0.10404189
242	0xbc5e73b4	-0.01357739
243	0x3b7b118a	0.0038310015
244	0x3d765be4	0.060146227
245	0xbd98da15	-0.07463471
246	0xbc9e0470	-0.019289225
247	0xbc60d394	-0.013722319
248	0xbdbeca12	-0.093158856
249	0x3d15cef4	0.03657432
250	0xbd00ae23	-0.03141607
251	0xbd95c645	-0.073132075
252	0x3c86ac9e	0.016439732
253	0x3c8e7630	0.01739034
254	0xbddcbc1a	-0.10778065
255	0xbd9d8b57	-0.076925926

fc2.bias f4 [128]
0	0xbc4c8c70	-0.012484655
1	0xbb2dc3ce	-0.0026514414
2	0x3cb24049	0.02175917
3	0x3cc36bce	0.023855116
4	0xbd6cd21a	-0.057817556
5	0x3b16018c	0.0022889106
6	0xbcc83472	-0.02443907
7	0x3d228737	0.039679732
8	0x3d0434ec	0.032277033
9	0xbcd5bf4f	-0.0260922
10	0x3c578509	0.013154277
11	0x3b145772	0.002263513
12	0x3d926c8c	0.0714961
13	0x3c4bb98d	0.0124343755
14	0x3d01d42f	0.031696495
15	0xbd66c1fa	-0.056337334
16	0xbcf16966	-0.029469203
17	0xbc882683	-0.016619926
18	0x3d1af5f0	0.0378322
19	0x3c8505ec	0.016238175
20	0xbc878310	-0.016541988
21	0x3d2db9d6	0.042413555
22	0x3d57550f	0.052571353
23	0xbd19ca38	-0.037546366
24	0x3d65ae70	0.05607456
25	0x3d6c2d0c	0.057660148
26	0x3c892a1f	0.016743718
27	0x3d058bf6	0.03260418
28	0xbd9ecfaf	-0.07754456
29	0x3ccdea54	0.02513615
30	0xbc4fe107	-0.012687928
31	0xbc8814ba	-0.016611446
32	0x3b221174	0.002472964
33	0xbc32444d	-0.010880542
34	0xbd9127df	-0.07087683
35	0xbb845846	-0.0040388433
36	0xbce11944	-0.027477868
37	0x3d16e703	0.036841404
38	0xbcb6894f	-0.02228227
39	0x3d5fd09b	0.0546423
40	0xbd223395	-0.039599974
41	0x3c733a53	0.014845449
42	0x3be33a62	0.00693445
43	0x3c8a745a	0.016901184
44	0x3aac96ff	0.0013167559
45	0x3d5f8dea	0.0545787
46	0xbd26971f	-0.040671464
47	0xbc617409	-0.013760575
48	0xbd486fc9	-0.04893473
49	0xbd87dc1a	-0.06633778
50	0xbd56bc7f	-0.052425858
51	0x3d215ecf	0.039397057
52	0xbc8d0c9a	-0.017217923
53	0x3d198c3e	0.03748726
54	0xbd8ea15e	-0.06964372
55	0xbd9b8a1a	-0.075947
56	0xbd81fd0e	-0.063470945
57	0xbd7083b6	-0.05871936
58	0xbcc467ad	-0.023975218
59	0x3d13522e	0.035967045
60	0x3d3f2678	0.046667546
61	0xbd43f6cb	-0.047842782
62	0x3d0f9b15	0.035060007
63	0x3ccfd21e	0.025368746
64	0xbd637f8b	-0.055541556
65	0x3c59c8f1	0.013292537
66	0x3d132c8f	0.035931166
67	0xbdb1a215	-0.08673493
68	0xbd7d90c9	-0.061905656
69	0x3d4a1176	0.04933306
70	0x3c6fa37b	0.014626379
71	0xbd5e200d	-0.054229785
72	0x3d44b07b	0.048019867
73	0x3d145c4f	0.036220845
74	0x3c990515	0.018679181
75	0xbd8d3da1	-0.068965204
76	0xbd26b712	-0.040701933
77	0xbd21b496	-0.03947886
78	0x3b9d234e	0.0047954684
79	0xbd3ed874	-0.046593145
80	0xbcfd344c	-0.030908726
81	0x3d02aec8	0.031904966
82	0x3c8d20be	0.017227527
83	0xbd8b6c04	-0.06807712
84	0x3cf7dfa3	0.030258005
85	0xbd392063	-0.045196902
86	0x3b420895	0.0029607166
87	0xbcc1845c	-0.023622684
88	0x3d5565fd	0.052099217
89	0x3d5fa2eb	0.05459873
90	0xbc30a817	-0.010782263
91	0xbd4a466b	-0.049383562
92	0x3d473a2a	0.048639454
93	0xbc6f5a56	-0.01460894
94	0x3cfc36e7	0.030787898
95	0xbd9fa822	-0.07795741
96	0x3d2d16ac	0.04225795
97	0xbd234b7a	-0.039866902
98	0x3b69f122	0.0035696705
99	0xbd51ecb2	-0.05125112
100	0xbccb4345	-0.02481235
101	0xbc1f2ae7	-0.009714819
102	0xbd78766c	-0.06065981
103	0xbcb9d5d5	-0.02268497
104	0x3d684854	0.056709602
105	0xbd8d9037	-0.069122724
106	0x3bb9e761	0.0056733345
107	0xbca5bcc0	-0.020231605
108	0xbc2b8ba2	-0.010470303
109	0x3d25504c	0.04035978
110	0xbd8055a7	-0.06266337
111	0x3cb46f1f	0.022025643
112	0xbd5785de	-0.0526179
113	0xbd5ff6fc	-0.054678902
114	0xbda2bbbf	-0.07945966
115	0x3d1532e3	0.036425482
116	0x3d777cd8	0.060421795
117	0xbd1999d9	-0.037500236
118	0xbc1b0e24	-0.009463821
119	0xbd211cb4	-0.039334014
120	0x3d453336	0.04814454
121	0x3bdf3db3	0.006812775
122	0x3c97a52d	0.01851138
123	0x3ce1b158	0.027550384
124	0xbc2371c3	-0.009975853
125	0xbca82340	-0.020524621
126	0xbd38d84c	-0.04512815
127	0xbd7efbf7	-0.06225201

fc3.weight f4 [64, 128]
0	0x3cfce49c	0.030870728
1	0xbdae2351	-0.0850283
2	0xbcbfa918	-0.02339606
3	0xbce2eaf1	-0.02769992
4	0x3d9df5d6	0.07712905
5	0x3cb50f97	0.02210216
6	0xbcbe897a	-0.023258913
7	0x3bdadc6d	0.006679109
8	0xbc022ed6	-0.007945737
9	0xbdb62236	-0.08893244
10	0x3d8193ce	0.0632702
11	0x3cc720e6	0.02430768
12	0xbddf2ec0	-0.10897589
13	0xbdc0e725	-0.09419087
14	0xbd2f74fe	-0.04283618
15	0xbcf98d81	-0.030462982
16	0x3d8f3b5d	0.069937445
17	0x3da13e20	0.078731775
18	0x3d2ebeeb	0.042662542
19	0x3d90bb74	0.07067004
20	0xbd4b0c28	-0.04957214
21	0x3d14bfac	0.036315605
22	0xbd7878b9	-0.060662005
23	0xbd362ea3	-0.04447807
24	0xbdd17eb6	-0.10229246
25	0xbcc68084	-0.024231203
26	0x3d1fc5eb	0.03900711
27	0x3d55448a	0.052067317
28	0x3da14953	0.078753136
29	0xbc01b2dc	-0.007916179
30	0xbd10353f	-0.03520703
31	0x3cb2dfe7	0.02183528
32	0xbd3fd444	-0.04683329
33	0x3d5948dc	0.053048
34	0x3d7f661a	0.06235323
35	0xbca795d5	-0.020457188
36	0xbd3707ca	-0.044685163
37	0xbd0afdd4	-0.033933476
38	0x3b7b3209	0.0038329384
39	0x3cdf2b36	0.027242284
40	0xbce935fa	-0.02846812
41	0x3d828802	0.06373598
42	0xbdaea595	-0.08527676
43	0x3d7e0c7e	0.062023632
44	0x3d156ce5	0.036480803
45	0xbdba711b	-0.091036044
46	0x3d8fc8a7	0.07020693
47	0x3d4b4394	0.049624994
48	0xbdbc0e12	-0.09182371
49	0x3b6ce92a	0.0036149719
50	0xbd128f59	-0.03578124
51	0x3ab063a7	0.0013457433
52	0x3d84b141	0.06479121
53	0x3d349a17	0.044092264
54	0xbd212034	-0.039337352
55	0x3d37b592	0.044850893
56	0x3d3689d8	0.04456505
57	0x3dd5d434	0.10440865
58	0xbd0a4b2e	-0.033763103
59	0xbd9cf52d	-0.07663951
60	0x3c167407	0.0091829365
61	0x3cd30180	0.025757551
62	0x3b04b0f4	0.0020247074
63	0x3b82e0cb	0.0039940826
64	0x3b99d53d	0.0046946094
65	0x3cf016e5	0.029307792
66	0x3d36680f	0.04453283
67	0xbbf8ac80	-0.007588923
68	0x3cb82136	0.022476774
69	0xbcf66090	-0.030075341
70	0x3d3d07b1	0.046149913
71	0x3c98e44b	0.018663546
72	0x3d8ec0bb	0.06970354
73	0xbcba0ed0	-0.022712141
74	0x3dbdab5b	0.09261199
75	0x3d94bffe	0.07263182
76	0xbdaf1670	-0.085492015
77	0xbd85edcf	-0.06539499
78	0x3cfcfd63	0.030882543
79	0x3d02e14d	0.031953145
80	0x3d3f3cdd	0.046688903
81	0xbda2521a	-0.07925816
82	0xbd660cb1	-0.056164447
83	0x3dbd6f46	0.09249739
84	0xbd1a14dd	-0.037617553
85	0x3c709486	0.014683848
86	0x3d8866e4	0.0666025
87	0xbd22ccf4	-0.03974624
88	0xbdaa9dc8	-0.08330876
89	0xbd55110a	-0.052018203
90	0xbd98f941	-0.074694164
91	0x3d8f2008	0.06988531
92	0xbd461611	-0.048360888
93	0xbbc7f2f6	-0.0061019612
94	0x3d14aacf	0.03629571
95	0xbc62431a	-0.013809944
96	0x3c3d93c2	0.011570873
97	0xbd75c316	-0.0600005
98	0xbcf8df83	-0.030380016
99	0xbcc0dcd6	-0.023542803
100	0xba26822f	-0.00063517963
101	0xbd7a4c83	-0.061108124
102	0x3cc06b4e	0.023488667
103	0x3cf51b14	0.029920138
104	0x3d4df414	0.0502816
105	0xbccbd99b	-0.024884036
106	0xbc895b10	-0.016767055
107	0x3d60cc43	0.0548823
108	0xbd2d835e	-0.04236161
109	0xbd191c7c	-0.03738068
110	0x3cc2bfc1	0.023773076
111	0xbd638157	-0.05554327
112	0xbd632fef	-0.055465635
113	0xbd80fff6	-0.06298821
114	0x3d9a2a70	0.075276256
115	0xbd2ee3b6	-0.04269763
116	0xbd929310	-0.07156956
117	0xbd5cd9ba	-0.053918578
118	0xbbe47f70	-0.0069731995
119	0xbd7407cc	-0.05957775
120	0x3c19ae1d	0.009379891
121	0xbddd5670	-0.10807502
122	0x3d603242	0.05473543
123	0x3cf88500	0.030336857
124	0x3d95234f	0.07282125
125	0xbd5541b2	-0.052064605
126	0x3ba0239f	0.004887059
127	0xbd7eb305	-0.062182445
128	0xbda3e5d8	-0.080028236
129	0x3d07c8c9	0.033150468
130	0xbe1fc7b5	-0.15603526
131	0xbd16bce1	-0.036801223
132	0xbe01be43	-0.12670235
133	0xbd6a6f44	-0.057235017
134	0x3d00cf96	0.03144797
135	0xbd4fcf79	-0.05073497
136	0x3d8c10d3	0.068391465
137	0x3d7e6363	0.0621065
138	0x3d198146	0.0374768
139	0xbd602c7d	-0.054729927
140	0x3d0890de	0.03334128
141	0x3ba52568	0.0050398596
142	0xbd316123	-0.043305527
143	0xbd8e499f	-0.06947636
144	0x3d931786	0.07182221
145	0x3cb2368f	0.021754531
146	0xbc014b2f	-0.00789146
147	0xbd3e2d40	-0.046429873
148	0xbd671302	-0.05641461
149	0x3c591f6a	0.013252119
150	0xbcf42e5b	-0.02980726
151	0xbc3a1dea	-0.011359671
152	0x3d76b503	0.06023122
153	0xbd94d826	-0.072677895
154	0x3d67d5c0	0.056600332
155	0x3d4dc91c	0.05024062
156	0x3d91f487	0.07126718
157	0xbdf0c0c4	-0.11755517
158	0x3adb497b	0.0016730273
159	0xbc544603	-0.012956145
160	0x3d1e365b	0.038626056
161	0x3c2197bb	0.0098628355
162	0xbd6f4c00	-0.05842209
163	0x3c7a20eb	0.015266637
164	0x3d9caccf	0.07650148
165	0xbdcb80d9	-0.09936685
166	0xbd8ccc49	-0.06874902
167	0xbd73af03	-0.059493076
168	0x3d667edf	0.056273337
169	0xbd443076	-0.04789778
170	0xbd99c31d	-0.07507918
171	0x3d3f3d09	0.046689067
172	0xbd41345a	-0.047169067
173	0xbd708453	-0.058719944
174	0x3dac0911	0.08400167
175	0x3d1320b1	0.03591985
176	0x3d0916ca	0.033469
177	0x3d7d1b5c	0.06179367
178	0x3cfe6963	0.031056112
179	0x3c04171b	0.008062149
180	0xbdfb4572	-0.12269105
181	0xbd75c2df	-0.060000297
182	0x3beafc98	0.007171225
183	0xbcc5b47b	-0.024133911
184	0x3d110b67	0.035411265
185	0x3b12570d	0.0022329718
186	0xbd0c8d39	-0.034314368
187	0x3cae6788	0.021289602
188	0x3ac5643e	0.0015059782
189	0xbc0334d0	-0.008008197
190	0x3c21300d	0.009838116
191	0xbd87d7fe	-0.06632994
192	0xbdc01987	-0.09379869
193	0xbd4ec901	-0.05048466
194	0xbd55918a	-0.05214075
195	0x3ca7fb44	0.020505555
196	0xbcca9f1b	-0.02473407
197	0xbdb76cf3	-0.08956327
198	0xbac75dbc	-0.001521043
199	0xbd32db98	-0.043666452
200	0xbda856e9	-0.08219702
201	0xbd698718	-0.0570136
202	0x3d8c2d04	0.068445235
203	0x3b24ab2f	0.0025126447
204	0xbd023c29	-0.031795654
205	0xbb98329d	-0.0046447054
206	0x3bb6e702	0.0055817375
207	0xbda32cdd	-0.07967541
208	0xbc5c8f47	-0.013461894
209	0xbd51b7a8	-0.05120054
210	0xbcae4cff	-0.021276949
211	0xbc47a31d	-0.012184885
212	0xbcb45075	-0.022011021
213	0x3cc31ae5	0.023816535
214	0xbc27fe13	-0.010253447
215	0x3d70e8a7	0.058815625
216	0xbcf3e677	-0.02977298
217	0x3d7faf0b	0.062422793
218	0xbbcaa7b3	-0.006184542
219	0xbd65e382	-0.05612517
220	0xbd8d6451	-0.069038995
221	0xbe05b825	-0.13058527
222	0xbd23622e	-0.039888553
223	0x3bcc1f22	0.0062292973
224	0x3b3572af	0.0027686765
225	0xbd973ba2	-0.07384421
226	0xbd74ef26	-0.059798382
227	0x3d258ae7	0.04041567
228	0xbe0bbca7	-0.13646184
229	0xbccf07d4	-0.025272287
230	0x3dd815a9	0.10551006
231	0x3d9c8de3	0.0764425
232	0xbd42147b	-0.047382813
233	0xbd75c8be	-0.060005896
234	0x3c4e827a	0.01260435
235	0x3cdc97d2	0.026927862
236	0xbd199949	-0.0374997
237	0x3d326cea	0.0435609
238	0x3b6aab91	0.0035807828
239	0xbd898a93	-0.06715884
240	0xbdc2876c	-0.09498486
241	0x3d60c420	0.05487454
242	0x3d87e75a	0.06635924
243	0xbb611eaa	-0.0034350553
244	0x3dbbaff7	0.09164422
245	0xbdd3df2b	-0.103453
246	0x3dafd340	0.085852146
247	0x3d82162b	0.063518845
248	0x3c8be134	0.017075159
249	0xbdebecc1	-0.115197666
250	0xbd67fb9e	-0.056636445
251	0x3b250047	0.0025177167
252	0xbd86a00f	-0.065734975
253	0xbc906991	-0.017628463
254	0x3d0698ae	0.03286045
255	0xbd7741f5	-0.060365636

fc3.bias f4 [64]
0	0xbd634c6a	-0.055492796
1	0xbd9bc237	-0.07605403
2	0x3c1fd180	0.009754539
3	0x3ce370ef	0.027763812
4	0xbc58dc25	-0.01323608
5	0xbcd2531d	-0.025674397
6	0xbcc0c931	-0.023533436
7	0xbdb05b1b	-0.08611127
8	0xbd0b5cef	-0.034024175
9	0x3d086d9f	0.033307668
10	0xbdc77755	-0.09739558
11	0x3d0adb9b	0.03390084
12	0x3dbf61ab	0.093448006
13	0xbd468b8e	-0.048472933
14	0xbce7c77a	-0.02829336
15	0x3cd30354	0.025758423
16	0x3d27bb45	0.04095008
17	0xbd4bc776	-0.049750768
18	0xbddd2c79	-0.10799498
19	0xbdbba81b	-0.09162923
20	0xbda145e0	-0.07874656
21	0x3b3feaf0	0.002928432
22	0x3d2124a5	0.039341588
23	0xbda8e1f3	-0.082462214
24	0x3c15077e	0.009096025
25	0x3da903f4	0.08252707
26	0xbd2ed126	-0.04267993
27	0xbb5152d6	-0.0031940243
28	0x3d820519	0.063486286
29	0xbdad84ff	-0.084726326
30	0xbcc0feba	-0.023558963
31	0x3ce2a1bb	0.02766501
32	0xbc6d5693	-0.014485973
33	0x3d6ba23b	0.057527762
34	0x3c936579	0.017992722
35	0x3d75303b	0.05986045
36	0xbd344e08	-0.04401973
37	0xbd3d22fb	-0.046175938
38	0x3d3d294c	0.046181962
39	0xbbf4b559	-0.0074679074
40	0xbd8ddf94	-0.0692741
41	0x3bb98d89	0.0056626243
42	0xbd979710	-0.0740186
43	0xbd506065	-0.05087318
44	0xbdd41a2b	-0.10356554
45	0x3d20ee80	0.03928995
46	0x3d8f9b3f	0.07012033
47	0xbddf93f9	-0.109168954
48	0xbcc9bfff	-0.024627684
49	0x3cb989f4	0.022648789
50	0xbdaf6181	-0.08563519
51	0xbdd14486	-0.10218148
52	0xbb199311	-0.0023433606
53	0x3d663735	0.056204993
54	0x3d98de97	0.07464331
55	0x3d8d7fc5	0.06909136
56	0xbd81a00b	-0.06329354
57	0x3d683305	0.05668928
58	0xbd88cbc4	-0.0667949
59	0xbd96ac7d	-0.07357118
60	0xbdb260d8	-0.08709878
61	0x3cac2993	0.021015918
62	0xbce11ed2	-0.027480517
63	0x3dbbc6cb	0.09168776

fc4.weight f4 [1, 64]
0	0x3c90056e	0.017580714
1	0xbcb272fb	-0.021783343
2	0x3ceae7c8	0.028674975
3	0xbd03e55e	-0.032201163
4	0xbdb71198	-0.089389026
5	0xbd4e5d16	-0.050381742
6	0x3dab5fb4	0.08367863
7	0x3d0d201d	0.034454454
8	0x3c22af95	0.009929557
9	0xbc1e22d4	-0.009651858
10	0x3c25bf77	0.01011645
11	0xbcc5b739	-0.024135219
12	0xbd9b2f31	-0.075773604
13	0x3d957cdd	0.072992064
14	0xbd688061	-0.056763057
15	0xbd5a2e57	-0.05326685
16	0xbdb1c79d	-0.08680651
17	0xbb7ceaf0	-0.0038592182
18	0x3d71eca2	0.05906356
19	0x3d814185	0.06311325
20	0xbd09c085	-0.033630867
21	0x3b32c5f1	0.0027278627
22	0xbcff30da	-0.031151224
23	0x3d8b2183	0.06793501
24	0xbb83cf1f	-0.0040224935
25	0xbd2e4bfa	-0.042552926
26	0x3d5736a1	0.052542333
27	0xbde0788e	-0.10960494
28	0xbd753998	-0.05986938
29	0xbab977ba	-0.0014150061
30	0xbb506c44	-0.0031802813
31	0xbd0d34de	-0.034474246
32	0xbc7423e8	-0.014901139
33	0x3b8bbe97	0.0042646634
34	0x3d7f19ca	0.062280454
35	0xbb8f7bd9	-0.0043787775
36	0x3ddab9cc	0.10679969
37	0xbbcec679	-0.006310281
38	0x3d7873c7	0.06065729
39	0x3b99d9e6	0.004695165
40	0x3bd6195a	0.006533784
41	0xbda21b55	-0.079153694
42	0xbc9f4008	-0.019439712
43	0xbd39ffe8	-0.045410067
44	0xbc1eb748	-0.009687252
45	0x3da35338	0.07974857
46	0xbc32953d	-0.010899839
47	0x3c3d8a29	0.0115685845
48	0xbd5aff2b	-0.053466003
49	0xbb715ed3	-0.0036830201
50	0xbdd043ee	-0.101692066
51	0xbbafb462	-0.0053620795
52	0xbbca51ed	-0.006174317
53	0xbc9e28f0	-0.01930663
54	0xbd33ca61	-0.043894175
55	0xbda49f04	-0.08038142
56	0xbd406e72	-0.04698033
57	0x3c62b0fa	0.01383614
58	0xbb0724c7	-0.0020621286
59	0x3cd1993a	0.02558576
60	0x3baf7faf	0.0053557972
61	0xbc204139	-0.009781175
62	0x3d7a6054	0.061127022
63	0xbcb9ea4c	-0.02269473
