Models/NBA/Total_25_avg_past_games_model.pth (torch, 723215 bytes, 7 tensors)

fc1.weight f4 [256, 542]
0.029437905 -0.012214141 0.009873329 -0.0140407905 -0.006228467 0.027865458 -0.041282896 0.0048545157
0.0037554996 0.026146447 -0.02956822 -0.005530086 0.05765795 -0.05842389 0.023462718 0.039266456
-0.022150582 0.0314316 0.06287714 -0.002984142 0.016266942 -0.038947526 0.0017768095 -0.022933926
-0.037079953 -0.008405592 -0.013434802 0.044357765 0.011406171 0.035283152 -0.018090183 -0.01704019
0.000437308 -0.046079557 -0.0132169705 -0.06212783 0.016348852 0.013033044 0.029168457 -0.00758664
-0.026792374 -0.055609412 -0.015353609 -4.831173e-05 -0.035514932 0.027643647 -0.050714523 -0.0064099724
-0.04325751 0.030320335 0.022620518 0.0069840536 -0.03272976 0.042708173 0.012997869 0.0026008429
0.027949164 0.008171479 -0.043033447 -0.040732965 0.014767521 -0.034977827 -0.020827033 0.011097223
-0.010255315 -0.058292024 -0.0072318437 0.047785666 0.035204604 0.024735833 0.011195529 -0.056364115
0.01999456 -0.028704178 0.0035057594 0.023740163 -0.037917364 0.023730045 0.021248141 0.024978701
-0.0070091896 0.024226073 0.000468684 0.0151439905 -0.043980636 0.03307094 -0.0074301613 0.015202325
-0.019653449 0.03809236 0.032458972 -0.013711968 -0.023378367 0.004190459 -0.027534103 -0.018933505
0.029493034 -0.021212911 0.037070453 -0.020138148 -0.00041362262 0.019544596 0.024779893 -0.07069448
0.0020599305 -0.012847533 -0.0008859342 0.025036372 0.026221728 -0.021366412 -0.0338229 0.014778373
-0.01862563 -0.010011841 -0.0052593662 0.045478683 0.025565522 0.018105969 0.026816 -0.052587766
-0.024194816 0.03965716 -0.04393525 -0.05718686 -0.07000685 -0.014346475 -0.021847833 -0.03130795
-0.028144067 -0.030230531 -0.009637939 -0.03492879 -0.044941507 0.02880768 0.072225295 0.03526961
-0.018074881 -0.0019330404 -0.059716947 0.0634024 0.020479131 0.0017321982 -0.03107914 0.01507517
0.0017024588 0.0011396771 -0.040086843 0.00019418343 0.01359276 0.055622254 -0.020609368 -0.015269787
-0.036021683 -0.016580665 0.012007396 -0.050315924 -0.013260297 0.011867206 -0.009178215 -0.016422288
0.0050736135 0.011431624 0.029670456 0.019998556 0.020375915 -0.07318349 -0.006959235 -0.021595262
-0.018763335 0.012768773 -0.008400676 0.03297141 -0.011894469 0.0012539298 -0.04167626 -0.006400449
0.008958909 0.0042940173 -0.009871212 -0.0255202 -0.049768202 0.044226576 -0.019617023 0.031279836
-0.040134024 0.04330124 -0.0020102449 -0.0060870037 -0.039470416 -0.06657412 -0.04466732 0.034109235
0.014616189 0.060263015 0.0020381033 0.047228735 0.016431946 0.046045557 0.026876723 0.054858383
0.07319117 -0.042845868 0.00694638 -0.07592243 -0.021570416 0.015401498 0.006594246 0.0064569837
0.034097552 -0.04178351 -0.023635764 -0.018444788 -0.0069622076 0.032560874 0.015368402 0.03652646
0.016653134 -0.027943632 -0.019984014 0.051327836 -0.045691755 0.007460657 -0.03738264 0.023413349
0.06458096 0.051110838 0.029864455 -0.07834372 -0.051916156 -0.058525942 0.011731725 -0.04621257
0.0069960156 -0.039754905 -0.04093122 0.0027365258 -0.02587169 -0.023798037 -0.056123294 -0.034383085
-0.03833121 -0.024593567 0.07000387 -0.08767914 -0.040071867 0.02362086 0.08251208 -0.056583945
-0.011393821 -0.017742988 -0.009612653 -0.007694277 0.048704535 0.0072734957 0.029288726 0.03504698
00000000: c327 f13c d21d 48bc bec3 213c 580b 66bc
00000010: 2b18 ccbb 1a46 e43c 4118 29bd a112 9f3b
00000020: d41e 763b 1331 d63c 0d39 f2bc b935 b5bb
00000030: be2a 6c3d e44d 6fbd e334 c03c ddd5 203d
00000040: 2375 b5bc 6cbe 003d bbc5 803d 9891 43bb
00000050: 4042 853c 7187 1fbd d5e3 e83a eedf bbbc
00000060: 26e1 17bd 9cb7 09bc a51d 5cbc 7db0 353d
00000070: f3e0 3a3c 1185 103d dd31 94bc de97 8bbc
00000080: 7c46 e539 ebbd 3cbd fe8b 58bc c079 7ebd
00000090: 07ee 853c 8c88 553c b0f2 ee3c 5999 f8bb
000000a0: ae7b dbbc b2c6 63bd b48d 7bbc 53a2 4ab8
000000b0: 1b78 11bd ee74 e23c 08ba 4fbd bf0a d2bb
000000c0: c92e 31bd 5a62 f83c aa4e b93c 7dda e43b
000000d0: a40f 06bd c4ee 2e3d 04f5 543c e772 2a3b
000000e0: a5f5 e43c abe1 053c d743 30bd 9cd7 26bd
000000f0: 79f3 713c e944 0fbd 749d aabc 20d1 353c
00000100: e905 28bc 9ec3 6ebd 1af9 ecbb e7ba 433d
00000110: b432 103d cda2 ca3c 746d 373c 0fde 66bd
00000120: a2cb a33c 0625 ebbc e2c0 653b bb7a c23c
00000130: 3d4f 1bbd 8365 c23c 9510 ae3c 22a0 cc3c
00000140: 58ad e5bb c275 c63c b4b9 f539 801e 783c
00000150: 0a25 34bd 6575 073d b678 f3bb 2c13 793c
00000160: 4500 a1bc bc06 1c3d b3f3 043d 2aa8 60bc
00000170: fd83 bfbc 1e50 893b 338f e1bc 701a 9bbc
00000180: 609b f13c b3c6 adbc 30d7 173d c2f8 a4bc
00000190: 7ddb d8b9 fd1b a03c 34ff ca3c 44c8 90bd
000001a0: e6ff 063b 767e 52bc 0a3e 68ba 1419 cd3c
000001b0: f3ce d63c 9d08 afbc e289 0abd fd20 723c
000001c0: c794 98bc b408 24bc c356 acbb db47 3a3d
000001d0: c96e d13c f852 943c 3aad db3c 4566 57bd
000001e0: 3534 c6bc 8c6f 223d 73f5 33bd c53c 6abd
000001f0: c05f 8fbd 7a0d 6bbc 3afa b2bc c43c 00bd
00000200: 638e e6bc 05a6 f7bc 72e8 1dbc 7e11 0fbd
00000210: 9614 38bd 15fe eb3c dbea 933d de76 103d
00000220: c611 94bc 135e fdba c299 74bd 1ed9 813d
00000230: dac3 a73c ed0a e33a ae99 febc d9fd 763c
00000240: 0a25 df3a 3861 953a 1a32 24bd b89d 4b39
00000250: 2bb4 5e3c 29d4 633d fad4 a8bc 212e 7abc
00000260: 798b 13bd 2dd4 87bc abba 443c 1218 4ebd
00000270: b741 59bc ab6e 423c 3960 16bc 0988 86bc
00000280: 8e40 a63b b54b 3b3c 750f f33c 03d4 a33c
00000290: 64eb a63c 3ae1 95bd 4b0a e4bb 8ce8 b0bc
000002a0: 91b5 99bc 1e34 513c fda2 09bc 070d 073d
000002b0: 05e1 42bc e75a a43a bab4 2abd dcba d1bb
000002c0: 63c8 123c d4b4 8c3b ddba 21bc bd0f d1bc
000002d0: bed9 4bbd ed26 353d e1b3 a0bc 491f 003d
000002e0: 9363 24bd a45c 313d 50be 03bb 7d75 c7bb
000002f0: bbab 21bd 0358 88bd 14f5 36bd 20b6 0b3d
00000300: bd78 6f3c 5ad6 763d b391 053b eb72 413d
00000310: 4a9c 863c 449a 3c3d 932c dc3c 2fb3 603d
00000320: 41e5 953d 267f 2fbd 759e e33b 387d 9bbd
00000330: 71b4 b0bc 9156 7c3c 8b14 d83b 1b95 d33b
00000340: e0a9 0b3d 3025 2bbd ca9f c1bc 8619 97bc
00000350: 3b23 e4bb 8d5e 053d c0cb 7b3c c59c 153d
00000360: 276c 883c 0bea e4bc 84b5 a3bc 233d 523d
00000370: 4727 3bbd 8778 f43b 8a1e 19bd 5acd bf3c
00000380: 0643 843d 9959 513d 4da6 f43c ac72 a0bd
00000390: 09a6 54bd e6b8 6fbd 6c36 403c 6449 3dbd
000003a0: d53e e53b 0ad6 22bd 7fa7 27bd 4957 333b
000003b0: def0 d3bc 1af4 c2bc 8ae1 65bd 47d5 0cbd
000003c0: 3001 1dbd 7378 c9bc 305e 8f3d 1f91 b3bd
000003d0: 6622 24bd 8980 c13c 18fc a83d 91c4 67bd
000003e0: 26ad 3abc be59 91bc 647e 1dbc 4620 fcbb
000003f0: 687e 473d 8156 ee3b e9ee ef3c 6c8d 0f3d

fc1.bias f4 [256]
-0.0077459486 -0.03240142 -0.0021990428 -0.028180853 -0.031038763 -0.021301135 -0.06571793 0.017226322
-0.058512896 -0.0010324672 -0.0022342196 -0.008003047 -0.038957916 -0.041458946 -0.0823687 -0.055987436
-0.016509607 -0.025361117 0.05656838 -0.0681714 -0.036963385 -0.03275347 0.0025342049 0.005821528
0.025748275 -0.011173932 0.09471145 -0.04211488 -0.027387612 0.049648695 -0.03422767 -0.009935223
-0.005339498 -0.005734315 -0.025142023 -0.028683234 -0.06023091 -0.07112454 -0.0011319295 -0.046237223
-0.046749685 -0.0067056622 -0.01415032 0.013877798 -0.004021396 -0.0045833914 -0.0143243065 -0.0417077
-0.042976633 -0.005685064 -0.026250754 -0.060394626 -0.004541959 -0.09473527 -0.034698516 -0.060089026
-0.013772839 -0.05003403 -0.021893034 -0.017148567 0.0023004927 -0.060897633 -0.012605932 -0.038990874
-0.07464023 -0.047223043 -0.013297966 0.00082273054 -0.07641176 -0.057048365 -0.02165319 -0.0109971315
-0.062328193 0.008341587 0.037869476 0.0018140747 -0.058212448 -0.020446492 -0.014916867 -0.033253506
0.03591031 -0.057490252 -0.046627413 0.0004093549 -0.006232904 0.014226156 -0.034833144 0.023048041
-0.05027474 0.0028213921 -0.02362744 -0.07114387 -0.01487361 -0.061446954 -0.031447086 -0.058559913
-0.030289909 0.010576556 0.033692006 -0.04337335 -0.043952722 0.034699015 0.026934464 0.038928106
-0.063402615 -0.0280168 -0.03485955 -0.016004428 -0.036692303 -0.011681231 -0.015790235 -0.04379651
-0.081541695 -0.050983615 -0.06689459 -0.039879173 0.019219186 -0.1020293 -0.02886808 0.029037436
-0.011675499 0.004042702 -0.0030980846 -0.045850568 -0.03573809 -0.040992394 -0.07728736 -0.06274189
-0.06586928 -0.03297244 -0.041058242 -0.06339223 -0.009463083 0.0049371677 0.004784649 -0.046500456
-0.031409588 -0.015173526 -0.06244086 -0.014556114 -0.01996133 -0.054429807 -0.021950208 -0.040602185
0.038169537 -0.06908442 -0.019850224 -0.030886676 -0.06718964 -0.06098889 -0.029834732 -0.05124721
-0.0029832532 0.005544531 0.0049785674 -0.019165747 -0.048509914 0.008349587 -0.010591238 0.017269025
-0.07322219 -0.0692829 -0.07878574 -0.053806823 -0.00592566 -0.013847739 0.029965982 -0.05454991
0.031701166 -0.0063666855 0.018851217 0.026143761 -0.04374603 0.008809593 -0.020165032 -0.030293556
-0.06647617 -0.041373067 -0.035519395 -0.0061184666 -0.07566315 -0.02117065 -0.063048534 0.015775234
-0.020837095 -0.010263787 -0.039221104 0.001102977 -0.03394854 0.01835803 -0.0349479 0.020483844
-0.030990457 0.029475436 -0.067987904 -0.02215675 -0.061806045 -0.047531087 -0.034873363 -0.06050605
0.0042936765 -0.021987647 -0.026917532 0.011152237 -0.032829452 -0.049522273 -0.026279509 0.043183308
-0.008881452 0.0058681727 -0.08432528 -0.06032615 -0.08529603 -0.026788926 0.01667015 0.05276492
-0.04002665 -0.05760397 -0.012889629 -0.043587986 0.0047264798 0.025871534 0.0127965445 0.032043885
-0.0061669904 -0.046286624 -0.027612364 -0.042594623 0.013473716 -0.027998557 0.0100506935 -0.053492848
0.041850254 -0.0020422947 -0.05176186 -0.042078365 -0.010826776 -0.044990715 0.021810643 0.024398481
-0.056311045 -0.021298192 0.010982526 -0.03265223 -0.03784565 5.672484e-05 -0.050222002 0.002641624
-0.018745705 0.008882179 -0.04767798 0.048192028 -0.020660948 -0.0050890273 -0.05096061 -0.06645211
00000000: bad1 fdbb 5ab7 04bd d11d 10bb 88db e6bc
00000010: 0145 febc b87f aebc 1f97 86bd 371e 8d3c
00000020: 38ab 6fbd da53 87ba fc6b 12bb 361f 03bc
00000030: 5692 1fbd dbd0 29bd ecb0 a8bd 1553 65bd
00000040: 283f 87bc 1ec2 cfbc 3fb4 673d 729d 8bbd
00000050: eb66 17bd 8128 06bd e714 263b 84c2 be3b
00000060: 0cee d23c de12 37bc 14f8 c13d a780 2cbd
00000070: fc5b e0bc 6e5c 4b3d 5032 0cbd 58c7 22bc
00000080: f5f6 aebb ece6 bbbb a5f6 cdbc 1af9 eabc
00000090: b0b4 76bd bea9 91bd 405d 94ba 3e63 3dbd
000000a0: 997c 3fbd 2cbb dbbb bed6 67bc b45f 633c
000000b0: eac5 83bb 4630 96bb 7fb0 6abc b1d5 2abd
000000c0: 4408 30bd c649 babb d20b d7bc 5b60 77bd
000000d0: b7d4 94bb 9104 c2bd 0820 0ebd e91f 76bd
000000e0: 79a7 61bc 7cf0 4cbd 0559 b3bc 277b 8cbc
000000f0: ddc3 163b cc6f 79bd 1c89 4ebc e5b4 1fbd
00000100: fadc 98bd f36c 41bd b6df 59bc 83ac 573a
00000110: c57d 9cbd 8cab 69bd 0862 b1bc 502d 34bc
00000120: d94b 7fbd 27ab 083c 061d 1b3d 3fc6 ed3a
00000130: 2d70 6ebd 677f a7bc e065 74bc d434 08bd
00000140: b016 133d e67a 6bbd 63fc 3ebd af9e d639
00000150: 633d ccbb d314 693c 33ad 0ebd 3fcf bc3c
00000160: e3ec 4dbd 1be7 383b 558e c1bc e1b3 91bd
00000170: 71b0 73bc cdaf 7bbd a9ce 00bd 85dc 6fbd
00000180: 8b22 f8bc 4b49 2d3c a100 0a3d 41a8 31bd
00000190: c507 34bd 8e20 0e3d aaa5 dc3c 1473 1f3d
000001a0: 3bd9 81bd 7d83 e5bc e3c8 0ebd b81b 83bc
000001b0: ab4a 16bd a262 3fbc 865a 81bc f863 33bd
000001c0: 55ff a6bd 32d4 50bd 0800 89bd 5858 23bd
000001d0: 8e71 9d3c bdf4 d0bd c07c ecbc ebdf ed3c
000001e0: 984a 3fbc a478 843b 3c09 4bbb cecd 3bbd
000001f0: 1a62 12bd a4e7 27bd d648 9ebd d27e 80bd
00000200: 79e6 86bd 1c0e 07bd b02c 28bd c9d3 81bd
00000210: 0c0b 1bbc f7c7 a13b 8bc8 9c3b 4377 3ebd
00000220: 57a7 00bd 619a 78bc fdc1 7fbd c47c 6ebc
00000230: f185 a3bc caf1 5ebd ecd0 b3bc 7a4e 26bd
00000240: a957 1c3d 227c 8dbd f09c a2bc 0e06 fdbc
00000250: b99a 89bd 7ccf 79bd f867 f4bc 98e8 51bd
00000260: af82 43bb e6ae b53b 4023 a33b 7c01 9dbc
00000270: 55b2 46bd b5cc 083c df86 2dbc c577 8d3c
00000280: 84f5 95bd 31e4 8dbd 6b5a a1bd 8b64 5cbd
00000290: 0a2c c2bb a1e1 62bc 387b f53c ba6f 5fbd
000002a0: 15d9 013d a19f d0bb de6d 9a3c 712b d63c
000002b0: 0a2f 33bd 1c56 103c 2331 a5bc 312a f8bc
000002c0: a924 88bd ce76 29bd c97c 11bd 6b7d c8bb
000002d0: 48f5 9abd 126e adbc 971f 81bd 103b 813c
000002e0: 8eb2 aabc 7129 28bc 4fa6 20bd c491 903a
000002f0: a00d 0bbd 9463 963c 8725 0fbd bccd a73c
00000300: b3df fdbc 7876 f13c 3e3d 8bbd 1382 b5bc
00000310: 5628 7dbd f5af 42bd 5fd7 0ebd 31d5 77bd
00000320: f8b1 8c3b 701f b4bc 2882 dcbc dfb7 363c
00000330: 2d78 06bd ded7 4abd 2048 d7bc fbe0 303d
00000340: 8283 11bc cd49 c03b bbb2 acbd 8e18 77bd
00000350: afaf aebd 7374 dbbc d78f 883c 0720 583d
00000360: fcf2 23bd 24f2 6bbd 062f 53bc 5189 32bd
00000370: 96e0 9a3b 8af0 d33c 99a8 513c 7340 033d
00000380: 7714 cabb 0b97 3dbd 5333 e2bc b377 2ebd
00000390: dcc0 5c3c 3b5d e5bc aaab 243c 511b 5bbd
000003a0: 2c6b 2b3d 05d8 05bb 3e04 54bd 5d5a 2cbd
000003b0: ca62 31bc 2f48 38bd 3cac b23c 53df c73c
000003c0: 69a6 66bd 8c79 aebc 0df0 333c 58be 05bd
000003d0: 0a04 1bbd d5eb 6d38 96b5 4dbd 191f 2d3b
000003e0: 9890 99bc 8f86 113c fc49 43bd 0165 453d
000003f0: 2641 a9bc dbc1 a6bb 13bc 50bd 0b18 88bd

fc2.weight f4 [128, 256]
-0.011767373 0.047492128 -0.08071109 -0.09828159 -0.038517874 -0.023780601 0.002987682 -0.010610715
-0.030784147 -0.011699744 0.055203475 -0.051917985 -0.03287731 -0.035064816 -0.0075006075 0.013738846
-0.006417793 -0.023885867 -0.09826469 -0.07337227 0.061527103 -0.10022979 -0.0071041053 -0.0047997185
0.054466538 0.051586665 0.0039429306 0.08921542 -0.049745496 -0.010451914 0.027662314 0.05746366
0.0048910747 0.044557873 -0.01943606 -0.06474602 -0.09116097 0.013006221 -0.03655648 0.010693603
0.07929941 0.028970456 0.052766245 0.06104991 -0.032069936 -0.016466592 -0.07221626 -0.08148793
-0.09099659 -0.0066640624 -0.016936634 0.013995919 -0.06528014 3.1118336e-05 0.017765626 0.03564222
0.050400496 0.04269375 0.030440718 0.082665056 -0.052390363 0.012241298 -0.031642154 0.033465512
-0.011419321 -0.07817022 0.042006027 0.010689717 -0.058655422 -0.06912792 0.0054847114 0.034983307
0.035532046 0.004014042 -0.007863616 -0.022484433 -0.012256324 -0.01932266 0.083674766 0.039255973
0.06431878 0.02390267 0.02270884 0.021102794 -0.02613387 -0.060052216 0.036429472 -0.033789422
9.8683864e-05 0.045517985 -0.014271802 0.033119135 0.012974733 -0.030298559 0.016087923 0.004677023
-0.013244129 -0.039058078 -0.06885599 -0.09794093 -0.08311982 -0.11024812 -0.08396723 -0.09435481
0.0065552033 0.019784754 0.03420088 0.017687099 -0.07311782 -0.045501195 0.029318117 -0.03414961
-0.057472847 0.037461393 0.026879275 0.029549094 -0.015138772 -0.017859446 -0.09138088 0.07148607
-0.06325695 0.013336689 0.0663586 -0.0059365327 0.0149768125 -0.110296026 0.035393238 -0.017882846
-0.011629405 -0.10176322 0.050658707 -0.051587295 -0.00502723 -0.02654305 -0.061884478 -0.00073465233
-0.029380355 -0.004090751 -0.009009658 -0.00034444415 -0.043634947 -0.04061324 0.010828692 0.016790465
-0.048875928 -0.05218014 -0.031946275 0.048647247 0.031572517 -0.06681115 -0.054008517 0.028748753
0.0037110867 -0.036177933 0.04475549 0.013953096 -0.028077403 -0.019049997 -0.10099207 0.057962503
-0.013403237 -0.02817896 -0.07644568 0.028447619 0.019834189 0.045380935 -0.01136686 -0.041179787
0.10762814 -0.06399954 0.021995708 0.030412372 -0.0049754702 0.030961258 0.04387486 -0.022547347
0.058873147 -0.024383055 0.08096349 0.006019127 -0.0146913305 -0.03922451 0.006636949 -0.064766325
-0.084593356 -0.016591175 0.056849916 -0.080453716 0.022328379 0.0023838747 -0.023675714 -0.04878539
-0.0075733424 -0.040822748 0.02752116 -0.014528081 0.066887245 0.045769792 -0.031844582 -0.05369571
-0.08818504 0.04132332 0.045809694 0.03011764 0.058701795 -0.008600038 -0.04994104 -0.0109574925
-0.07210476 -0.07316583 -0.0046039843 -0.018402597 -0.054640904 -0.02415144 -0.047546238 -0.009910824
0.04698131 0.0056404993 -0.050153613 0.05036534 0.042926367 0.06328904 0.009398729 0.035084374
-0.047034547 0.058280498 0.034927767 -0.071347944 -0.06431438 0.0667658 -0.023943745 0.008155508
-0.010786453 0.026387025 -0.014880403 -0.018858898 -0.008889025 0.007412649 0.025310554 -0.045979302
-0.01498177 0.012789571 -0.0054077497 0.025371382 0.038178418 0.0049358895 -0.018958751 0.0022157626
0.021527335 -0.022653729 -0.04049002 0.072189406 -0.025467066 0.03106949 0.05744638 -0.009754807
00000000: f1cb 40bc 1b87 423d db4b a5bd dc47 c9bd
00000010: ebc4 1dbd 89cf c2bc fccc 433b 90d8 2dbc
00000020: 092f fcbc 48b0 3fbc 0a1d 623d f4a7 54bd
00000030: 5caa 06bd 20a0 0fbd a8c7 f5bb e618 613c
00000040: 5a4c d2bb 4bac c3bc ff3e c9bd 3344 96bd
00000050: d803 7c3d 4745 cdbd 8ec9 e8bb f546 9dbb
00000060: 4e18 5f3d 8a4c 533d b333 813b 93b6 b63d
00000070: efc1 4bbd 813e 2bbc 149c e23c 045f 6b3d
00000080: 4f45 a03b 5182 363d 5f38 9fbc 9099 84bd
00000090: 9ab2 babd 0b18 553c 3fbc 15bd 3934 2f3c
000000a0: bb67 a23d 7353 ed3c 6b21 583d 780f 7a3d
000000b0: c45b 03bd f2e4 86bc 1ee6 93bd 25e3 a6bd
000000c0: 6c5c babd 355e dabb b2be 8abc 244f 653c
000000d0: 98b1 85bd 0f85 0238 3889 913c 94fd 113d
000000e0: c070 4e3d a4df 2e3d d05e f93c 4c4c a93d
000000f0: 4797 56bd ba8f 483c 349b 01bd 2213 093d
00000100: 1b18 3bbc b517 a0bd 830e 2c3d ec23 2f3c
00000110: ab40 70bd f092 8dbd 18b9 b33b a84a 0f3d
00000120: 0d8a 113d 3a88 833b 65d6 00bc 4631 b8bc
00000130: c0ce 48bc 8e4a 9ebc ad5d ab3d dfca 203d
00000140: 91b9 833d 88cf c33c e407 ba3c c4df ac3c
00000150: b316 d6bc 50f9 75bd 1237 153d c766 0abd
00000160: 7ff4 ce38 1171 3a3d 47d4 69bc eea7 073d
00000170: f993 543c af34 f8bc d2ca 833c b641 993b
00000180: e7fd 58bc 5dfb 1fbd 5f04 8dbd 4195 c8bd
00000190: b93a aabd c4c9 e1bd 03f7 abbd 183d c1bd
000001a0: 08cd d63b a313 a23c 3916 0c3d 89e4 903c
000001b0: ccbe 95bd 765f 3abd 8c2c f03c 76e0 0bbd
000001c0: a668 6bbd 1e71 193d ed31 dc3c f110 f23c
000001d0: 9d08 78bc f94d 92bc e625 bbbd 4a67 923d
000001e0: dc8c 81bd 2182 5a3c 05e7 873d 3f87 c2bb
000001f0: 4e61 753c e2e2 e1bd 80f8 103d 0c7f 92bc
00000200: 4389 3ebc 3c69 d0bd 817f 4f3d 334d 53bd
00000210: 76bb a4bb cf70 d9bc 947a 7dbd af95 40ba
00000220: 12af f0bc b50b 86bb 3f9d 13bc 8396 b4b9
00000230: 8fba 32bd 125a 26bd d36a 313c 288c 893c
00000240: 2032 48bd d8ba 55bd 19da 02bd 5642 473d
00000250: 2f52 013d 49d4 88bd 0938 5dbd 8182 eb3c
00000260: b435 733b 502f 14bd 8851 373d 879b 643c
00000270: 9502 e6bc bd0e 9cbc eed4 cebd 176a 6d3d
00000280: 4099 5bbc 90d7 e6bc 8d8f 9cbd fb0a e93c
00000290: 4f7b a23c 5ce1 393d 113c 3abc 23ac 28bd
000002a0: 246c dc3d 3112 83bd 5830 b43c 5e23 f93c
000002b0: 4509 a3bb 77a2 fd3c 20b6 333d 37b5 b8bc
000002c0: f824 713d f9be c7bc 30d0 a53d 193c c53b
000002d0: e8b3 70bc e1a9 20bd c37a d93b 35a4 84bd
000002e0: 483f adbd 37ea 87bc 75db 683d ebc4 a4bd
000002f0: 01ea b63c c83a 1c3b 92f3 c1bc 30d3 47bd
00000300: cd29 f8bb c135 27bd 0e74 e13c 3007 6ebc
00000310: 2efc 883d 1b79 3b3d 776f 02bd 08f0 5bbd
00000320: 5c9a b4bd a442 293d f2a2 3b3d 45b9 f63c
00000330: 4b71 703d 2ce7 0cbc fa8e 4cbd 0e87 33bc
00000340: a9ab 93bd f7d7 95bd 05dd 96bb 0bc1 96bc
00000350: 24cf 5fbd 3ed9 c5bc d8bf 42bd 0261 22bc
00000360: 796f 403d f0d3 b83b e06d 4dbd e34b 4e3d
00000370: 8fd3 2f3d af9d 813d 20fd 193c a2b4 0f3d
00000380: 4ca7 40bd 88b7 6e3d 6b10 0f3d df1e 92bd
00000390: 42b7 83bd 82bc 883d ac25 c4bc ae9e 053c
000003a0: aab9 30bc 9a29 d83c efcc 73bc fa7d 9abc
000003b0: 46a3 11bc cfe5 f23b 1458 cf3c cb54 3cbd
000003c0: 1976 75bc 598b 513c 7e33 b1bb a5d7 cf3c
000003d0: f960 1c3d 3ebd a13b 624f 9bbc 5436 113b
000003e0: 185a b03c 5094 b9bc ddd8 25bd 0ad8 933d
000003f0: 4fa0 d0bc 7185 fe3c e54c 6b3d a0d2 1fbc

fc2.bias f4 [128]
0.018407065 -0.04916342 -0.04551122 0.02267489 -0.04828141 0.0036308686 -0.029824004 0.06515298
0.002094266 0.024423061 0.0054054568 0.014915971 0.040203337 0.039570063 0.03849882 -0.018526034
0.013952938 -0.041098002 -0.024746336 0.056321863 -0.044356313 0.017950999 0.037302874 -0.043061424
-0.0072237942 0.012729061 0.007831861 0.041856345 -0.04111223 0.019380217 0.0068825833 -0.0023824705
0.00076973095 0.01500653 0.021676159 -0.03402439 -0.036704414 0.045352243 0.010232322 0.0036874402
-0.066276744 -0.014264338 -0.022848649 -0.054019544 -0.004846567 -0.021058645 -0.015949331 -0.0004850735
0.035616495 0.003257574 -0.01515747 -0.0036120843 0.006849813 -0.007515973 0.031609852 -0.012434448
-0.018271575 -0.05843367 0.010333098 -0.03851395 -0.04419513 0.011077468 -0.049162865 0.050504416
0.036076657 0.013705915 -0.03775813 -0.015915146 -0.08252574 0.046448827 -0.030635685 -0.017523525
0.03033243 -0.023090685 -0.02090044 -0.026919905 0.0018848162 -0.03375524 0.04328142 -0.041315235
0.034734827 -0.035733324 -0.0069801374 -0.043852158 0.01403847 -0.00018062338 0.0020930374 -0.06311323
-0.010794715 -0.056742787 -0.040591948 -0.063079394 0.025820449 0.023739431 0.042477086 -0.023485772
-0.06655124 -0.04251178 -0.044353914 0.021092655 0.012874895 0.021304846 -0.05994985 0.060493127
0.015032107 0.04036556 -0.06094862 0.0074717025 0.033095505 0.00027472727 -0.0017628663 -0.011959044
-0.0021032973 -0.0023990266 0.034181256 0.008191477 -0.03820247 0.023569167 -0.015162717 -0.076043986
-0.07510098 -0.055855576 -0.050489645 0.030319732 -0.04354873 -0.047554582 0.012601779 0.047816638
00000000: 6aca 963c 955f 49bd f969 3abd b1c0 b93c
00000010: bac2 45bd def3 6d3b 7851 f4bc ed6e 853d
00000020: f43f 093b df12 c83c 4220 b13b 1e62 743c
00000030: 41ac 243d 3814 223d f0b0 1d3d e9c3 97bc
00000040: dd9a 643c 6156 28bd d4b8 cabc c1b1 663d
00000050: f7ae 35bd f90d 933c e6ca 183d 2d61 30bd
00000060: 94b5 ecbb 8d8d 503c 3551 003c 8f71 2b3d
00000070: 4c65 28bd 43c3 9e3c 4b87 e13b 3923 1cbb
00000080: c5c7 493a f3dd 753c 3392 b13c 295d 0bbd
00000090: 5e57 16bd 46c3 393d 78a5 273c fba8 713b
000000a0: 1abc 87bd f8b4 69bc 172d bbbc 9943 5dbd
000000b0: f3cf 9ebb 2e83 acbc 2ca8 82bc 7751 feb9
000000c0: 9ae2 113d 067d 553b 0957 78bc b8b8 6cbb
000000d0: 6574 e03b 8d48 f6bb 5579 013d dbb9 4bbc
000000e0: 45ae 95bc 2558 6fbd 274c 293c cec0 1dbd
000000f0: f405 35bd 457e 353c 005f 49bd b8dd 4e3d
00000100: 1ec5 133d c68e 603c 45a8 1abd 7b60 82bc
00000110: 4103 a9bd 2041 3e3d b0f7 fabc 7f8d 8fbc
00000120: b77b f83c ad28 bdbc 6637 abbc 2287 dcbc
00000130: f00b f73a ef42 0abd dc47 313d 2a3a 29bd
00000140: 1b46 0e3d 1b5d 12bd a3b9 e4bb 529e 33bd
00000150: 9c01 663c b865 3db9 572b 093b 8241 81bd
00000160: 51dc 30bc 206b 68bd be43 26bd c52f 81bd
00000170: 6885 d33c 3279 c23c 74fc 2d3d 3c65 c0bc
00000180: 044c 88bd d520 2ebd 73ac 35bd 81ca ac3c
00000190: 39f1 523c 8087 ae3c f98d 75bd a4c7 773d
000001a0: 3a49 763c 5c56 253d 43a5 79bd 2fd5 f43b
000001b0: 278f 073d 4509 9039 fa0f e7ba deef 43bc
000001c0: 79d7 09bb fd38 1dbb a501 0c3d 8b35 063c
000001d0: 317a 1cbd 2014 c13c 0b6d 78bc f3bc 9bbd
000001e0: 8bce 99bd d1c8 64bd 3bce 4ebd 1661 f83c
000001f0: 2760 32bd 98c8 42bd b177 4e3c 61db 433d

fc3.weight f4 [64, 128]
-0.086305715 -0.03602966 0.041407716 -0.061155405 -0.032522783 0.0656916 -0.08695992 0.04860092
0.010257993 -0.029673627 -0.050114423 0.08509866 -0.00080708694 -0.070654534 -0.07068529 0.09180039
0.02978912 0.089168124 -0.04986299 0.027615266 -0.032506578 -0.005325662 -0.06190643 -0.12019855
-0.059711047 -0.097707346 0.011547474 -0.07845634 0.09806542 -0.024626829 0.07342456 0.0114666
0.090322055 -0.059767686 -0.03865666 0.044876024 0.06733406 0.06323077 0.017696511 -0.014457826
0.036771845 -0.012212257 -0.07145478 0.06569339 0.03421809 0.055351656 0.046982594 0.0028894297
0.016630517 0.01666548 0.01069344 0.08717069 -0.058904044 0.009005354 0.029375022 -0.064216115
-0.032252405 0.0411693 0.010303106 0.017844968 0.05036101 -0.030282903 0.03403921 -0.022648992
-0.03135515 0.09357862 0.040856596 0.018122783 -0.02954142 -0.0315893 0.02141836 -0.0471812
-0.05907485 0.07078751 -0.023294255 0.058378443 -0.038959533 -0.010707712 -0.040863663 -0.06412498
0.010225344 -0.09329888 0.06420357 0.031289056 0.04211074 -0.014420265 0.0025415183 0.048698127
-0.041629005 0.03634947 -0.07762822 -0.04605292 -0.02577271 -0.06580163 0.062229875 0.059193086
-0.023897631 0.076196276 -0.04047782 0.071724586 -0.09238314 -0.119106345 0.031259418 0.053514663
0.06210489 -0.061841898 -0.0068696835 -0.014959072 -0.0013097088 -0.016989494 -0.058269907 0.061719656
0.03712518 -0.02343543 0.0589409 0.07393282 0.013682919 -0.047823377 -0.023623243 0.032069094
-0.014929743 0.09285882 -0.031192223 0.014569831 -0.04333218 0.010714503 -0.010254831 0.049684353
0.071940735 -0.056550045 0.0251818 -0.026751217 0.08415007 0.007664255 0.042302504 0.01478619
-0.008104646 0.03742944 -0.002849578 0.01701794 -0.022566024 -0.013345922 0.07222118 0.01771918
-0.06866454 -0.057438113 -0.036927756 -0.014604791 0.013751519 -0.033174764 -0.020529022 -0.045462403
-0.11559395 0.06377723 -0.06789653 -0.031352237 0.011215147 -0.027162233 0.05524565 -0.062122565
0.033874646 -0.04196359 0.0013351317 0.070530154 0.02381454 0.026192972 -0.042028587 -0.07694735
0.008228291 0.035503455 -0.015393408 0.023397168 0.013462488 -0.061566107 0.00932801 0.035758227
0.07743603 -0.023914274 0.06527802 -0.026557906 0.084187515 -0.008597529 0.03411589 0.058313563
-0.080556825 -0.067817956 -0.0036466778 -0.076771885 0.05843771 -0.07300867 -0.03556207 -0.06410795
0.016022917 0.06614133 0.00759316 0.020084606 -0.067649566 0.07755269 0.026534554 0.02700198
-0.101191595 0.037540298 0.022126514 0.053809088 0.075847484 -0.061765157 0.09579463 -0.097325705
0.045665994 0.027518315 0.05918806 -0.006877249 0.05138444 -0.051353272 -0.048148464 -0.071845695
-0.06617864 0.030866008 0.050354876 -0.07382621 0.052858308 0.025554266 -0.020512031 -0.03337841
-0.055893637 -0.1108474 0.0072159744 -0.08202566 -0.0027544664 -0.035272114 -0.056072544 0.03782913
0.054448072 0.056474485 0.0766244 0.0047002495 -0.020312382 0.14491591 0.06759884 -0.07808779
0.02997071 0.04455935 0.07886914 -0.0822823 0.01294863 0.07114004 -0.043926753 0.054119557
0.066762485 0.064595304 -0.002369939 -0.073378935 -0.0835058 0.048425842 -0.045425687 0.02624661
00000000: 0dc1 b0bd d693 13bd 239b 293d 177e 7abd
00000010: 9c36 05bd 5189 863d 0b18 b2bd c211 473d
00000020: 2411 283c 1b16 f3bc c844 4dbd 3548 ae3d
00000030: b092 53ba 53b3 90bd 73c3 90bd d801 bc3d
00000040: 5008 f43c c79d b63d 223d 4cbd 6939 e23c
00000050: 9e25 05bd e482 aebb 9991 7dbd a82a f6bd
00000060: 9293 74bd ca1a c8bd 9e31 3d3c b8ad a0bd
00000070: 86d6 c83d 34be c9bc 9e5f 963d 68de 3b3c
00000080: c5fa b83d f6ce 74bd 7256 1ebd eccf 373d
00000090: 71e6 893d 227f 813d 46f8 903c 84e0 6cbc
000000a0: 139e 163d eb15 48bc e256 92bd 428a 863d
000000b0: 4528 0c3d 6bb8 623d d270 403d 965c 3d3b
000000c0: b93c 883c 0b86 883c 8a33 2f3c 8c86 b23d
000000d0: 5e45 71bd 318b 133c e3a3 f03c bd83 83bd
000000e0: 191b 04bd 24a1 283d 5cce 283c 9c2f 923c
000000f0: 5947 4e3d da13 f8bc b36c 0b3d 618a b9bc
00000100: 426e 00bd 26a6 bf3d 3f59 273d 3b76 943c
00000110: d900 f2bc c863 01bd 8e75 af3c 1341 41bd
00000120: 78f8 71bd 0bf9 903d 98d3 bebc 3c1e 6f3d
00000130: 0894 1fbd 666f 2fbc a860 27bd f553 83bd
00000140: 3488 273c 7c13 bfbd 297d 833d f428 003d
00000150: 507c 2c3d fa42 6cbc 9a8f 263b b077 473d
00000160: 2d83 2abd 2fe3 143d 8bfb 9ebd fda1 3cbd
00000170: 4a21 d3bc 01c3 86bd c1e4 7e3d 7374 723d
00000180: f7c4 c3bc cb0c 9c3d 12cc 25bd 57e4 923d
00000190: 5f33 bdbd 07ee f3bd e009 003d 3132 5b3d
000001a0: b261 7e3d ee4d 7dbd 151b e1bb e516 75bc
000001b0: 89aa abba 8d2d 8bbc 6dac 6ebd c0cd 7c3d
000001c0: 9310 183d a9fb bfbc 036c 713d 176a 973d
000001d0: 522e 603c 72e2 43bd 8885 c1bc e25a 033d
000001e0: e19b 74bc c42c be3d d586 ffbc 4db6 6e3c
000001f0: 157d 31bd e28b 2f3c e103 28bc d281 4b3d
00000200: aa55 933d 05a1 67bd 104a ce3c 5e25 dbbc
00000210: df56 ac3d 6e24 fb3b 6445 2d3d c741 723c
00000220: 59c9 04bc 9d4f 193d fcbf 3abb 3569 8b3c
00000230: 62dc b8bc dba8 5abc b3e8 933d d027 913c
00000240: ff9f 8cbd 3a44 6bbd 8f41 17bd ef48 6fbc
00000250: 0d4e 613c 43e2 07bd 7b2c a8bc c936 3abd
00000260: 85bc ecbd a39d 823d 560d 8bbd 346b 00bd
00000270: bcbf 373c 5583 debc 4349 623d 3b74 7ebd
00000280: 24c0 0a3d 03e2 2bbd 96ff ae3a 1d72 903d
00000290: b616 c33c a592 d63c 2b26 2cbd 9296 9dbd
000002a0: f4cf 063c 126c 113d a234 7cbc 6bab bf3c
000002b0: c491 5c3c be2c 7cbd 82d4 183c 3877 123d
000002c0: c896 9e3d dee7 c3bc 7cb0 853d f78f d9bc
000002d0: 816a ac3d a6dc 0cbc 1abd 0b3d 34da 6e3d
000002e0: fafa a4bd 24e4 8abd 1afd 6ebb 943a 9dbd
000002f0: 615c 6f3d 9285 95bd 88a9 11bd 074b 83bd
00000300: 7e42 833c 1b75 873d 0bd0 f83b 7988 a43c
00000310: db8b 8abd f2d3 9e3d fe5e d93c 4233 dd3c
00000320: 8a3d cfbd dbc3 193d aa42 b53c eb66 5c3d
00000330: ed55 9b3d 76fd 7cbd fa2f c43d b352 c7bd
00000340: 440c 3b3d 176e e13c 2e6f 723d 8c5a e1bb
00000350: 7e78 523d cf57 52bd 5337 45bd d623 93bd
00000360: ab88 87bd b6da fc3c ea40 4e3d 3232 97bd
00000370: f481 583d 2e57 d13c d908 a8bc cdb7 08bd
00000380: baf0 64bd f603 e3bd fb73 ec3b 12fd a7bd
00000390: 4784 34bb 7e79 10bd 53ac 65bd b8f2 1a3d
000003a0: f104 5f3d ca51 673d 41ed 9c3d 8d04 9a3b
000003b0: 2766 a6bc d664 143e 4371 8a3d 7eec 9fbd
000003c0: 2285 f53c dd83 363d 2586 a13d 9f83 a8bd
000003d0: 7e26 543c dfb1 913d 8aec 33bd 78ac 5d3d
000003e0: c5ba 883d 8b4a 843d fa50 1bbb b247 96bd
000003f0: 1705 abbd 2d5a 463d 4910 3abd 2103 d73c

fc3.bias f4 [64]
0.09699196 0.059565336 0.05683903 -0.04956901 -0.041634694 -0.040843096 -0.012688402 0.076715134
-0.0131153185 0.063777715 0.011858586 -0.07254262 -0.030964954 -0.017848821 0.006517138 -0.07963133
-0.046393987 0.01326534 -0.029297335 -0.09040683 0.017314242 0.030441929 0.06259853 -0.021236248
-0.05713053 -0.023711408 -0.057672024 -0.0019910405 -0.04972201 0.055867005 0.046641335 0.07663922
0.1113812 -0.018042445 -0.0025856236 -0.00039696423 -0.0117887575 0.015357671 -0.0714011 0.008804735
-0.0011597788 -0.0614546 -0.09256574 -0.060499657 -0.0652995 -0.03217523 0.0463596 -0.042054985
-0.1157346 0.07225194 0.012808111 -0.030098619 -0.07392446 0.02382742 -0.08044291 0.01703188
-0.0355656 -0.055362616 -0.0139753455 0.052151103 0.089443594 0.04457294 -0.061312336 -0.041112654
00000000: b9a3 c63d c8fa 733d 0bd0 683d e008 4bbd
00000010: 2489 2abd 174b 27bd 04e3 4fbc d31c 9d3d
00000020: a2e1 56bc e49d 823d 844a 423c 3a91 94bd
00000030: 37aa fdbc b137 92bc b78d d53b c015 a3bd
00000040: 9f07 3ebd de56 593c f700 f0bc 3727 b9bd
00000050: 99d6 8d3c 5a61 f93c a833 803d a4f7 adbc
00000060: b401 6abd 6d3e c2bc 8039 6cbd 1e7c 02bb
00000070: 4ea9 4bbd cdd4 643d fc0a 3f3d 06f5 9c3d
00000080: d41b e43d c0cd 93bc 9173 29bb a31f d0b9
00000090: a225 41bc be9e 7b3c bd3a 92bd bc41 103c
000000a0: b803 98ba d2b7 7bbd 1b93 bdbd 7dce 77bd
000000b0: bfbb 85bd 2dca 03bd 90e3 3d3d d941 2cbd
000000c0: 4306 edbd d3f8 933d 1cd9 513c 6191 f6bc
000000d0: b565 97bd b931 c33c 41bf a4bd 7186 8b3c
000000e0: 3cad 11bd e9c3 62bd d9f8 64bc 659c 553d
000000f0: 342e b73d 1d92 363d a522 7bbd be65 28bd

fc4.weight f4 [1, 64]
-0.07142307 -0.08312452 0.016541094 0.005659193 -0.0002403463 0.00233179 -0.013753329 -0.09046057
0.045591194 0.05140041 -0.0040107486 -0.09954063 -0.037546594 -0.047663275 0.07331198 -0.027476102
0.015623584 -0.05217143 -0.037700932 -0.047874518 0.031699248 -0.02629787 0.028209833 -0.09074822
-0.068391584 0.008399446 -0.035521567 -0.021731755 -0.026195144 0.0033924982 -0.004137658 -0.0017316438
-0.07856376 0.03626163 0.026114216 -0.028359776 0.07106066 0.08944258 -0.052607916 -0.108081706
-0.09286273 0.0016496861 0.050041277 -0.10607586 0.024169309 0.076819636 -0.01378619 0.09100018
0.05058739 -0.0043667774 -0.10722288 0.015011373 -0.066559754 -0.06526364 0.0071390434 0.0020344635
-0.012880626 0.055407844 0.039027207 0.0754239 -0.029669084 -0.028600318 0.008752516 -0.062347956
00000000: 4246 92bd 303d aabd 3081 873c c070 b93b
00000010: 7805 7cb9 f2d0 183b a555 61bc 6443 b9bd
00000020: d5bd 3a3d 3c89 523d 996c 83bb f5db cbbd
00000030: 75ca 19bd 913a 43bd 9724 963d 9015 e1bc
00000040: 10fa 7f3c b6b1 55bd 4b6c 1abd 1218 44bd
00000050: 12d7 013d a16e d7bc 4f18 e73c 34da b9bd
00000060: e310 8cbd d49d 093c 107f 11bd cb06 b2bc
00000070: 3397 d6bc ad54 5e3b 3195 87bb 53f8 e2ba
00000080: 09e6 a0bd 1387 143d 7bed d53c c352 e8bc
00000090: 4088 913d ac2d b73d 667b 57bd f159 ddbd
000000a0: d12e bebd 483a d83a 15f8 4c3d 4d3e d9bd
000000b0: b7fe c53c 9d53 9d3d 79df 61bc 4d5e ba3d
000000c0: b934 4f3d 2f17 8fbb ab97 dbbd 43f2 753c
000000d0: 7b50 88bd f1a8 85bd a3ee e93b a254 053b
000000e0: 4309 53bc 56f3 623d feda 1f3d d877 9a3d
000000f0: 940c f3bc 374b eabc b666 0f3c 9260 7fbd
